trained/volts/checkpoint.pth.tar (torch, 671961 bytes, 58 tensors)

embedding.weight f4 [64, 92]
00000000: fa57 153d c761 a33d ac11 f73c 6c7d 8fbd
00000010: 1585 90bd 4a25 6d3a a363 a53d db35 d2bd
00000020: d3b5 3b3d 9d08 033d d8a4 d23d 949e db3c
00000030: a65b 683d b5f4 813d 0493 99bc 3d0a 91bd
00000040: 42b9 89bd 5bb7 4fbb a971 35bd fbe4 aa3d
00000050: ed72 973d 799e 68bd 0546 113d 5c2c bdbc
00000060: 0070 ddb8 b025 97bd 8b03 babd 23f3 893d
00000070: 62b1 383d 01c4 b43d bf2b 4b3c b43c 2ebd
00000080: 5c4b a2bc 3686 893d b832 4d3d 6791 8cbd
00000090: 8cfb 84bd dd28 cc3d 9ae5 79bd 5b00 a33d
000000a0: c8f4 eabc b6e0 7a3d 10c3 993c 1f6e ba3d
000000b0: a894 65bc 2826 78bd 8318 33bc a8b1 003c
000000c0: 6aaf 7f3d 90f3 61ba d462 6bbc 0f60 40bd
000000d0: cd97 e9bc 8f07 1a3d 5011 46bd 7766 98bd
000000e0: a11b af3d b3db b73d da7a 613d 73f0 80bd
000000f0: 98ba a1bd 9f04 813c 7241 69bd 3e6c c73d
00000100: 100a b53d a2f1 cbbd 0566 64bd b65c 6abd
00000110: 9099 b2bd c2f6 a5bd ef51 243d f0d9 1ebd
00000120: d369 a63d 41f9 813d 3569 65bd 2da9 883d
00000130: d9d7 b43d a848 13bd 992c ca3d 7bd5 3abd
00000140: d076 ca3d ba4f 393d f984 813d f1b3 de3c
00000150: 966c 973d 1006 9e3d 0a7e f2b9 163e 8ebd
00000160: 6b8f bf3d 3f30 96bd f12d 853d 2cd9 ee3c
00000170: c2be 4ebd 73fa 24bd 14d9 1ebd 0138 903d
00000180: 105c 0bbd 9661 30bd 3061 a1bc a258 613d
00000190: b5b1 03bc 38c8 0abd 2f03 b03d 87c0 873d
000001a0: 3d23 c83d 60b4 623c d1c5 1fbd e7aa fabc
000001b0: 9fae 7c3d da19 363d 4430 a63c 76b6 57bd
000001c0: c695 bbbd bc19 2dbd 2ce5 b83d 014c ac3d
000001d0: 4dd1 8ebd 721d 0cbd 2276 91bd a3b0 57bd
000001e0: ae18 623d a91e babd b47a 253d e6b3 cebd
000001f0: 00de c1bc f1b8 c43d 8e8a a33d a3d2 3ebd
00000200: 65ec 94bd 8fdf 213c 148e cfbd 49d1 8c3d
00000210: 54ce 66bb a005 0dbd eb6e 803d 955a a5bd
00000220: 96a0 793d ef5b babd 803d ab3d 7abd 693d
00000230: d335 3fbd cf16 85bd 1f38 3fbd bdbc ebbc
00000240: ef2d 56bc 8e9d c43d 3a57 d43d 6a78 63bd
00000250: 40b8 58bd a80a 48bd 3663 633d 7e77 4f3d
00000260: b9a3 a53d 8619 63bd 1836 57bd 766b 22bd
00000270: 2fcc c3bd 3ee8 a13d 3687 763d cc0f ae3c
00000280: e765 55bd a08c 88bb 747d c639 8e34 543d
00000290: 355d a2bd 7e65 cdbc 7909 1fbc cd11 aabb
000002a0: e090 333b beb4 c63d f74d 83bd 20ed bfbc
000002b0: 57dc efba 2203 1b3d 9726 c03d faf6 d0bd
000002c0: 711a 773d 1ae7 1f3d 8f11 41bd 92fe 413d
000002d0: a8e4 5dbd e0e1 b1bb de73 533d 5200 5d3d
000002e0: f803 9fbd e520 8a3c d813 babc 6cb5 bc3c
000002f0: 7dfa b93d c461 90bd 6025 cf3b 3ad2 443d
00000300: a250 58bd 8573 d03d 66dd 983d 45a4 42bd
00000310: a8f2 06bc 5079 c03b dba0 693d 6bf4 2cbd
00000320: 8195 b1bc 3c44 873c c032 353b 8324 c4bb
00000330: 65f9 32bd e6cc b7bc 08ab 1cbd 3014 c9bd
00000340: 40dd df3b 9686 0fbd 8b93 43bd 8acc a1bd
00000350: 5c21 e73c a8ef b73d 97d1 2c3d 8c8f 57ba
00000360: c0b4 b2bd dc5b 0bbd 7ac1 55bc 576f 75bd
00000370: bbcd b9bd 18f8 cebb b25d 03bd 5a2e c73d
00000380: ea9e 36bd 4e57 a3bd 9b5b c83d d4c6 ff3c
00000390: 1ce5 b53c bab4 91bd a5e0 303c 558e bc3d
000003a0: 2a82 313d 137e 343d fac4 74bc cb14 5b3d
000003b0: 1c59 c53c c743 a6bd 896b 75bd ac83 453d
000003c0: fe62 743d 04d3 f1bc 5f56 8dbd e1bc a13d
000003d0: e3ee bf3d 8725 d1bd cd3c b83d bd38 1e3d
000003e0: 89a0 b33d 5898 98bd 2025 d6bb 3947 b03d
000003f0: 203d 463b ba38 5ebd 2055 9abc 00cf 4a3b
0.036460854 0.07977634 0.030159794 -0.07006344 -0.070566334 0.0009046389 0.08075645 -0.10264178
0.045827698 0.031990636 0.10285348 0.026809014 0.056728028 0.06345502 -0.01874686 -0.07082031
-0.06724788 -0.0031694982 -0.044297848 0.08344456 0.07394967 -0.056791756 0.035467166 -0.023092441
-0.00010558963 -0.07380235 -0.09082707 0.06735828 0.04509104 0.08826447 0.012400567 -0.04253836
-0.019811325 0.06715052 0.050097197 -0.06863671 -0.06493291 0.099687316 -0.06100998 0.07959052
-0.028681174 0.061249457 0.01876977 0.09103035 -0.014012493 -0.060583264 -0.010931137 0.007854857
0.062423147 -0.00086193625 -0.014366824 -0.04696661 -0.028514767 0.037604865 -0.048356354 -0.074414186
0.08550192 0.08977451 0.0550488 -0.06295862 -0.07896918 0.015749274 -0.05694718 0.097374424
0.0883981 -0.09958197 -0.055761356 -0.057217322 -0.08720696 -0.08103706 0.0401172 -0.03878206
0.08125653 0.063463695 -0.056008536 0.06672893 0.08830232 -0.035957962 0.098717876 -0.045613747
0.09885943 0.04524205 0.06324191 0.027185412 0.07393758 0.07716 -0.00046251743 -0.06945436
0.09353527 -0.07333421 0.06502903 0.02915629 -0.05047489 -0.04027791 -0.03878124 0.07041932
-0.034023345 -0.043061815 -0.019699663 0.055016167 -0.008037974 -0.03388235 0.08594357 0.066285186
0.09772346 0.01383695 -0.03900701 -0.03059907 0.06168997 0.044458248 0.020286687 -0.052664243
-0.091594264 -0.04226087 0.09028086 0.08412934 -0.06973515 -0.03420777 -0.0710261 -0.05265869
0.055199318 -0.09087879 0.040400222 -0.10092907 -0.023665428 0.09605587 0.079854116 -0.046587598
-0.07271651 0.009879961 -0.10134521 0.068758555 -0.0035218196 -0.034429193 0.06271156 -0.08073918
0.060944162 -0.09099566 0.083613396 0.057065465 -0.04668219 -0.06498491 -0.04668438 -0.02877652
-0.013072475 0.09600364 0.103682 -0.055534758 -0.05291009 -0.048838288 0.055514537 0.050651066
0.08087868 -0.055444263 -0.052541822 -0.039653264 -0.09560429 0.07905625 0.06018754 0.021247767
-0.052099135 -0.0041671544 0.00037858973 0.051807933 -0.07927934 -0.02507281 -0.009706848 -0.0051901103
0.0027399585 0.097024426 -0.06411355 -0.0234285 -0.0018299919 0.037844785 0.093823604 -0.10203357
0.06032795 0.039038755 -0.047135886 0.047361918 -0.05417314 -0.0054285377 0.05162417 0.053955384
-0.07764429 0.016861388 -0.02271454 0.023035727 0.0908098 -0.07049897 0.006321594 0.04805205
-0.052811272 0.101782836 0.074641034 -0.04751994 -0.008236565 0.0058738366 0.05703817 -0.042225283
-0.021677734 0.016512029 0.0027648658 -0.005985798 -0.043694872 -0.02243657 -0.038249046 -0.098183036
0.006831795 -0.03504046 -0.04774813 -0.07900341 0.02821415 0.08981258 0.042192068 -0.0008222989
-0.087258816 -0.03402315 -0.013046617 -0.059920635 -0.09072443 -0.006316196 -0.032071777 0.09725638
-0.044585146 -0.079756364 0.09783097 0.031222738 0.022203974 -0.07114549 0.010795747 0.09206835
0.043337025 0.044065546 -0.014939541 0.053486627 0.024090342 -0.08118396 -0.059917007 0.048221275
0.05966472 -0.029519565 -0.069012396 0.07897354 0.09371736 -0.10212236 0.08995972 0.03862833
0.08770854 -0.07450932 -0.0065351874 0.08607335 0.0030248836 -0.054253317 -0.018839419 0.0030946136

embedding.bias f4 [64]
00000000: 01a4 26bd 002a c93d a351 b1bd aee8 8f3d
00000010: e3b1 af3d 6d50 cf3d c9d9 88bc 0d74 e33c
00000020: 4cc6 773d 78fa 0e3b 3a56 7d3d da59 603c
00000030: 01e7 6bbd 5d79 33bb c942 afbd c3f0 cebd
00000040: f371 5a3d 5576 743b 3b40 67bc 17bf cc3d
00000050: 830c 7f3c 2dc7 c83b 4d94 373d 6978 a0bb
00000060: d8d5 0b3d 3750 9fbd 5688 bfbd f740 b9bc
00000070: 373b 323d 02f5 673d ff09 cebd 69b2 c93b
00000080: b4a6 9cbd b6c6 4f3c 70eb fcbc 1ca5 8dba
00000090: 4eb4 aa3c e08a 8c3d 654f af3d d443 1e3d
000000a0: 409f 66bd aeb7 33bd 60f1 52bd 8349 233d
000000b0: 162b 98bd 0e5e 873d d63d a63d 362f a2bc
000000c0: 0ee4 8bbb a765 3cbd 945c 883d 7131 dabc
000000d0: ae6e 9d3b f04c 4a3d 47c1 c3bd bd69 a83d
000000e0: 83fb 823c af00 0bbc 783f 843d 4c75 bf3d
000000f0: 4803 acbd 0688 8a3d 9a9b a93c b1e5 3abc
-0.04068375 0.09822464 -0.08658149 0.07026802 0.08578851 0.10122762 -0.01670541 0.027765298
0.060491845 0.0021816771 0.06184981 0.013693297 -0.05759335 -0.002738557 -0.0855766 -0.101045154
0.053331327 0.0037301977 -0.014114435 0.09997385 0.015566948 0.006127259 0.044819165 -0.0048971665
0.034139484 -0.07778972 -0.09352176 -0.022613985 0.043513503 0.056630142 -0.100605 0.0061553014
-0.076489836 0.012681654 -0.030873984 -0.0010806653 0.02083793 0.06862426 0.08560065 0.038638905
-0.056304216 -0.043876342 -0.051499724 0.039865028 -0.07430093 0.066097364 0.08117263 -0.019797903
-0.0042691296 -0.04599538 0.06658283 -0.026634904 0.004804454 0.04938978 -0.09558349 0.08223293
0.01598907 -0.00848405 0.06457418 0.093485445 -0.08399063 0.06764226 0.02070408 -0.011407302

convs.0.fc_full.weight f4 [128, 169]
00000000: a158 8fbd 1ce0 d6bc 24f6 9cbd 3da4 3ebd
00000010: 606d b2bc 7322 3f3d ba98 f2bc e510 97bd
00000020: 6401 303c 6ea4 f6bc e310 4f3d d006 473c
00000030: 49bb 783d 1842 5fbc 23f9 84bd ddda 943d
00000040: e7e6 513d 602a 8f3d 8e67 893c a75d 13bd
00000050: 4445 9fbd 70fb b0bc 469b d1bc 0069 1bbb
00000060: 1f27 90bd 4efd 9e3c 1de4 833c 6ec9 16bb
00000070: ce36 95bd 66e4 1f3d 8097 8b3d 6612 24bd
00000080: e41e dfbc f3d7 85bd e0b9 1f3d a2ae 6ebd
00000090: c72a bebc 8b66 97bd 4dfa b63c 39d9 953a
000000a0: 4eef 65bd 613e 9abc 2bf6 88bd f42b 25bd
000000b0: dd84 97bc 0060 7abc 6fe4 973d 0dc6 2dba
000000c0: e422 613d cdda cf3c ecf0 1c3a 37b2 773d
000000d0: 8a9a 093d 938b 18bd 8834 9dbd 4f35 d13c
000000e0: 81c6 973d a035 7d3d 5461 7a3d 7fc8 db3b
000000f0: 1ec5 653c bd09 6b3d 9302 b6bc d3af debb
00000100: 4c4c 93bc e66d 8d3d 339e 5cbc e583 363d
00000110: 4096 61bd ca6b 1a3d 76b0 3abd 2bc8 9a3d
00000120: 37a4 60bc e3be 693d eca4 273b fc52 5dbd
00000130: 0e87 603d 7d91 29bc 6a96 3c3d ea07 76bd
00000140: 1401 14bd a16f c9bc 3099 953d 81be 8f3d
00000150: e0f5 923d 2c49 9e3c ff23 0d3d ec25 623d
00000160: f01b 18bd 046a 08bd fa7e 88bc cd67 0ebd
00000170: 4788 e53b 66c1 ac3b 6a66 1e3d 954a e13c
00000180: f0bb 18bd 006e 58bd 12c1 563d 2b26 3cbd
00000190: d5b1 af3c b041 593d 954e 80bd ae48 3a3d
000001a0: 21df c5bc 8dd0 983c 4114 1b3d 1f51 5bbd
000001b0: 476b 0b3c bf6b a63b fce8 97bd 6d29 8bbd
000001c0: 8682 ccbc 2eb0 8c3d 6ce2 27bd 6bdd 8bbd
000001d0: 4f6b 643d c6e0 d53c 2a43 913c 621f 37bd
000001e0: 7b10 06bc 474e 813d c24e 6abd 3287 1b3d
000001f0: 63c3 89bd 728c 593c 98f2 013d a7cb 383d
00000200: 864a 343d 17a0 003d a3b2 5abc 3000 2b3d
00000210: 5bfe 17bd bf2f 51bd bf15 233d 3771 383d
00000220: 5e64 84bc 1bff 3e3d 4ae7 8e3d 92e5 91bd
00000230: 2e16 2dba ee3e a43c 0bab 133d 6221 503d
00000240: b9cc 40bd a32a 053d 3b40 1ebc ba21 6c3d
00000250: 0e1c 463d 3f6a 3abd e822 5ebd 4079 87bc
00000260: 9e4b afbc 4320 2ebd e6b3 86bd d0c6 733c
00000270: 02b5 703d 8b4e 9d3d c330 993d 00a5 233d
00000280: a037 a2bb 8b06 873d e06f 53bd f03e 8a3c
00000290: 4626 cabc 60da 483c bc70 6ebd 45eb 24bd
000002a0: 2e15 97bd 3da3 203d eb94 563d 3e27 95bc
000002b0: 195a 26bc 8cc6 93bd 7a4b 8fbd 195c 40bb
000002c0: f6c9 873d 21f9 9a3d baf5 a8bc cb2e 2dbc
000002d0: 7119 443d e21b eebc 73f9 34bd c54c f73c
000002e0: 63ec 9c3d 033e 7fbd 4ec9 45bd c497 d33c
000002f0: 6f8d 90bc bd62 07bc ed56 133d d4e4 023d
00000300: 7694 8b3d 19e8 193d 7b96 fc37 9fc7 98bd
00000310: 9e81 603c faea 1abd d7ff 5cbd 7c31 293d
00000320: 511b 96bc a14d 98bd fec5 9abd c518 9c3c
00000330: a765 bbbc fdc0 2e3d c2b4 e03c 0263 d6bc
00000340: 313b 903d ae82 da3c f625 f13c f92d 83bd
00000350: 86b8 20bd 758e be3b fd08 0d3d 2679 acbc
00000360: 709c c2bc 3ef8 79bd 87ee 113d 3cbb efbb
00000370: 17c2 3bbd 12ec 6ebc 8872 8fbc 43d2 fa3c
00000380: ff28 ac3c 82ee 3f3c ee58 353d e3e6 8b3d
00000390: a423 243c d2b5 d7bc 6541 d53a c2d5 84bc
000003a0: 373c 923d f009 2e3d cef9 d4bc 9aff 8f3d
000003b0: 9a34 15bc 3fb7 853c 9bb3 e0ba 3b21 20bc
000003c0: e7f0 49bd 6566 213d 8801 fcbb b36d 9d3b
000003d0: cc5b 00bd 2a37 8bbc 8a63 68bd 53ce 6e39
000003e0: fec4 233d e624 ad3c 39a3 0abd bb11 2abd
000003f0: c8c8 b9bc 4c5d 18bd 60fe 8c3d 3a20 86bd
-0.069993265 -0.02622991 -0.07664135 -0.04654335 -0.02178067 0.046663713 -0.029613841 -0.07376269
0.010742519 -0.030107703 0.050553214 0.01214762 0.060725484 -0.013626598 -0.064928316 0.07268307
0.051245596 0.06990504 0.016773012 -0.035977986 -0.07776883 -0.02160427 -0.025586735 -0.0023713708
-0.07038712 0.019407894 0.016099984 -0.0023008245 -0.07285844 0.039036177 0.06816006 -0.04005661
-0.02723641 -0.0653533 0.038995624 -0.05827201 -0.023213757 -0.073926054 0.02233615 0.0011432535
-0.05613642 -0.018828573 -0.06687578 -0.04032512 -0.018495971 -0.015281677 0.07416617 -0.0006628938
0.054964915 0.025372887 0.0005986828 0.060472693 0.033594646 -0.037242483 -0.07676035 0.025538115
0.074109085 0.06181872 0.061127976 0.0067072506 0.014024047 0.057382334 -0.022218024 -0.006795862
-0.017980717 0.06905727 -0.013465452 0.04455938 -0.05507493 0.037700452 -0.045578443 0.0755771
-0.013711027 0.05706681 0.0025580479 -0.05403422 0.0548163 -0.0103496285 0.046041884 -0.06006614
-0.03613384 -0.024589362 0.07304609 0.070187576 0.07175803 0.019322 0.034458157 0.055211946
-0.03713602 -0.03330423 -0.01666211 -0.03476696 0.007004771 0.0052720783 0.03867189 0.027501384
-0.037288606 -0.05283928 0.05243022 -0.045934837 0.021447102 0.05304116 -0.06264988 0.04547947
-0.024154248 0.018654132 0.037861113 -0.05354416 0.008509464 0.0050787623 -0.07417485 -0.06795011
-0.024964582 0.06869541 -0.040987417 -0.068293415 0.0557664 0.026108157 0.017732222 -0.044707663
-0.00818264 0.06313758 -0.057204016 0.03797073 -0.0672672 0.013278114 0.031725496 0.045116093
0.044016384 0.031402674 -0.013348254 0.041748226 -0.037107807 -0.051070925 0.03981566 0.045029845
-0.01616114 0.046630006 0.06977709 -0.07123865 -0.00066027313 0.020049538 0.03605179 0.050813086
-0.04707024 0.032511365 -0.009658868 0.05764935 0.0483666 -0.04551148 -0.054232508 -0.016537309
-0.021398362 -0.042511236 -0.06577282 0.014878944 0.058766373 0.076809965 0.07480004 0.039952278
-0.0049504787 0.06593045 -0.051620364 0.016875714 -0.024676453 0.012259096 -0.05821298 -0.040263433
-0.073770866 0.039218176 0.052388113 -0.018207189 -0.010153317 -0.07215604 -0.06996818 -0.002935177
0.06630318 0.07567049 -0.020624984 -0.010570238 0.047875825 -0.02906603 -0.044183206 0.030187974
0.07662275 -0.062315 -0.048287682 0.025829203 -0.017645566 -0.008263287 0.03597157 0.03195651
0.06815426 0.03757486 3.0110814e-05 -0.0745995 0.013702778 -0.037821747 -0.053954925 0.041306958
-0.018323572 -0.074366815 -0.07557295 0.01905478 -0.02287562 0.042664517 0.027429942 -0.026170257
0.0704254 0.026673641 0.029437046 -0.06405253 -0.039238475 0.005815322 0.0344324 -0.021053862
-0.023756236 -0.061027758 0.035627868 -0.0073160212 -0.045839395 -0.014582651 -0.017510667 0.030617839
0.021015642 0.01171458 0.044274263 0.068311475 0.010018263 -0.026331816 0.00162701 -0.016215209
0.07140391 0.042489946 -0.025998022 0.07031174 -0.0091067795 0.01632273 -0.001714337 -0.009773548
-0.049302008 0.03940429 -0.007690612 0.004804337 -0.031337544 -0.016994078 -0.056735553 0.0002277431
0.03998279 0.021135759 -0.033847068 -0.041520815 -0.022678748 -0.03719835 0.06884456 -0.065491155

convs.0.fc_full.bias f4 [128]
00000000: d8d1 cd3c 7040 ad3b c31b 58bd 5a92 143a
00000010: 6070 7d3c 92ad 233d 64b5 c83c 1aab e2bc
00000020: 2608 84ba c0fd f13b 29de 853d 76bc a5bc
00000030: b2ed 18bd ff32 49ba a6f9 94bd 9710 803b
00000040: d066 363d 6885 ddbc faa1 473d c091 933b
00000050: be7d 4b3d b12d 463b 664a 4d3d 0d39 9b3d
00000060: 0627 37bb 14bf 063d d028 9f3c 396d 98bd
00000070: a8b4 20bc 4047 52bd 25b3 823d cc81 cd3c
00000080: 76ca 5c3d 406c b93c bcc5 b63a 3098 77bc
00000090: 6e38 593d 78c1 4e3c 9298 89bd 99a4 62bd
000000a0: 62d0 6c3d 46bb 94bc aabb 12bd 2d26 4abd
000000b0: 2805 88bc 0e02 293a 3667 0abd 46a1 5b3d
000000c0: 56b9 5c3d d4fe 893c 7c4c 66bd 86da 6f3d
000000d0: e0ad 1d3c a854 8c3c 2847 2b3c 999d 43bd
000000e0: 4fd2 8d3d e053 83bb 302b 04bc fe2f 98bb
000000f0: cef3 793d dc41 6cbd c833 97bd 3a81 93bd
00000100: 10d6 143d 801b 21bc 80ca 443d 37a9 27bd
00000110: 2c84 cdbc 2a25 3f3d befd 1ebd 92fb fcbb
00000120: 10ea f73c a0c8 0e3c a84d a5bc 4c9d 3c3d
00000130: 3438 973a 9066 58bd f5f3 84bd 1ed6 2cbd
00000140: a89b 9dbc e6f1 4ebd ae39 713d a638 56bd
00000150: d673 793d 6ddb 35bd 1e10 1c3d 0186 e03b
00000160: 05ac 8e3c bbe9 953a 17eb 943d 9bca 843d
00000170: 1fd0 883d 1145 c83b a8d5 cb3c 74be 3c3d
00000180: 3d79 823d 20c1 9b3b 3599 13bc d8f7 903c
00000190: fcfd 53bd 8297 133b 99a2 06bd 5eb5 92bc
000001a0: c8c9 39bd f073 5d3c 03fe 2abd 5ef5 94bc
000001b0: e8b8 d33c 57fa e03b 9ca4 9c3c 2653 213d
000001c0: 80ad 50bc 869a 4f3d 3cfc 183d c05f c13b
000001d0: cad3 b2bc 2cbf 2b3d 986c 87bd a067 513c
000001e0: 1e07 d8bc 0370 1d3a 5e13 683d d847 49bc
000001f0: beb1 f53a a204 bdbc 68f3 363d 625d 91bc
0.025124475 0.0052872226 -0.05276085 0.000566756 0.015468687 0.03996045 0.024500556 -0.027669478
-0.0010073229 0.0073849857 0.06536514 -0.020231467 -0.03733606 -0.00076751405 -0.07274179 0.0039082277
0.044531643 -0.027041152 0.048738457 0.0045034587 0.049680464 0.0030239637 0.05011978 0.07579241
-0.0027946844 0.03289707 0.01942864 -0.074427076 -0.009808697 -0.05133748 0.06381825 0.025086306
0.05390402 0.022634625 0.0013944427 -0.015111968 0.05303233 0.012619369 -0.067185536 -0.055332754
0.057815917 -0.018155705 -0.0358235 -0.049352814 -0.016604021 0.00064471446 -0.033789836 0.0536206
0.053887688 0.016845144 -0.056225285 0.05855801 0.009623975 0.017130211 0.010453977 -0.04775772
0.06924879 -0.0040078014 -0.008066937 -0.004644393 0.061023526 -0.057679996 -0.07382923 -0.072023824
0.03633696 -0.009833217 0.04804468 -0.04093286 -0.025087439 0.0466663 -0.038816206 -0.007720419
0.030262977 0.008714825 -0.020178631 0.046048447 0.0011537136 -0.052832186 -0.064918436 -0.042196386
-0.019239262 -0.05052366 0.0588929 -0.052300118 0.060901485 -0.044398714 0.038101308 0.006851912
0.01741601 0.0011437455 0.07271402 0.064839564 0.06680321 0.006111749 0.024882153 0.046080068
0.063707806 0.004753247 -0.009008695 0.017696306 -0.05175589 0.0022520726 -0.03286991 -0.017908748
-0.04535845 0.013516411 -0.04174615 -0.018183406 0.025845006 0.0068657803 0.01912146 0.039385937
-0.012736678 0.050684474 0.037349924 0.005901307 -0.021829505 0.041930363 -0.066125095 0.012781054
-0.026370581 0.0006005766 0.056659095 -0.012285195 0.0018744988 -0.023073498 0.044665724 -0.017744724

convs.0.bn1.weight f4 [128]
00000000: 74f9 7f3f 30ff 7f3f 7efe 7f3f fe01 803f
00000010: 5900 803f 3800 803f a2fa 7f3f 3f04 803f
00000020: 4400 803f e0ff 7f3f 4c00 803f f8fd 7f3f
00000030: de01 803f 3000 803f f0fe 7f3f fa01 803f
00000040: e0fa 7f3f 80fe 7f3f ddfc 7f3f b200 803f
00000050: 4e01 803f 9801 803f 7fff 7f3f a2ff 7f3f
00000060: 1200 803f 7e00 803f 3f01 803f aefd 7f3f
00000070: 0000 803f d802 803f 9d00 803f 8e02 803f
00000080: e1fe 7f3f daff 7f3f 37f3 7f3f 8700 803f
00000090: 43fd 7f3f 6300 803f dcfe 7f3f 3dff 7f3f
000000a0: 2d01 803f 8f01 803f 2a00 803f a800 803f
000000b0: 5900 803f d400 803f fcfe 7f3f a4ff 7f3f
000000c0: 0801 803f 2300 803f 15fe 7f3f 83ff 7f3f
000000d0: 9bff 7f3f b601 803f f0ff 7f3f 0f01 803f
000000e0: cef9 7f3f 99fc 7f3f d4ff 7f3f ea00 803f
000000f0: 81f5 7f3f b5ff 7f3f 3d00 803f dd0f 803f
00000100: 0102 803f faff 7f3f 7100 803f 5c00 803f
00000110: 80fe 7f3f 1301 803f 6e03 803f 9afd 7f3f
00000120: c1ff 7f3f 6600 803f 8eff 7f3f e200 803f
00000130: 05fe 7f3f 14ff 7f3f 1b00 803f c800 803f
00000140: a302 803f b3fa 7f3f f400 803f 94ff 7f3f
00000150: adfe 7f3f d3ff 7f3f 8f00 803f d2ff 7f3f
00000160: d8fe 7f3f d1ff 7f3f dffe 7f3f f400 803f
00000170: d000 803f b5f8 7f3f 7e00 803f daf7 7f3f
00000180: 4a00 803f 2800 803f 2008 803f 90fd 7f3f
00000190: 0bff 7f3f e0ff 7f3f 7aff 7f3f 5200 803f
000001a0: f0ff 7f3f f2fb 7f3f 47fc 7f3f bffc 7f3f
000001b0: d1ff 7f3f 7cfe 7f3f df00 803f 92ff 7f3f
000001c0: 8afd 7f3f 8dfe 7f3f f200 803f 0200 803f
000001d0: 9301 803f d7fb 7f3f f8ff 7f3f fefd 7f3f
000001e0: 5301 803f a6fe 7f3f beff 7f3f 73fb 7f3f
000001f0: 5e06 803f 1202 803f 50fd 7f3f 3ede 7f3f
0.9999001 0.9999876 0.999977 1.0000608 1.0000106 1.0000067 0.9999181 1.0001296
1.0000081 0.9999981 1.0000091 0.999969 1.000057 1.0000057 0.9999838 1.0000603
0.9999218 0.9999771 0.99995214 1.0000212 1.0000398 1.0000486 0.9999923 0.9999944
1.0000021 1.000015 1.000038 0.9999646 1.0 1.0000868 1.0000187 1.000078
0.9999829 0.99999774 0.9998049 1.0000161 0.9999582 1.0000118 0.9999826 0.9999884
1.0000359 1.0000476 1.000005 1.00002 1.0000106 1.0000253 0.9999845 0.9999945
1.0000315 1.0000042 0.99997073 0.99999255 0.999994 1.0000522 0.99999905 1.0000323
0.99990547 0.9999481 0.9999974 1.0000279 0.99983984 0.9999955 1.0000073 1.0004841
1.0000612 0.99999964 1.0000135 1.000011 0.9999771 1.0000328 1.0001047 0.9999634
0.99999624 1.0000122 0.9999932 1.000027 0.9999698 0.99998593 1.0000032 1.0000238
1.0000805 0.9999191 1.0000291 0.99999356 0.9999798 0.9999973 1.000017 0.99999726
0.99998236 0.9999972 0.9999828 1.0000291 1.0000248 0.9998887 1.000015 0.99987566
1.0000088 1.0000048 1.000248 0.9999628 0.9999854 0.9999981 0.999992 1.0000098
0.99999905 0.99993813 0.9999432 0.99995035 0.9999972 0.9999769 1.0000266 0.99999344
0.99996245 0.9999779 1.0000288 1.0000002 1.000048 0.9999365 0.9999995 0.99996936
1.0000404 0.9999794 0.99999607 0.99993056 1.0001943 1.0000632 0.999959 0.9994849

convs.0.bn1.bias f4 [128]
00000000: 34d7 3e38 4b3d a837 f8f3 bc37 5f63 4cb8
00000010: f68b 88b7 db82 7237 a80e 8836 9c05 09b8
00000020: 218b a4b6 787a e736 fa44 8ab6 56a0 9437
00000030: 7556 85b8 194e 12b6 48c9 1c37 b37e 75b8
00000040: d8dd b637 a950 beb5 abd3 1638 534c 9fb7
00000050: b053 10b7 1611 0f37 f41a 4636 5cbd eb36
00000060: 78a4 d6b7 a481 e236 69ce 25b8 831b ccb6
00000070: 8fa8 8337 6686 8eb8 4cf8 8fb7 f197 66b8
00000080: 19dc 3237 ac05 f6b7 9b87 7c38 047d 11b7
00000090: 268c 8635 446a 2db8 d274 0ab8 fa64 ae37
000000a0: 3709 efb7 de2a 27b8 1033 2436 2ba8 0537
000000b0: ea10 33b8 0dc0 abb7 d84a 4737 b342 c1b5
000000c0: 5561 86b7 8952 9636 23f4 1737 5986 b737
000000d0: 6ade f1b5 74cb 18b8 6194 a837 7e3c 80b8
000000e0: b120 3738 0207 84b6 ca26 fd35 a543 d4b7
000000f0: d107 3c39 54cd 1ab8 462e 9837 6899 26b9
00000100: 2c08 d0b7 d27d 3a34 925b 17b7 7cf9 80b7
00000110: 1887 1d37 b29f 94b7 9047 87b7 24cf c437
00000120: 33d9 e4b5 4dd2 98b5 60a2 1137 1489 5ab7
00000130: 79a7 6136 c001 c036 7d38 5a37 c79b 81b7
00000140: ff45 6db7 d7e1 ef37 c85c 1db7 d117 5cb5
00000150: d5b2 5737 efeb 08b5 1198 f8b5 4165 f535
00000160: f15d 8036 12bc a536 64fc 9536 cd72 42b7
00000170: 0994 f3b6 16c7 2e38 705a 87b6 bba9 2038
00000180: fa4f 8cb6 897c 60b5 6252 a7b8 6ed5 3137
00000190: 4242 ea36 ccc1 f333 9a6a 5536 d361 1e36
000001a0: 96b5 f4b6 a43a 4037 ae74 8137 8bd5 c137
000001b0: cc20 2137 a1b4 ec36 d5f1 adb7 6634 0635
000001c0: d739 8537 b04f 6237 e537 18b7 abd2 a736
000001d0: 9547 83b7 807b 8537 5b54 9db6 a4f7 3837
000001e0: a03b 8ab6 c014 2837 bad6 d2b5 acc1 cf37
000001f0: 78eb 62b8 dd23 17b8 c219 af37 8453 4439
4.5499954e-05 2.0055702e-05 2.2524953e-05 -4.8729937e-05 -1.6277638e-05 1.4454791e-05 4.054822e-06 -3.266857e-05
-4.9037776e-06 6.8985937e-06 -4.1207504e-06 1.7717637e-05 -6.358038e-05 -2.1801154e-06 9.345189e-06 -5.853055e-05
2.1799395e-05 -1.4179578e-06 3.5959918e-05 -1.8989818e-05 -8.602554e-06 8.527442e-06 2.9519988e-06 7.02559e-06
-2.5587375e-05 6.750417e-06 -3.95313e-05 -6.0828766e-06 1.5694908e-05 -6.796121e-05 -1.716255e-05 -5.497778e-05
1.0660872e-05 -2.9328126e-05 6.0207774e-05 -8.671781e-06 1.0024567e-06 -4.134538e-05 -3.301056e-05 2.0789437e-05
-2.8495311e-05 -3.9855826e-05 2.4467627e-06 7.966572e-06 -4.2692678e-05 -2.047422e-05 1.187875e-05 -1.4399033e-06
-1.6019369e-05 4.4799567e-06 9.057144e-06 2.187786e-05 -1.802063e-06 -3.6429105e-05 2.0096255e-05 -6.114783e-05
4.3661046e-05 -3.9347224e-06 1.8861258e-06 -2.5303869e-05 0.00017931989 -3.6907688e-05 1.814136e-05 -0.00015888142
-2.4799338e-05 1.7368373e-07 -9.021622e-06 -1.5374964e-05 9.389383e-06 -1.7717339e-05 -1.6126578e-05 2.3461478e-05
-1.7050537e-06 -1.1386088e-06 8.680479e-06 -1.3025729e-05 3.3625095e-06 5.7222496e-06 1.3006965e-05 -1.5450538e-05
-1.4142598e-05 2.8596185e-05 -9.379532e-06 -8.1991044e-07 1.2856636e-05 -5.1007277e-07 -1.8521697e-06 1.8283391e-06
3.8256335e-06 4.9392775e-06 4.469928e-06 -1.159003e-05 -7.259198e-06 4.1670246e-05 -4.033842e-06 3.8305046e-05
-4.1816356e-06 -8.3627725e-07 -7.9785255e-05 1.0599715e-05 6.981457e-06 1.1350821e-07 3.1801524e-06 2.3600776e-06
-7.292906e-06 1.1457745e-05 1.5432332e-05 2.3106832e-05 9.603984e-06 7.054376e-06 -2.0735819e-05 4.999514e-07
1.588177e-05 1.3489203e-05 -9.07292e-06 5.001513e-06 -1.564975e-05 1.5912345e-05 -4.688785e-06 1.1024913e-05
-4.1196618e-06 1.0018412e-05 -1.5708713e-06 2.4766508e-05 -5.4101896e-05 -3.6034606e-05 2.087362e-05 0.00018723129

convs.0.bn1.running_mean f4 [128]
00000000: d85c 023d 7e2a a23d 38a4 d8bc fcf6 56bd
00000010: 6854 b93c 710e 8e3d 94fd d43c 618b c9bc
00000020: 1d37 51bd 291a 1fbe eb28 bb3d 389f cebc
00000030: cf95 92b7 3e70 93bd 0db8 06be 5d24 1e3c
00000040: b7a1 d7bd 283c 3dbb cc05 253e b36b 3cbd
00000050: 6097 303e c8ca 37be 737e 2a3e 696b 2c3e
00000060: 324c 34bd 64fe 8bbd 2e1a 003d 7411 31be
00000070: da18 cfbb e2f2 85bd be71 173d 2adc ab3c
00000080: e332 8b3d 999b 62bd 0aab d83d bdef 49bd
00000090: 9a29 ba3d 8836 1cbe 1e28 36bd b0ab 93bc
000000a0: c37f 953d cc36 103c b9a7 103c 98e4 46be
000000b0: 6d11 4fbd 839e d6bd 143f 51bd b467 02bb
000000c0: 511d e33c efc1 003e dc90 c2bc 81db 133e
000000d0: d92c 1abd d04e b93d 15d8 6fbe 422a a23c
000000e0: 06ad 0b3e 9daa b3bc af58 7d3d ba43 023d
000000f0: 44f8 073e 6998 5abb 2ce8 40bc d725 ccbd
00000100: eceb a13c 7ec7 62bd adf2 d23c 8d0c b63b
00000110: 5fef c1bd 95cd 643d 0390 903d 8dd6 c93c
00000120: 21ee 193d 95cb a33d 36f0 acbd 5b97 53bc
00000130: fce4 a73c 3762 0bbd 79de 633d 2391 ca3d
00000140: 143f 923d b399 94bd 6e41 fb3d 6b62 373c
00000150: 0e83 c8bd 624e a53c 9064 8fbd 78eb efbc
00000160: a95b 083c 967b 0a3c eb6c b439 c7ad 96bd
00000170: 88b9 9ebd 107d 1a3e 94c1 483d 81e0 d73d
00000180: ca11 613d b443 1abd af37 de3c 9ce3 133e
00000190: 18a5 5abd f4ce a83d 445d 93bd fbe2 ccbb
000001a0: e421 cbba 714a cd3d 8ae8 37bd eb74 a3bc
000001b0: afa3 c2bd 561c e5bd 6692 8c3c ece8 193e
000001c0: b359 0dbd 580c ba3c cd5d ad3d aac3 1d3c
000001d0: ce63 35bd 85a6 d73d d6ee b9bd 76a7 bdbd
000001e0: f4d1 23be a9ae 113b 07c2 8a3d 1c0e 90bb
000001f0: c0e2 de3a 4dad 1ebd eb36 dabc 6e13 473c
0.031826824 0.07918261 -0.026445493 -0.052481636 0.022623256 0.06936348 0.025999822 -0.024602594
-0.05107795 -0.15537323 0.09138664 -0.025222406 -1.7474316e-05 -0.07199143 -0.13156147 0.009652224
-0.105288915 -0.0028874967 0.16115493 -0.046001147 0.17245245 -0.17948449 0.16649799 0.16837849
-0.044017978 -0.068356305 0.031274967 -0.17291814 -0.006320101 -0.06540467 0.036973707 0.020979006
0.06796815 -0.05532417 0.10579498 -0.049300898 0.09089966 -0.15255177 -0.044471852 -0.018026203
0.07299759 0.008802127 0.008829051 -0.19423139 -0.050553728 -0.104794525 -0.051085547 -0.0019898238
0.02772394 0.1257398 -0.023750715 0.14439203 -0.037640426 0.090482354 -0.23422273 0.01979554
0.13640222 -0.02193194 0.061852153 0.03180287 0.132783 -0.0033355004 -0.011774104 -0.09968155
0.019765817 -0.05536603 0.025750482 0.0055556954 -0.094694845 0.05586012 0.07058718 0.024638439
0.037580613 0.079978146 -0.08444254 -0.012914504 0.02049493 -0.03402921 0.05563209 0.09890964
0.071409374 -0.07255878 0.12268339 0.011192898 -0.09790622 0.020178977 -0.07001603 -0.029287085
0.008322635 0.008452317 0.00034413426 -0.07357364 -0.07750231 0.1508677 0.049012735 0.105408676
0.054948606 -0.037662223 0.027126161 0.14442295 -0.053380102 0.08242598 -0.071955234 -0.006252644
-0.0015497771 0.10023964 -0.0448995 -0.019953212 -0.095038764 -0.11187045 0.017159652 0.15030259
-0.034509372 0.022710964 0.08465157 0.0096291695 -0.044284634 0.10529808 -0.090787575 -0.09260456
-0.1599806 0.002222935 0.06775289 -0.004396213 0.0017004833 -0.03873949 -0.026637515 0.0121506285

convs.0.bn1.running_var f4 [128]
00000000: f263 923c e184 c83c 0e1a a13c e7be 993c
00000010: 6282 a93c f99f ca3c ec91 b13c a5c1 a83c
00000020: 2c46 a33c 12e2 a73c 23fd a03c 9725 8e3c
00000030: fb86 f93c 782f c23c ae7a c03c da1a 9b3c
00000040: 4193 e43c 36f2 b93c 25ec b83c 206a b23c
00000050: 3fb6 a13c b7fc bf3c 52ba a73c 5a8c b93c
00000060: 2af2 a63c 0b35 bf3c 3eb1 a73c 0dad ac3c
00000070: 1af7 cf3c f4ae b53c 48e5 043d 9470 d03c
00000080: 3b67 9e3c c332 9f3c ca50 bd3c fc57 a23c
00000090: b922 ad3c 2fc7 c33c e07e 983c f950 8b3c
000000a0: 8bc9 913c dfb1 a43c ea00 b33c cb4a b43c
000000b0: a7f3 ca3c aa88 913c 6d16 bd3c 5a63 c13c
000000c0: f631 9c3c 2a1e c13c 53e2 c23c 3e2a a03c
000000d0: df01 a73c 0413 a03c 5968 d93c bf63 af3c
000000e0: 0e31 963c 7dd1 193d 7d65 9b3c 38a2 9e3c
000000f0: 29e1 a73c 52a0 983c 6d5a 943c 17df c13c
00000100: cb62 c53c e352 cb3c ff71 a13c 9e57 963c
00000110: 62b6 a43c 6e31 a43c 1f82 b63c 4fbe 933c
00000120: f3b8 b13c a081 8c3c 2b2d b73c 5488 8c3c
00000130: c32f 943c 415e b43c 6094 9d3c bc3f 963c
00000140: 3851 a63c 1711 b53c 70db 963c 7d61 bf3c
00000150: c900 a23c b73b c73c e673 a33c ca61 9e3c
00000160: 1927 ab3c aa9d cc3c a621 a13c c796 c13c
00000170: 2eeb 9e3c 642e ca3c 36a5 d33c b4bb ab3c
00000180: c763 943c 8d3b ba3c 074e b13c 822c 9f3c
00000190: 7fb4 9f3c 795a 943c fa07 9c3c d2df 9e3c
000001a0: 38c8 a83c 146a aa3c 6958 a23c 44e8 af3c
000001b0: cc38 bf3c 115c a63c f259 da3c 9b41 bc3c
000001c0: 0d57 b73c 30fb a63c 2b81 b73c b25a eb3c
000001d0: 2b4e aa3c a709 953c 9837 be3c 7cbc a33c
000001e0: cdde 8f3c 903b aa3c f637 a33c bc04 b33c
000001f0: 8670 b23c c22e ba3c 276d a53c 38c7 a63c
0.017869923 0.024477424 0.019665744 0.018767787 0.020692054 0.024734484 0.021676026 0.02060015
0.019930921 0.02049354 0.019651955 0.017351909 0.030459872 0.023704275 0.023495998 0.018933702
0.027902247 0.022698503 0.02257354 0.02177912 0.019740222 0.023435934 0.020474587 0.022649933
0.020379145 0.023340723 0.020470258 0.02107861 0.025386382 0.02217815 0.032445222 0.025444306
0.019336333 0.019433385 0.023109812 0.019817345 0.021134721 0.02389869 0.018615186 0.017006384
0.017796298 0.020104347 0.021851022 0.02200832 0.024774386 0.017765362 0.023081983 0.023606945
0.019066792 0.023573954 0.02378956 0.019551393 0.020386634 0.019540317 0.026539015 0.021409867
0.018333938 0.0375533 0.018969292 0.019364461 0.020493107 0.018631134 0.018109525 0.023665948
0.02409496 0.024819797 0.019707678 0.018352326 0.020106498 0.020043101 0.022278843 0.018035082
0.021694636 0.017151654 0.022360405 0.01715485 0.01808918 0.0220176 0.01923579 0.018340938
0.0203024 0.022102876 0.018415183 0.023361916 0.019775765 0.024320466 0.019952726 0.019333739
0.020892667 0.024977524 0.019669365 0.023631467 0.019399252 0.024680324 0.025835615 0.020963527
0.018113984 0.022733474 0.021643652 0.019430403 0.019495247 0.018109547 0.019046772 0.019393835
0.020603284 0.020802535 0.019817548 0.021473058 0.023342513 0.020307573 0.026654217 0.022980502
0.022380376 0.020383447 0.02240046 0.02872977 0.020789227 0.01819308 0.023219869 0.019987337
0.017562294 0.020780355 0.019924145 0.021852843 0.021782171 0.022727374 0.02019365 0.020358667

convs.0.bn2.weight f4 [64]
00000000: eff7 7f3f f300 803f b2f3 7f3f 93f6 7f3f
00000010: 98f0 7f3f 6702 803f ce07 803f dbfa 7f3f
00000020: ae01 803f 8500 803f 4aea 7f3f 48fd 7f3f
00000030: 4ef6 7f3f abff 7f3f 0404 803f a403 803f
00000040: 4d06 803f e5f2 7f3f b2fa 7f3f b201 803f
00000050: 57fb 7f3f d004 803f 08fb 7f3f ddff 7f3f
00000060: 8afc 7f3f 6a02 803f ee01 803f 14ff 7f3f
00000070: 6903 803f 71f9 7f3f e303 803f 2efc 7f3f
00000080: 7ff2 7f3f fa0d 803f d904 803f 1afd 7f3f
00000090: 56f8 7f3f 3602 803f 4c00 803f 4f01 803f
000000a0: ae04 803f 5d01 803f 41fb 7f3f 8de8 7f3f
000000b0: f105 803f 0907 803f effb 7f3f 0503 803f
000000c0: 33f7 7f3f 90f5 7f3f 1cfb 7f3f 96f7 7f3f
000000d0: 4f00 803f 5905 803f 3d01 803f b408 803f
000000e0: 73fc 7f3f 6703 803f c7fb 7f3f 2300 803f
000000f0: 14f7 7f3f d50c 803f 4af5 7f3f a200 803f
0.9998769 1.000029 0.99981225 0.9998562 0.9997649 1.0000733 1.0002382 0.9999215
1.0000513 1.0000159 0.9996687 0.9999585 0.99985206 0.99999493 1.0001225 1.0001111
1.0001923 0.9998 0.99991906 1.0000517 0.9999289 1.0001469 0.9999242 0.9999979
0.9999472 1.0000737 1.0000589 0.99998593 1.0001041 0.9998999 1.0001186 0.9999417
0.99979395 1.0004265 1.0001479 0.9999558 0.99988306 1.0000675 1.0000091 1.0000399
1.0001428 1.0000416 0.9999276 0.9996422 1.0001813 1.0002147 0.99993795 1.0000921
0.9998657 0.99984074 0.9999254 0.9998716 1.0000094 1.0001632 1.0000378 1.0002656
0.9999458 1.0001038 0.99993557 1.0000042 0.99986386 1.0003916 0.99983656 1.0000193

convs.0.bn2.bias f4 [64]
00000000: 83df d5b7 1e65 9337 f04e 47b8 ace8 26b8
00000010: 46ed 89b8 8756 ac38 ccf7 5837 b8ef 86b7
00000020: 0b3a 9f38 7cb8 98b5 4958 26b8 803b c8b7
00000030: 6be9 cab8 95b8 1d37 21b0 8138 aa9a 8636
00000040: a0e0 9038 c8e8 1fb8 3549 0cb8 4f6d 7ab8
00000050: 7802 80b8 d77a a537 7fcb 0bb7 fb10 e137
00000060: dbba f236 5298 9238 e872 2138 315d ffb6
00000070: e90f 3d38 286c b1b7 3876 2538 3b84 e9b7
00000080: 3ee5 4ab8 8752 9a38 082e 9438 09f4 bfb5
00000090: f5b4 4db8 66ae 1538 3aa9 50b7 c40c 3138
000000a0: 4987 9c37 884e f036 aa1b d337 6d15 c2b7
000000b0: cd87 d3b7 9908 a038 c985 dab7 fdce 2638
000000c0: edd0 66b7 cfd1 efb7 a0a0 efb7 cfb2 6db7
000000d0: 3266 3ab8 fd7d 8838 5092 e1b6 74eb d937
000000e0: 1e9b 64b8 5688 6638 e770 66b7 1703 0038
000000f0: 804b e2b7 ad20 a738 94f4 bbb7 de39 2038
-2.549566e-05 1.7570852e-05 -4.7518814e-05 -3.9794177e-05 -6.576865e-05 8.217716e-05 1.2932298e-05 -1.6085673e-05
7.592522e-05 -1.1378575e-06 -3.9659706e-05 -2.3869565e-05 -9.675588e-05 9.400906e-06 6.184006e-05 4.0115165e-06
6.908295e-05 -3.812535e-05 -3.344678e-05 -5.9706446e-05 -6.1039755e-05 1.9726735e-05 -8.332426e-06 2.6829997e-05
7.233915e-06 6.9901944e-05 3.8492406e-05 -7.610441e-06 4.507593e-05 -2.1150408e-05 3.9449165e-05 -2.7837339e-05
-4.837405e-05 7.358664e-05 7.065764e-05 -1.4301633e-06 -4.9044338e-05 3.568679e-05 -1.2437167e-05 4.2211977e-05
1.8659646e-05 7.1616996e-06 2.5166042e-05 -2.313658e-05 -2.5216397e-05 7.630996e-05 -2.6049924e-05 3.9770257e-05
-1.3757713e-05 -2.858872e-05 -2.8565817e-05 -1.4167933e-05 -4.4441033e-05 6.5084525e-05 -6.7225556e-06 2.5978057e-05
-5.45039e-05 5.4963246e-05 -1.3735355e-05 3.0520456e-05 -2.6976457e-05 7.969267e-05 -2.2406028e-05 3.8200866e-05

convs.0.bn2.running_mean f4 [64]
00000000: f93b 8540 cdf9 9940 702f a640 c496 9a40
00000010: 27cb a140 6f5a ab40 1a1c 9f40 2dc6 8940
00000020: 4a04 9140 6534 aa40 dbbc 8f40 3cc7 9740
00000030: 7fc3 b140 c683 a940 90eb 9540 be47 ac40
00000040: a874 8c40 0e6b 9840 1241 9d40 6ecb 9140
00000050: 30b6 8c40 8beb 7840 4e87 9c40 5816 ba40
00000060: b42d 9a40 62c6 a540 1a0a 9b40 ccb9 9e40
00000070: bb05 a340 960c 9140 58d5 8240 fea7 9740
00000080: 1a09 9b40 5ed2 a040 9445 8540 18f0 9940
00000090: 26c8 9640 08ff 8840 48a9 a140 f99f 8640
000000a0: 7354 a140 5700 9440 b432 9240 78a8 b040
000000b0: 243b ab40 e269 a740 07b6 9640 f23f b040
000000c0: 2eae a240 6f21 a340 9c09 8040 5aae a040
000000d0: e3ef a040 0597 9340 7450 8140 b134 9d40
000000e0: 92a0 9c40 08fe 8e40 2797 8740 538f 9c40
000000f0: c8e0 8f40 a364 9f40 1cbe ab40 8492 8140
4.163571 4.8117433 5.1932907 4.830904 5.056049 5.3547893 4.9721804 4.3054414
4.5317736 5.318896 4.4918036 4.7430706 5.5551143 5.2973356 4.685005 5.3837576
4.3892403 4.763068 4.914193 4.5560827 4.3972397 3.8893764 4.8915167 5.8152275
4.818079 5.1804667 4.844983 4.9601803 5.0944495 4.5327864 4.088543 4.739257
4.844861 5.0256796 4.1647434 4.8105583 4.711932 4.2811317 5.051914 4.207028
5.0415587 4.6250415 4.5686893 5.520565 5.3509693 5.231675 4.70972 5.507806
5.083762 5.0978312 4.001173 5.021283 5.029283 4.612185 4.041071 4.912682
4.894601 4.4685097 4.237201 4.8924956 4.496189 4.9810348 5.3669567 4.049135

convs.0.bn2.running_var f4 [64]
00000000: 00fd 8b40 b844 1d41 4c48 2d41 f0b5 c340
00000010: 3e08 0f41 051a 0f41 ca15 8b40 a00d d93f
00000020: a52f 4540 cc08 a841 e01e 0b41 c690 a240
00000030: 6165 1c41 583a ed40 4a7a 4340 07ba e240
00000040: 6a5d 6740 1f4c 8d40 866e d440 d0ce c340
00000050: 72a5 0c40 1007 aa3f 7d81 2c40 b464 ad40
00000060: 95f2 0b41 c97f 9c41 0426 5d40 277b 2c41
00000070: f1d6 2d41 7995 1140 a1b1 4140 4c60 2a40
00000080: 35fc 1c41 0ef8 8d40 a024 9f3f 6f89 5b40
00000090: a5a7 6640 9077 3640 1ace b640 a2d1 dd3f
000000a0: d3ea 5440 6c85 8540 984c 0541 9bd0 d040
000000b0: 11e0 ee40 ce57 4441 c350 3340 0af4 ad41
000000c0: a23a e140 7fe8 2741 ab87 0e40 f27a 4b41
000000d0: fe40 1241 62d3 8e40 d66b 2e40 a9b5 6c41
000000e0: e026 8140 8e26 7440 ae73 8640 bdb5 c540
000000f0: 69c0 b740 b5d0 5341 d855 4541 fac3 aa3f
4.374634 9.829277 10.830151 6.115959 8.939512 8.943852 4.34641 1.6957283
3.081033 21.004295 8.695038 5.0801725 9.774751 7.413372 3.054339 7.0852084
3.6150765 4.415542 6.6384916 6.1189957 2.197598 1.3283405 2.6954033 5.418543
8.746724 19.562395 3.4554453 10.7800665 10.864976 2.274748 3.0264666 2.6621275
9.811574 4.43653 1.2433052 3.4302633 3.6039822 2.8510475 5.712659 1.73296
3.3268325 4.172537 8.3312 6.5254645 7.464852 12.271437 2.8018043 21.74416
7.0384073 10.494262 2.2270305 12.717516 9.140867 4.4633036 2.7253318 14.794351
4.0359955 3.8148532 4.201621 6.178435 5.7422376 13.238454 12.333458 1.3341057

convs.1.fc_full.weight f4 [128, 169]
00000000: 43ad 13bc 88c1 2fbd a6ed e33b 41c9 c93c
00000010: 3696 5abd 74c9 01bd 48e5 33bd 1710 953c
00000020: 9228 963d 8119 a93c 260d 703d 1f1b ca3c
00000030: c1fa bdbc 7338 e03c 52e8 ba3c d19e c9bc
00000040: b3d8 853d a86e fc3a b6a0 89bc 4036 70bc
00000050: 2955 1fbd c215 723d 97f7 343d bd80 683d
00000060: 7eca 6c3c 3d21 98bc 963f 5a3d cd96 d0bc
00000070: 1807 22bd cd8b 0e3c 7c96 463c c33d 9b3d
00000080: 0e42 29bd f24f 353d 96ed 8a3d 0212 a0bb
00000090: a6af 4d3c 5acc acbb 1711 223b ba13 29bd
000000a0: d2c3 3d3d 07e9 0f3d 1c59 8c3d d774 183d
000000b0: dea4 f13c 4863 52bc 362a 1c3d 071a 0b3c
000000c0: fd56 89bb 0e7e 82bd da70 80bc 098b 99bd
000000d0: 35d4 cabb afa8 94bd 28e4 4cbd 9cd8 923d
000000e0: e532 b5bc 01a6 88bc 0009 4cbb 81f6 783a
000000f0: 9bc6 62bd c8a3 b7bc 898e 503d 525d 57bd
00000100: 2154 dbba 872f 06bd 3125 8fbd 984f 05bd
00000110: 35ae 673d 40a0 a83c 38ac 86bd d6ed a53c
00000120: 301d 50bd 0d81 69bd 9544 663d 08ad b23c
00000130: 724c 97bd b0a3 8ebc 8f9a 31bd 6978 4ebd
00000140: e690 393d 0a6f 4c3d 0e52 97bd f5d5 86bd
00000150: 3e66 79bd 7d50 4bbd 6858 273d 88c3 9b3d
00000160: 4754 0c3b c3b5 41bc 2645 98bb b810 b6bc
00000170: 4d14 903d 298a 1cbc 30a3 16bd 82b8 903d
00000180: 8593 97bd e750 7c3c c614 e33b c37c 09bd
00000190: a581 843d 0884 91bd 9a3d 213d 169e 4bbd
000001a0: 2df6 70bd 16cb 24bd beb9 123d be87 00bd
000001b0: 1672 663d 89de 77bd 19f1 1cbd e469 93bd
000001c0: 8598 35bd 1405 ecbb b4ce 423d c841 9fbc
000001d0: e44b 63bc 270c 84bd b034 753d 0d18 083d
000001e0: 7cc3 80bd 8603 fab9 ef90 0dbd b654 7bbd
000001f0: 9d9d 48bd 2b39 ffbc 2619 433d f640 5a3a
00000200: 501f b2bb 9a79 d4bc a0f7 81bd 62c9 fdbc
00000210: 0959 e2bc 1c4f 0abd acd2 a73b a253 953d
00000220: db94 603c a5ce 90bd 0393 c1bc a820 8d3d
00000230: 4eda 4f3d 2bd0 3b3b aed9 75bd 2539 d93b
00000240: 4274 9bbd 2e8f 35bd 2700 6d3d 3d31 0bbd
00000250: 763d 52bc 4536 bebc 2521 58bc e0c7 5dbc
00000260: a83e 303d de31 3e3d 54cf 9cbc 40b9 29bd
00000270: 1233 84bd 8698 d5bc 2eda 7e3d 80a8 e33c
00000280: 5045 b5bb 76e8 4d3d 4dca 02bd b8ef 7e3c
00000290: a274 5f3d 6533 39bd 1cde 46bd 3b28 883d
000002a0: 924d 3abd 28aa 993c 132d 8f3d 61d6 373d
000002b0: 8851 293d fe17 603d 4a4a 353d 9234 c73c
000002c0: 6e6f f43b 9a62 26bc 9b38 c4bc e0b7 f73c
000002d0: 0ccf 6b3c 7456 253d 1dab 7a3d c43e c43c
000002e0: a6c1 123d 1e1b 24bd 7890 b4bc c421 22bd
000002f0: b8c6 86bd 6ad1 36bb 1495 58bd e5f2 8abb
00000300: 6a83 91bc 6ad9 c9bc 4477 203c 4bd8 d7bc
00000310: 1a55 7c3c b010 0cbd 8606 463c 002c 003d
00000320: a79d 17bd d33f 98bd b122 4b3d 561a 3e3d
00000330: 775e 863d b1f7 7dbd d033 ed3c e00e 8a3d
00000340: 0ec0 b63c 1999 96bd 97ac bbbb a283 afbc
00000350: 722c 5d3c 8e69 1bbd 8f36 2b3d ef31 8a3d
00000360: 08fc 963d 0f59 d2bc 8408 38bc e05b 8d3d
00000370: 3f46 0dbd 6157 4d3d 40fe 7cbd 9de9 8b3d
00000380: 120a f2bc d97f 0d3d ae34 6fbc de86 3e3c
00000390: 923f 153d 0d75 52bc 613d 8d3d 6695 693d
000003a0: 36eb 353d 8909 8e3c f8c8 c13c 7d36 2bbd
000003b0: 9c37 63bd 14ae 8ebd 549c 3d3d 3e42 1d3d
000003c0: cede bcbc 70c1 2fbd c4ae 28bc f0ae 44bd
000003d0: 4c90 1a3d 1196 173d 7a0c 863d 7284 ed3b
000003e0: 3151 0fbd bf0f 113d 0bc5 883d b559 93bd
000003f0: 5d8a 77bc b829 91bd 9e9d 1cbd 891b e2bc
-0.009013477 -0.042909175 0.00695582 0.024632098 -0.05336591 -0.03168626 -0.04391983 0.018196149
0.07331957 0.020642044 0.05860629 0.024671135 -0.023190858 0.027370667 0.022815857 -0.024611862
0.06535473 0.0019259052 -0.016800266 -0.014661372 -0.038899574 0.05910278 0.044181433 0.0567634
0.014452575 -0.018570537 0.053283297 -0.025462532 -0.039557546 0.008700323 0.012120839 0.075801395
-0.04132276 0.044265695 0.06783597 -0.004884959 0.012554085 -0.005273384 0.0024729425 -0.04127858
0.046329327 0.03513434 0.06852934 0.037220802 0.02949756 -0.012841053 0.038126193 0.008490092
-0.004191278 -0.06371699 -0.015678812 -0.07497222 -0.006189848 -0.07258736 -0.050022274 0.07170221
-0.022118995 -0.01668072 -0.0031133294 0.0009497181 -0.055365186 -0.022416964 0.050917182 -0.05257923
-0.0016733446 -0.03276017 -0.069895156 -0.03254661 0.05656262 0.020584226 -0.06575817 0.02025501
-0.050809085 -0.057007838 0.05621775 0.021811023 -0.07387628 -0.017412037 -0.04336029 -0.0504078
0.0453042 0.049910583 -0.073886976 -0.06583778 -0.06088852 -0.049637306 0.040855795 0.07605654
0.0021412538 -0.0118231205 -0.004646915 -0.022224769 0.07035122 -0.009554424 -0.03677672 0.07066442
-0.07401184 0.015400148 0.0069299666 -0.033566248 0.0647004 -0.07105261 0.03936539 -0.04971131
-0.05882852 -0.04023274 0.03582167 -0.031379454 0.056261145 -0.06051496 -0.038315866 -0.071979314
-0.044334907 -0.007202754 0.04756041 -0.019440547 -0.013873074 -0.064476304 0.0598647 0.03322606
-0.06287286 -0.0004768634 -0.034562048 -0.061360084 -0.048978437 -0.03115519 0.047631405 0.000832572
-0.0054358616 -0.02593689 -0.06346059 -0.030979816 -0.027630346 -0.03376685 0.0051215496 0.07291342
0.013707365 -0.07070664 -0.023629671 0.06890994 0.0507453 0.0028658013 -0.06002205 0.0066291266
-0.07590534 -0.044326 0.057861473 -0.033982504 -0.012832036 -0.023219237 -0.013191496 -0.013536423
0.043028504 0.046434276 -0.01914183 -0.041436434 -0.064550534 -0.026073705 0.06221979 0.027790308
-0.0055319443 0.05027052 -0.03193121 0.015560083 0.05455459 -0.04521503 -0.048551664 0.06648298
-0.045484133 0.018757895 0.06991019 0.044882182 0.04133752 0.05471038 0.0442603 0.02431706
0.0074595725 -0.010155344 -0.023952773 0.030239046 0.014392626 0.04036565 0.061198343 0.02395571
0.03582921 -0.040064923 -0.022041544 -0.039582983 -0.06580871 -0.0027895817 -0.052876547 -0.004240381
-0.017762858 -0.024639804 0.00979406 -0.026348254 0.015401149 -0.034195602 0.012086516 0.03129196
-0.037015583 -0.074340485 0.04959363 0.046411835 0.065609865 -0.062003795 0.02895537 0.067411184
0.022308376 -0.0735342 -0.0057273614 -0.021425072 0.013499366 -0.03794246 0.041800078 0.06747805
0.0737229 -0.025677232 -0.011232499 0.069022894 -0.03449082 0.05013216 -0.06176591 0.068316676
-0.029545818 0.034545753 -0.014599962 0.0116288345 0.03643758 -0.01284529 0.06896473 0.057027243
0.044413768 0.017338531 0.0236554 -0.04180001 -0.055472955 -0.069667965 0.046291664 0.03839325
-0.02305546 -0.042909086 -0.010295574 -0.048018396 0.03773527 0.03700835 0.065453485 0.0072484547
-0.03498954 0.035415407 0.06678208 -0.07194845 -0.015108672 -0.07088035 -0.038236253 -0.02760102

convs.1.fc_full.bias f4 [128]
00000000: 4a05 85bc d248 31bd e4a0 d53c 0d9b 4abd
00000010: a08d 873b 6bdb 923d 85ed 18bd ca7b ccbc
00000020: f0a3 323d 2c60 d63c 46e0 763d 9483 2dbd
00000030: dcf6 b23c 0219 93bd 2590 8cbd 26ff 603d
00000040: 7e6d 7dbd f4c9 5cbd 4698 f7bc 831a 02bd
00000050: 324f 29bd a006 29bd 8785 903d ce2a 653d
00000060: ee51 8dbd e09b 143c 5532 863d bef9 98bd
00000070: 6232 583d 509f e5bc b89b 163c f002 043d
00000080: 14ed d83c 6005 1cbb 202a 0cbb bc55 f03c
00000090: 6071 bfbb 403d 203d b0f5 883c dce2 78bd
000000a0: cc65 e13c 9e89 70bd 8c77 013d dde2 963d
000000b0: acce c5bc ce84 513d 7de3 803d 1f75 973d
000000c0: 54cf a33c a362 49bd 3ed7 343d d83c a33c
000000d0: 5407 2a3d 008d d7bb 1ef1 083d 4a0c e8bc
000000e0: a690 77bd e283 5b3d 85de 8f3d fc57 febc
000000f0: 4e3d 9abd 08db 4d3c 6cb4 fb3c a3ec 82bd
00000100: 549b b23c 0a1c fcbc 388e 233c ead3 1ebd
00000110: a8ea 6abd 68e6 1fbd a2ca 633d 913c 903d
00000120: 6d08 8c3d c8ae 283d 608d 533b 5024 233c
00000130: 5d32 853d 2ac9 333d 754b 8ebd e60f 513d
00000140: 1ee3 aebc 85c5 943d 807e 683c 796b 43bd
00000150: 2fe4 09bd 69d9 913d 2017 373c a8af f2bc
00000160: 9620 403d cdb6 5ebd 3fd5 99bd f4fe 1d3d
00000170: bc33 cfbc f0ec a23b 90af b93b 7410 7cbd
00000180: ed46 873d 8010 53bd 406d 0d3d e85f 123d
00000190: ff23 feba f844 c93c 6874 88bd 0a43 783d
000001a0: 40f2 353b 80eb 26bc 5727 993d 9e33 55bd
000001b0: 4099 17bb e872 c5bc 97bf 2dbd e8a4 fdbc
000001c0: ca00 703d c089 8dbb bcc8 e43c 280f de3c
000001d0: c0d6 a43b 5abd e8bc 8c0f 8c3c 9bf5 88bd
000001e0: b06d 063c d59d 963d c80e 203c 2062 923b
000001f0: 726d fabc 2093 103d b0a3 193c cc89 ac3c
-0.016237874 -0.043282337 0.026077695 -0.049464274 0.004136756 0.07170757 -0.03733589 -0.024961371
0.043613374 0.026168905 0.060272478 -0.04236181 0.021846227 -0.07182504 -0.06863431 0.05493083
-0.061871998 -0.053903535 -0.030223977 -0.031763565 -0.041335292 -0.041266084 0.07056718 0.055949025
-0.069003925 0.009070367 0.06552569 -0.074695095 0.052782424 -0.028030068 0.0091924 0.032229364
0.026480235 -0.0023806915 -0.0021387413 0.029337756 -0.005842373 0.039120913 0.016718715 -0.060763225
0.02751436 -0.058724992 0.03160815 0.073674895 -0.0241464 0.051152043 0.0629339 0.07395386
0.019996323 -0.049166333 0.044150583 0.019926473 0.041510895 -0.006578088 0.033433072 -0.028326172
-0.060440682 0.05359257 0.07024864 -0.031047814 -0.07531224 0.012564428 0.03072568 -0.06392791
0.021802582 -0.030775089 0.009982638 -0.038776316 -0.057352692 -0.039038092 0.055613168 0.07042802
0.068375446 0.04118231 0.003228031 0.009957388 0.06503747 0.043893017 -0.06947986 0.051040553
-0.021348532 0.07264236 0.014190316 -0.047709916 -0.03366488 0.07121546 0.011174947 -0.029624775
0.046906076 -0.05437355 -0.075113766 0.03857322 -0.025293224 0.004972093 0.0056666806 -0.06153913
0.06605325 -0.051529408 0.034528017 0.035735995 -0.001938939 0.02456902 -0.06662828 0.06061081
0.00277628 -0.0101879835 0.074782066 -0.05205118 -0.0023132116 -0.024102643 -0.042419042 -0.030962422
0.058594503 -0.0043193996 0.027927749 0.027106836 0.005030483 -0.028410602 0.017097257 -0.066874705
0.0082048625 0.07354323 0.009769149 0.004467264 -0.030569766 0.03529656 0.009377405 0.0210618

convs.1.bn1.weight f4 [128]
00000000: 86fe 7f3f 1e00 803f befe 7f3f 3a01 803f
00000010: 95ff 7f3f 29fb 7f3f 9dff 7f3f 4001 803f
00000020: a1ff 7f3f 8301 803f a4fe 7f3f cc01 803f
00000030: 67fe 7f3f 7500 803f 7400 803f 0d04 803f
00000040: 94ff 7f3f d201 803f e100 803f 4601 803f
00000050: 24ff 7f3f 7901 803f b400 803f 1c00 803f
00000060: 5e00 803f 37ff 7f3f 3c01 803f f6fd 7f3f
00000070: 2600 803f 6000 803f b6fd 7f3f 38fd 7f3f
00000080: 21ff 7f3f a700 803f 2904 803f 5500 803f
00000090: 9dfd 7f3f 1d00 803f fcfd 7f3f b100 803f
000000a0: 31ff 7f3f 49ff 7f3f 1c00 803f 14ff 7f3f
000000b0: 5b02 803f 4a00 803f bafb 7f3f d101 803f
000000c0: e3fb 7f3f d100 803f d300 803f 76fc 7f3f
000000d0: 4202 803f 0400 803f 27fe 7f3f 3cff 7f3f
000000e0: 97fd 7f3f b7fe 7f3f 7ffe 7f3f 5bfe 7f3f
000000f0: f106 803f 82fd 7f3f 09fd 7f3f bd00 803f
00000100: c601 803f 7200 803f ad00 803f 97ff 7f3f
00000110: 0401 803f ca00 803f 4800 803f 7500 803f
00000120: d901 803f 0dfe 7f3f d200 803f 66fe 7f3f
00000130: 8001 803f 4aff 7f3f caff 7f3f a7fa 7f3f
00000140: 7fff 7f3f 3efe 7f3f 89ff 7f3f c8fc 7f3f
00000150: 9c00 803f fbff 7f3f dbfd 7f3f 65ff 7f3f
00000160: 64ff 7f3f c300 803f c8fd 7f3f 9c00 803f
00000170: c5ff 7f3f 6100 803f c701 803f a101 803f
00000180: 9000 803f 83fe 7f3f 5df6 7f3f 6400 803f
00000190: 1403 803f d5ff 7f3f a900 803f 47fd 7f3f
000001a0: 8800 803f e800 803f 1eff 7f3f 8c00 803f
000001b0: 54fe 7f3f f4fe 7f3f 7802 803f 14fd 7f3f
000001c0: 1503 803f 31ff 7f3f 84fe 7f3f 0b00 803f
000001d0: 0df7 7f3f 4900 803f 3aff 7f3f d400 803f
000001e0: a501 803f e500 803f 5200 803f 7900 803f
000001f0: 3deb 7f3f 4800 803f 5300 803f 39fd 7f3f
0.99997747 1.0000036 0.9999808 1.0000374 0.9999936 0.99992615 0.9999941 1.0000381
0.99999434 1.0000461 0.99997926 1.0000548 0.9999756 1.000014 1.0000138 1.0001236
0.99999356 1.0000556 1.0000268 1.0000389 0.9999869 1.000045 1.0000215 1.0000033
1.0000112 0.999988 1.0000377 0.9999689 1.0000045 1.0000114 0.9999651 0.99995756
0.9999867 1.0000199 1.000127 1.0000101 0.9999636 1.0000035 0.99996924 1.0000211
0.99998766 0.9999891 1.0000033 0.99998593 1.0000719 1.0000088 0.9999348 1.0000554
0.99993724 1.0000249 1.0000252 0.999946 1.0000689 1.0000005 0.9999718 0.9999883
0.9999632 0.9999804 0.99997705 0.9999749 1.0002118 0.999962 0.99995476 1.0000225
1.0000541 1.0000136 1.0000206 0.99999374 1.000031 1.0000241 1.0000086 1.000014
1.0000564 0.99997026 1.000025 0.99997556 1.0000458 0.99998915 0.9999968 0.9999184
0.9999923 0.9999732 0.9999929 0.9999509 1.0000186 0.9999997 0.9999673 0.99999076
0.9999907 1.0000232 0.99996614 1.0000186 0.9999965 1.0000116 1.0000542 1.0000497
1.0000172 0.9999773 0.99985296 1.0000119 1.0000939 0.99999744 1.0000201 0.99995846
1.0000162 1.0000277 0.9999865 1.0000167 0.9999745 0.999984 1.0000753 0.9999554
1.000094 0.99998766 0.99997735 1.0000013 0.99986345 1.0000087 0.9999882 1.0000253
1.0000502 1.0000273 1.0000098 1.0000144 0.9996832 1.0000086 1.0000099 0.9999576
