trained/volts/model_best.pth.tar (torch, 671961 bytes, 58 tensors)

embedding.weight f4 [64, 92]
000000 fa 57 15 3d 7b ef a2 3d ac 11 f7 3c 6c 7d 8f bd
       0.036460854 0.079558335 0.030159794 -0.07006344
000010 15 85 90 bd a3 18 71 3a a3 63 a5 3d db 35 d2 bd
       -0.070566334 0.00091970916 0.08075645 -0.10264178
000020 e3 09 3d 3d 0a 9c 02 3d 75 90 d2 3d 94 9e db 3c
       0.046152007 0.03188709 0.10281459 0.026809014
000030 a6 5b 68 3d b5 f4 81 3d b6 22 a4 bc 11 be 8f bd
       0.056728028 0.06345502 -0.020036083 -0.07018674
000040 93 26 8a bd 57 07 14 bb a9 71 35 bd af 72 aa 3d
       -0.06745639 -0.0022587383 -0.044297848 0.083226554
000050 7a 82 97 3d bb 8c 68 bd 81 14 12 3d 5c 2c bd bc
       0.07397933 -0.056774836 0.035664085 -0.023092441
000060 00 70 dd b8 b0 25 97 bd 8b 03 ba bd 23 f3 89 3d
       -0.00010558963 -0.07380235 -0.09082707 0.06735828
000070 62 b1 38 3d ae c5 b4 3d 50 30 47 3c 16 34 32 bd
       0.04509104 0.08826767 0.012157515 -0.043506704
000080 5c 4b a2 bc 61 18 8b 3d 83 fb 4b 3d 2a 01 8b bd
       -0.019811325 0.06791759 0.049800407 -0.067873314
000090 d8 6d 85 bd 7e 1d cd 3d c5 af 7b bd 7e 38 a3 3d
       -0.06515092 0.10015391 -0.061446924 0.079697594
0000a0 df 14 ea bc b6 e0 7a 3d 10 c3 99 3c 1f 6e ba 3d
       -0.028574405 0.061249457 0.01876977 0.09103035
0000b0 a8 94 65 bc 28 26 78 bd f4 aa 36 bc a8 b1 00 3c
       -0.014012493 -0.060583264 -0.011149157 0.007854857
0000c0 6a af 7f 3d 70 fa 0c bb 4d c2 60 bc b2 3a 41 bd
       0.062423147 -0.0021511577 -0.0137182 -0.047175117
0000d0 cf 21 e2 bc 9f 5b 1b 3d e3 7d 46 bd da 7a 98 bd
       -0.027604012 0.037929174 -0.0484599 -0.07445307
0000e0 a1 1b af 3d b3 db b7 3d da 7a 61 3d 73 f0 80 bd
       0.08550192 0.08977451 0.0550488 -0.06295862
0000f0 98 ba a1 bd cb b9 80 3c 72 41 69 bd d4 77 c5 3d
       -0.07896918 0.015713593 -0.05694718 0.09641996
000100 50 8e b5 3d 65 61 ca bd 05 66 64 bd b6 5c 6a bd
       0.088650346 -0.09881858 -0.055761356 -0.057217322
000110 90 99 b2 bd c2 f6 a5 bd ba db 26 3d f0 d9 1e bd
       -0.08720696 -0.08103706 0.04073689 -0.03878206
000120 d6 13 a7 3d d5 5f 81 3d 0e 11 6c bd 74 d7 88 3d
       0.0815808 0.06317107 -0.057633452 0.066817194
000130 d9 d7 b4 3d a7 8d 0f bd 4d ba c9 3d a0 a4 3a bd
       0.08830232 -0.0350472 0.09849987 -0.045567155
000140 0e de ca 3d ba 4f 39 3d 00 b6 7e 3d 4c 31 e0 3c
       0.09905635 0.04524205 0.062185287 0.027367257
000150 7c 74 97 3d 1c 8c 9d 3d e9 23 05 3a ce f0 8d bd
       0.073952645 0.07692739 0.00050788984 -0.069306955
000160 6b 8f bf 3d 3f 30 96 bd f1 2d 85 3d 2c d9 ee 3c
       0.09353527 -0.07333421 0.06502903 0.02915629
000170 c2 be 4e bd a8 1e 25 bd 14 d9 1e bd 01 38 90 3d
       -0.05047489 -0.04031244 -0.03878124 0.07041932
000180 10 5c 0b bd e9 4e 30 bd 30 61 a1 bc a2 58 61 3d
       -0.034023345 -0.043044005 -0.019699663 0.055016167
000190 f5 d2 01 bc 21 71 0a bd a2 e1 af 3d 87 c0 87 3d
       -0.007923831 -0.033799294 0.08587958 0.066285186
0001a0 3d 23 c8 3d 60 b4 62 3c b7 6f 23 bd d1 8e fb bc
       0.09772346 0.01383695 -0.03990146 -0.030707749
0001b0 11 10 7e 3d b1 47 38 3d 44 30 a6 3c ab da 57 bd
       0.06202704 0.044990245 0.020286687 -0.052698772
0001c0 1d 1e bc bd 9e 95 2c bd 5a 34 b9 3d 01 4c ac 3d
       -0.09185431 -0.042134874 0.090431884 0.08412934
0001d0 4d d1 8e bd 72 1d 0c bd 22 76 91 bd a3 b0 57 bd
       -0.06973515 -0.03420777 -0.0710261 -0.05265869
0001e0 ae 18 62 3d 91 f3 b9 bd 55 c4 25 3d db 4b d0 bd
       0.055199318 -0.0907966 0.04047044 -0.10170718
0001f0 00 de c1 bc 59 5f c4 3d e7 43 a4 3d 84 14 3d bd
       -0.023665428 0.095884986 0.08020764 -0.046162143
000200 7e fe 94 bd ee a2 2e 3c d7 ae d1 bd f6 62 8d 3d
       -0.07275103 0.010658963 -0.10238426 0.06903641
000210 7d dc 66 bb a0 05 0d bd eb 6e 80 3d 95 5a a5 bd
       -0.0035226636 -0.034429193 0.06271156 -0.08073918
000220 96 a0 79 3d ef 5b ba bd 67 2b ab 3d 7a bd 69 3d
       0.060944162 -0.09099566 0.08357888 0.057065465
000230 d3 35 3f bd c3 eb 86 bd 63 97 3f bd df f9 e8 bc
       -0.04668219 -0.06587937 -0.046775233 -0.02843946
000240 94 76 4d bc 66 d9 c4 3d c3 82 d4 3d 84 bb 63 bd
       -0.012540478 0.09611778 0.10376503 -0.05559875
000250 40 b8 58 bd a8 0a 48 bd 36 63 63 3d 7e 77 4f 3d
       -0.05291009 -0.048838288 0.055514537 0.050651066
000260 b9 a3 a5 3d 6e 06 63 bd 18 36 57 bd 6f ea 24 bd
       0.08087868 -0.055426054 -0.052541822 -0.040262636
000270 88 7e c3 bd 50 c7 a2 3d 36 87 76 3d cc 0f ae 3c
       -0.09545618 0.07948172 0.06018754 0.021247767
000280 e7 65 55 bd a0 8c 88 bb 30 2f d4 38 8e 34 54 3d
       -0.052099135 -0.0041671544 0.00010117737 0.051807933
000290 5d 21 a2 bd 82 78 cb bc 99 f2 28 bc ff 9b aa bb
       -0.0791652 -0.024837736 -0.010311746 -0.0052065845
0002a0 e0 90 33 3b ab cb c7 3d 10 60 83 bd 3d 06 c1 bc
       0.0027399585 0.097556435 -0.06414807 -0.023562545
0002b0 2d 11 dc ba 22 03 1b 3d 48 97 be 3d 25 b1 d0 bd
       -0.0016789787 0.037844785 0.09306198 -0.10190038
0002c0 1e 2d 77 3d d9 5b 1f 3d 27 88 3e bd 46 6e 42 3d
       0.06034576 0.038905952 -0.046516564 0.047468446
0002d0 a8 e4 5d bd e0 e1 b1 bb de 73 53 3d 52 00 5d 3d
       -0.05417314 -0.0054285377 0.05162417 0.053955384
0002e0 f8 03 9f bd c1 0b 84 3c d8 13 ba bc 6c b5 bc 3c
       -0.07764429 0.016118886 -0.02271454 0.023035727
0002f0 7d fa b9 3d 7f 63 90 bd 60 25 cf 3b 3a d2 44 3d
       0.0908098 -0.070502274 0.006321594 0.04805205
000300 49 96 58 bd 46 8e d0 3d 0c f3 98 3d 45 a4 42 bd
       -0.052877698 0.101833865 0.074682325 -0.04751994
000310 a8 f2 06 bc 50 79 c0 3b de 44 69 3d 67 0e 2a bd
       -0.008236565 0.0058738366 0.056950442 -0.04151764
000320 e4 71 b4 bc dd 55 8b 3c c0 32 35 3b 0e 79 dc bb
       -0.022026964 0.017008716 0.0027648658 -0.006728298
000330 0a 7b 2f bd 50 80 b8 bc 51 93 1c bd 30 14 c9 bd
       -0.04284195 -0.022522122 -0.03822643 -0.098183036
000340 40 dd df 3b 96 86 0f bd 8b 93 43 bd 8a cc a1 bd
       0.006831795 -0.03504046 -0.04774813 -0.07900341
000350 5c 21 e7 3c 21 b3 b7 3d 9f 9b 29 3d c2 33 66 ba
       0.02821415 0.08969713 0.041408177 -0.0008781516
000360 c0 b4 b2 bd 9e 78 07 bd 0e 6a 5a bc 0a 0d 74 bd
       -0.087258816 -0.033074014 -0.0133309495 -0.059582748
000370 05 53 bb bd dc 36 cd bb 7b 17 00 bd a6 64 c7 3d
       -0.09146694 -0.0062626433 -0.031272393 0.09735994
000380 7d 4d 37 bd 4e 57 a3 bd 9b 5b c8 3d d4 c6 ff 3c
       -0.044751633 -0.079756364 0.09783097 0.031222738
000390 1c e5 b5 3c ba b4 91 bd 61 b6 24 3c 55 8e bc 3d
       0.022203974 -0.07114549 0.010053248 0.09206835
0003a0 2a 82 31 3d 16 22 34 3d be 3a 69 bc 98 a6 59 3d
       0.043337025 0.04397782 -0.014235197 0.05313739
0003b0 bd 6a c9 3c 9a 66 a6 bd 02 36 75 bd fc ae 45 3d
       0.02458703 -0.081250384 -0.05986596 0.04826258
0003c0 fe 62 74 3d 04 d3 f1 bc 5f 56 8d bd e1 bc a1 3d
       0.05966472 -0.029519565 -0.069012396 0.07897354
0003d0 e3 ee bf 3d 6a 4c d1 bd cd 3c b8 3d 77 a7 1d 3d
       0.09371736 -0.10219653 0.08995972 0.038489785
0003e0 cd 77 b3 3d 33 e7 97 bd 20 25 d6 bb 39 47 b0 3d
       0.087630846 -0.074171446 -0.0065351874 0.08607335
0003f0 20 3d 46 3b ba 38 5e bd ae db 93 bc 00 cf 4a 3b
       0.0030248836 -0.054253317 -0.018049087 0.0030946136

embedding.bias f4 [64]
000000 4a 89 26 bd c9 20 c9 3d bc 38 b1 bd 61 fd 8f 3d
       -0.040658273 0.098207064 -0.08653399 0.0703075
000010 e7 d3 af 3d 75 25 cf 3d f7 f4 88 bc cc 95 e3 3c
       0.08585339 0.10114566 -0.01671837 0.02778139
000020 9d 76 77 3d 9e 0d 0f 3b b4 7f 7d 3d c4 bd 60 3c
       0.060415853 0.0021828185 0.061889365 0.013717119
000030 01 82 6b bd f4 1b 34 bb ff 62 af bd ce f2 ce bd
       -0.05749703 -0.0027482482 -0.08563804 -0.10104905
000040 f0 29 5a 3d 05 f3 76 3b 0a b5 66 bc 7a de cc 3d
       0.05326265 0.0037681472 -0.014081249 0.100033715
000050 47 05 80 3c 18 21 c8 3b 44 9d 37 3d c4 58 a1 bb
       0.015627516 0.0061074607 0.044827715 -0.0049239118
000060 45 ce 0b 3d a4 74 9f bd 4c 9c bf bd 77 31 b9 bc
       0.03413226 -0.07785919 -0.09355983 -0.022606594
000070 06 0c 32 3d 1b 0b 68 3d a2 1e ce bd 2d 9a ca 3b
       0.043468498 0.056651216 -0.100644365 0.00618293
000080 66 8d 9c bd 78 93 4e 3c 19 7f fd bc e9 72 8d ba
       -0.07644157 0.0126084015 -0.030944394 -0.0010791692
000090 32 1a ab 3c 18 78 8c 3d f7 55 af 3d f9 17 1e 3d
       0.020886514 0.068588436 0.08561318 0.03859708
0000a0 98 b2 66 bd 19 bf 33 bd a8 0b 53 bd c4 61 23 3d
       -0.056322664 -0.043883417 -0.05152479 0.03988816
0000b0 e6 1d 98 bd 38 36 87 3d 74 4b a6 3d 61 82 a2 bc
       -0.07427578 0.06602138 0.0811986 -0.01983756
0000c0 ae 72 8b bb b5 47 3c bd 70 6b 88 3d b0 13 da bc
       -0.0042556142 -0.045966823 0.06661117 -0.026620716
0000d0 2f e2 9e 3b d3 08 4a 3d ad bd c3 bd 2d 5c a8 3d
       0.0048487405 0.04932482 -0.09557662 0.08220706
0000e0 45 6d 83 3c 82 e6 0b bc 9a 46 84 3d 63 65 bf 3d
       0.016043315 -0.008538844 0.06458779 0.0934551
0000f0 10 f5 ab bd 65 5e 8a 3d 71 ca a9 3c 9e 86 3b bc
       -0.08396351 0.067562856 0.020726414 -0.011445669

convs.0.fc_full.weight f4 [128, 169]
000000 97 9a 8e bd d5 5b db bc fd 17 9c bd b0 3e 3f bd
       -0.069630794 -0.026777187 -0.07621763 -0.046690643
000010 f0 f3 af bc 7a 22 40 3d 26 4a f0 bc bf 4c 97 bd
       -0.021478623 0.04690788 -0.029332232 -0.07387685
000020 2c df 2f 3c af fe f2 bc 10 02 4f 3d 6f 39 43 3c
       0.010734361 -0.029662458 0.050539076 0.011915549
000030 76 6f 79 3d 33 ae 61 bc f1 a8 85 bd 3c c1 95 3d
       0.060897313 -0.0137744425 -0.06526364 0.07312247
000040 26 68 50 3d 42 64 8e 3d 0e ee 87 3c 7e ff 12 bd
       0.050880574 0.069527164 0.016593006 -0.035888188
000050 32 84 9d bd c6 88 b1 bc 18 b8 d4 bc 02 d7 26 bb
       -0.0769123 -0.021671664 -0.025966689 -0.0025457744
000060 e6 87 90 bd ea 63 9f 3c d1 80 87 3c ba a0 34 bb
       -0.070571706 0.019456822 0.016540917 -0.002756162
000070 35 17 96 bd 5f e1 1d 3d d6 b5 8b 3d cc 98 25 bd
       -0.07328645 0.03854501 0.06821792 -0.04042892
000080 78 06 e1 bc cc 51 87 bd 7a 90 1f 3d 18 51 6f bd
       -0.027468905 -0.066073984 0.038956143 -0.058426946
000090 1c f8 bd bc 68 c1 96 bd 64 3f b6 3c 98 c3 59 3a
       -0.023189597 -0.07361108 0.022247024 0.0008307039
0000a0 b5 d0 65 bd 13 80 99 bc 26 66 88 bd 37 c8 22 bd
       -0.05610724 -0.018737828 -0.06660108 -0.03974172
0000b0 a2 3b 97 bc f5 72 74 bc 1a 2f 97 3d 72 ba 0c ba
       -0.018461052 -0.014919986 0.07382031 -0.00053683587
0000c0 9f 7f 62 3d d6 58 d2 3c da aa 71 3a 2c a7 78 3d
       0.05529749 0.025677126 0.0009218879 0.060706303
0000d0 20 fc 0b 3d 9c 45 17 bd 6c d3 9c bd 4e e2 cc 3c
       0.034175992 -0.03693162 -0.07657513 0.025010254
0000e0 4c fd 98 3d f7 6a 7c 3d 06 cd 7a 3d f5 4c d6 3b
       0.074701875 0.061625447 0.06123068 0.0065399357
0000f0 94 66 6b 3c 29 3d 6b 3d f1 f6 b6 bc 7b c3 e8 bb
       0.014367718 0.057431374 -0.022334548 -0.007103381
000100 3d 03 91 bc 85 93 8c 3d d8 7a 59 bc 7d e4 35 3d
       -0.01770174 0.068640746 -0.013273917 0.044407357
000110 45 ca 60 bd 95 83 1b 3d 7b b6 39 bd 2c 82 9a 3d
       -0.0548804 0.037967283 -0.045340043 0.075443596
000120 df 4d 5f bc b3 36 6b 3d 77 05 28 3b 69 d9 5d bd
       -0.013629406 0.057425212 0.0025638023 -0.054162417
000130 a3 ed 60 3d f0 81 2a bc 46 88 3b 3d 3a 1e 75 bd
       0.054914128 -0.010406956 0.045784257 -0.05984328
000140 08 e6 14 bd 10 26 cb bc 4b 4f 95 3d ca f0 8f 3d
       -0.036352187 -0.024798423 0.072905146 0.07028349
000150 98 e6 93 3d 7d e7 9e 3c ae 63 0b 3d 10 42 62 3d
       0.07221717 0.019397492 0.03403061 0.055238783
000160 d3 32 19 bd e6 30 08 bd df dd 85 bc bc 9a 0f bd
       -0.037401985 -0.03324976 -0.016341148 -0.035059676
000170 c7 98 db 3b 3f 52 a2 3b 38 93 1e 3d 4f 7f df 3c
       0.006701562 0.004953652 0.038714617 0.027282385
000180 ac f5 18 bd 2c 29 5a bd a5 89 56 3d 71 66 3c bd
       -0.037343666 -0.05326192 0.05237736 -0.045996133
000190 5a dd af 3c 5c 44 5a 3d 1b 64 80 bd 38 f0 39 3d
       0.021467853 0.05328785 -0.062690936 0.045395106
0001a0 63 cb c4 bc a5 6a 99 3c c9 8f 1b 3d ec 7b 59 bd
       -0.024022764 0.01872761 0.03797892 -0.053096697
0001b0 fd 1c 09 3c 43 43 b0 3b a3 1f 98 bd 8a 14 8b bd
       0.008368728 0.005379112 -0.07427909 -0.06791027
0001c0 23 4c cb bc 6c 3a 8d 3d de 22 27 bd 42 42 8b bd
       -0.024816578 0.06895909 -0.040804736 -0.06799747
0001d0 8e 93 65 3d 1a dc d6 3c 8f 86 92 3c 71 18 38 bd
       0.056048922 0.026228 0.017886428 -0.044945184
0001e0 e9 02 00 bc e6 2a 81 3d f4 4e 6a bd f6 40 1b 3d
       -0.007813194 0.0630701 -0.0572042 0.03790375
0001f0 2d 0e 89 bd af 51 59 3c bc bb 01 3d a0 79 38 3d
       -0.06692157 0.013264104 0.031673178 0.045037866
000200 86 4a 34 3d 6c 9f 00 3d 7c dc 5a bc 43 f4 2a 3d
       0.044016384 0.031402037 -0.013358232 0.041736852
000210 86 96 17 bd 0f 7d 50 bd 2c b6 23 3d 2b 8c 38 3d
       -0.037008785 -0.050900515 0.039968655 0.04505555
000220 27 3d 86 bc 05 ce 3e 3d 32 cc 8e 3d 35 9d 92 bd
       -0.016386582 0.046583194 0.06972541 -0.07158891
000230 f8 51 0f ba 88 f3 a4 3c a9 0b 13 3d 05 14 4e 3d
       -0.00054672314 0.020135656 0.035899792 0.05031206
000240 3f 41 42 bd 11 f8 06 3d a4 e2 16 bc 95 95 6c 3d
       -0.047425505 0.03295142 -0.009209309 0.05775984
000250 5d 44 46 3d 86 58 3a bd ab 21 5e bd 40 79 87 bc
       0.04840504 -0.04549458 -0.054231327 -0.016537309
000260 9e 4b af bc 43 20 2e bd e6 b3 86 bd d0 c6 73 3c
       -0.021398362 -0.042511236 -0.06577282 0.014878944
000270 02 b5 70 3d 8b 4e 9d 3d c3 30 99 3d 00 a5 23 3d
       0.058766373 0.076809965 0.07480004 0.039952278
000280 a0 37 a2 bb 8b 06 87 3d e0 6f 53 bd f0 3e 8a 3c
       -0.0049504787 0.06593045 -0.051620364 0.016875714
000290 46 26 ca bc 60 da 48 3c bc 70 6e bd 45 eb 24 bd
       -0.024676453 0.012259096 -0.05821298 -0.040263433
0002a0 2e 15 97 bd 16 47 20 3d ff d5 56 3d 1d a0 94 bc
       -0.073770866 0.039130293 0.052450176 -0.018142754
0002b0 9b da 25 bc 81 b9 93 bd ae 63 8f bd d6 86 41 bb
       -0.01012292 -0.072131164 -0.07001434 -0.0029529831
0002c0 32 9c 87 3d bc be 9a 3d ba d8 a7 bc a2 11 2c bc
       0.06621589 0.07555911 -0.020489085 -0.010502251
0002d0 c6 b9 43 3d 2a 08 ee bc 9c 08 35 bd b0 a7 f7 3c
       0.04778459 -0.029056627 -0.044197664 0.030231327
0002e0 f5 f4 9c 3d 2b 9f 7f bd 5a be 45 bd 34 5d d3 3c
       0.07663909 -0.062407654 -0.048277237 0.025801279
0002f0 aa 72 8f bc c0 60 06 bc bf b1 12 3d 8f 40 03 3d
       -0.01751073 -0.008201778 0.035814043 0.03204399
000300 7e 7b 8b 3d 8d a0 1a 3d f1 27 b6 b5 88 cd 98 bd
       0.06810664 0.03775077 -1.3571681e-06 -0.07461077
000310 6f 12 60 3c 3a 94 1a bd 56 74 5d bd 18 9c 29 3d
       0.01367627 -0.037739016 -0.054066025 0.04140863
000320 39 14 95 bc 6c 1d 98 bd 4b a6 9a bd 28 e0 9c 3c
       -0.01819812 -0.07427487 -0.07551249 0.019149855
000330 2f b2 bd bc 56 3b 2e 3d 4f 71 e1 3c 3e dd d5 bc
       -0.023156254 0.042537056 0.02751985 -0.026106473
000340 00 31 90 3d f3 2c da 3c 02 a2 f2 3c ab 60 83 bd
       0.07040596 0.026632762 0.029618267 -0.06414922
000350 d4 59 20 bd 53 02 be 3b 64 b4 0c 3d 6b 89 ac bc
       -0.039148167 0.005798617 0.03435172 -0.02106162
000360 18 73 c2 bc 82 1c 7a bd b9 87 11 3d 2b 4e ed bb
       -0.023736522 -0.061062343 0.035529826 -0.0072419844
000370 90 4d 3c bd 80 78 6f bc 1f c3 8f bc a3 9d fa 3c
       -0.045972407 -0.014616132 -0.017549096 0.030592745
000380 81 a1 ac 3c 8e 7a 3e 3c 23 14 35 3d df e1 8b 3d
       0.021073105 0.011625899 0.044208657 0.06830191
000390 4e 3b 24 3c 6a 0a d7 bc ca a0 e2 3a 31 02 85 bc
       0.010023905 -0.026250083 0.001729035 -0.016236397
0003a0 ff 62 92 3d 2e 0e 2e 3d 30 d3 d4 bc 25 1b 90 3d
       0.07147788 0.04249399 -0.025979608 0.070364274
0003b0 98 52 15 bc 52 50 86 3c 0e 0e e4 ba 3d 98 1f bc
       -0.00911393 0.016395722 -0.0017399208 -0.009740886
0003c0 a6 2d 4a bd 3b 45 21 3d 45 e2 f7 bb 77 6d 9e 3b
       -0.04935994 0.039372664 -0.007564815 0.0048348266
0003d0 bd 8e 00 bd 72 56 8b bc 92 70 68 bd 9c 3f 79 39
       -0.031386126 -0.017008994 -0.05674798 0.00023770187
0003e0 83 da 23 3d 0f a5 ac 3c af c2 0a bd b6 2f 2a bd
       0.04000331 0.0210748 -0.03387707 -0.041549407
0003f0 7c 53 b9 bc d2 1a 18 bd d4 d7 8c 3d 1c 15 86 bd
       -0.022622816 -0.037134953 0.068771034 -0.06546995

convs.0.fc_full.bias f4 [128]
000000 d8 d1 cd 3c 70 40 ad 3b c3 1b 58 bd 00 92 14 3a
       0.025124475 0.0052872226 -0.05276085 0.00056675076
000010 60 70 7d 3c 92 ad 23 3d 64 b5 c8 3c 1a ab e2 bc
       0.015468687 0.03996045 0.024500556 -0.027669478
000020 3f 08 84 ba c0 fd f1 3b 29 de 85 3d 76 bc a5 bc
       -0.0010073258 0.0073849857 0.06536514 -0.020231467
000030 b2 ed 18 bd 00 33 49 ba a6 f9 94 bd a0 10 80 3b
       -0.03733606 -0.0007675141 -0.07274179 0.003908232
000040 d0 66 36 3d 68 85 dd bc fa a1 47 3d c0 91 93 3b
       0.044531643 -0.027041152 0.048738457 0.0045034587
000050 be 7d 4b 3d c0 2d 46 3b 66 4a 4d 3d 0d 39 9b 3d
       0.049680464 0.0030239671 0.05011978 0.07579241
000060 e0 26 37 bb 14 bf 06 3d d0 28 9f 3c 39 6d 98 bd
       -0.0027946755 0.03289707 0.01942864 -0.074427076
000070 a8 b4 20 bc 40 47 52 bd 25 b3 82 3d cc 81 cd 3c
       -0.009808697 -0.05133748 0.06381825 0.025086306
000080 76 ca 5c 3d 40 6c b9 3c 40 c6 b6 3a 30 98 77 bc
       0.05390402 0.022634625 0.0013944581 -0.015111968
000090 6e 38 59 3d 78 c1 4e 3c 92 98 89 bd 99 a4 62 bd
       0.05303233 0.012619369 -0.067185536 -0.055332754
0000a0 62 d0 6c 3d 46 bb 94 bc aa bb 12 bd 2d 26 4a bd
       0.057815917 -0.018155705 -0.0358235 -0.049352814
0000b0 28 05 88 bc 00 02 29 3a 36 67 0a bd 46 a1 5b 3d
       -0.016604021 0.00064471364 -0.033789836 0.0536206
0000c0 56 b9 5c 3d d4 fe 89 3c 7c 4c 66 bd 86 da 6f 3d
       0.053887688 0.016845144 -0.056225285 0.05855801
0000d0 e0 ad 1d 3c a8 54 8c 3c 28 47 2b 3c 99 9d 43 bd
       0.009623975 0.017130211 0.010453977 -0.04775772
0000e0 4f d2 8d 3d e0 53 83 bb 30 2b 04 bc f0 2f 98 bb
       0.06924879 -0.0040078014 -0.008066937 -0.0046443865
0000f0 ce f3 79 3d dc 41 6c bd c8 33 97 bd 3a 81 93 bd
       0.061023526 -0.057679996 -0.07382923 -0.072023824
000100 10 d6 14 3d 80 1b 21 bc 80 ca 44 3d 37 a9 27 bd
       0.03633696 -0.009833217 0.04804468 -0.04093286
000110 2c 84 cd bc 2a 25 3f 3d be fd 1e bd a0 fb fc bb
       -0.025087439 0.0466663 -0.038816206 -0.0077204257
000120 10 ea f7 3c a0 c8 0e 3c a8 4d a5 bc 4c 9d 3c 3d
       0.030262977 0.008714825 -0.020178631 0.046048447
000130 80 38 97 3a 90 66 58 bd f5 f3 84 bd 1e d6 2c bd
       0.0011537224 -0.052832186 -0.064918436 -0.042196386
000140 a8 9b 9d bc e6 f1 4e bd ae 39 71 3d a6 38 56 bd
       -0.019239262 -0.05052366 0.0588929 -0.052300118
000150 d6 73 79 3d 6d db 35 bd 1e 10 1c 3d 00 86 e0 3b
       0.060901485 -0.044398714 0.038101308 0.0068519115
000160 0c ac 8e 3c c0 e9 95 3a 17 eb 94 3d 9b ca 84 3d
       0.017416023 0.0011437461 0.07271402 0.064839564
000170 1f d0 88 3d 10 45 c8 3b a8 d5 cb 3c 74 be 3c 3d
       0.06680321 0.0061117485 0.024882153 0.046080068
000180 3d 79 82 3d 20 c1 9b 3b 18 99 13 bc d8 f7 90 3c
       0.063707806 0.004753247 -0.009008668 0.017696306
000190 fc fd 53 bd 80 97 13 3b 99 a2 06 bd 5e b5 92 bc
       -0.05175589 0.002252072 -0.03286991 -0.017908748
0001a0 c8 c9 39 bd f0 73 5d 3c 03 fe 2a bd 5e f5 94 bc
       -0.04535845 0.013516411 -0.04174615 -0.018183406
0001b0 e8 b8 d3 3c 60 fa e0 3b 9c a4 9c 3c 26 53 21 3d
       0.025845006 0.0068657845 0.01912146 0.039385937
0001c0 80 ad 50 bc 86 9a 4f 3d 3c fc 18 3d c0 5f c1 3b
       -0.012736678 0.050684474 0.037349924 0.005901307
0001d0 ca d3 b2 bc 2c bf 2b 3d 98 6c 87 bd a0 67 51 3c
       -0.021829505 0.041930363 -0.066125095 0.012781054
0001e0 1e 07 d8 bc 00 70 1d 3a 5e 13 68 3d d8 47 49 bc
       -0.026370581 0.0006005764 0.056659095 -0.012285195
0001f0 81 b1 f5 3a a2 04 bd bc 68 f3 36 3d 62 5d 91 bc
       0.0018744917 -0.023073498 0.044665724 -0.017744724

convs.0.bn1.weight f4 [128]
000000 f8 ff 7f 3f ff ff 7f 3f ff ff 7f 3f 02 00 80 3f
       0.9999995 0.99999994 0.99999994 1.0000002
000010 00 00 80 3f 00 00 80 3f fc ff 7f 3f 04 00 80 3f
       1.0 1.0 0.99999976 1.0000005
000020 01 00 80 3f 00 00 80 3f 00 00 80 3f fd ff 7f 3f
       1.0000001 1.0 1.0 0.9999998
000030 02 00 80 3f 00 00 80 3f 00 00 80 3f 02 00 80 3f
       1.0000002 1.0 1.0 1.0000002
000040 fa ff 7f 3f fe ff 7f 3f fd ff 7f 3f 01 00 80 3f
       0.99999964 0.9999999 0.9999998 1.0000001
000050 01 00 80 3f 02 00 80 3f ff ff 7f 3f 00 00 80 3f
       1.0000001 1.0000002 0.99999994 1.0
000060 ff ff 7f 3f 00 00 80 3f 01 00 80 3f fe ff 7f 3f
       0.99999994 1.0 1.0000001 0.9999999
000070 00 00 80 3f 03 00 80 3f 00 00 80 3f 04 00 80 3f
       1.0 1.0000004 1.0 1.0000005
000080 ff ff 7f 3f 00 00 80 3f f1 ff 7f 3f 00 00 80 3f
       0.99999994 1.0 0.9999991 1.0
000090 fd ff 7f 3f 01 00 80 3f ff ff 7f 3f 00 00 80 3f
       0.9999998 1.0000001 0.99999994 1.0
0000a0 01 00 80 3f 02 00 80 3f 00 00 80 3f 01 00 80 3f
       1.0000001 1.0000002 1.0 1.0000001
0000b0 01 00 80 3f 01 00 80 3f ff ff 7f 3f 00 00 80 3f
       1.0000001 1.0000001 0.99999994 1.0
0000c0 01 00 80 3f 00 00 80 3f ff ff 7f 3f ff ff 7f 3f
       1.0000001 1.0 0.99999994 0.99999994
0000d0 ff ff 7f 3f 02 00 80 3f fd ff 7f 3f 01 00 80 3f
       0.99999994 1.0000002 0.9999998 1.0000001
0000e0 f9 ff 7f 3f fb ff 7f 3f 01 00 80 3f 01 00 80 3f
       0.9999996 0.9999997 1.0000001 1.0000001
0000f0 f4 ff 7f 3f 00 00 80 3f 00 00 80 3f 10 00 80 3f
       0.9999993 1.0 1.0 1.0000019
000100 03 00 80 3f 00 00 80 3f 00 00 80 3f 00 00 80 3f
       1.0000004 1.0 1.0 1.0
000110 00 00 80 3f 01 00 80 3f 03 00 80 3f fe ff 7f 3f
       1.0 1.0000001 1.0000004 0.9999999
000120 00 00 80 3f 00 00 80 3f 00 00 80 3f 01 00 80 3f
       1.0 1.0 1.0 1.0000001
000130 fd ff 7f 3f ff ff 7f 3f 00 00 80 3f 01 00 80 3f
       0.9999998 0.99999994 1.0 1.0000001
000140 03 00 80 3f fb ff 7f 3f 01 00 80 3f 00 00 80 3f
       1.0000004 0.9999997 1.0000001 1.0
000150 fe ff 7f 3f 00 00 80 3f 01 00 80 3f 00 00 80 3f
       0.9999999 1.0 1.0000001 1.0
000160 00 00 80 3f 00 00 80 3f fe ff 7f 3f 01 00 80 3f
       1.0 1.0 0.9999999 1.0000001
000170 01 00 80 3f f9 ff 7f 3f 01 00 80 3f f4 ff 7f 3f
       1.0000001 0.9999996 1.0000001 0.9999993
000180 00 00 80 3f ff ff 7f 3f 09 00 80 3f fe ff 7f 3f
       1.0 0.99999994 1.0000011 0.9999999
000190 ff ff 7f 3f ff ff 7f 3f ff ff 7f 3f 00 00 80 3f
       0.99999994 0.99999994 0.99999994 1.0
0001a0 00 00 80 3f fc ff 7f 3f fd ff 7f 3f fd ff 7f 3f
       1.0 0.99999976 0.9999998 0.9999998
0001b0 ff ff 7f 3f ff ff 7f 3f 01 00 80 3f 00 00 80 3f
       0.99999994 0.99999994 1.0000001 1.0
0001c0 ff ff 7f 3f ff ff 7f 3f 00 00 80 3f 00 00 80 3f
       0.99999994 0.99999994 1.0 1.0
0001d0 02 00 80 3f fd ff 7f 3f 01 00 80 3f fe ff 7f 3f
       1.0000002 0.9999998 1.0000001 0.9999999
0001e0 01 00 80 3f 00 00 80 3f ff ff 7f 3f fa ff 7f 3f
       1.0000001 1.0 0.99999994 0.99999964
0001f0 07 00 80 3f 02 00 80 3f fd ff 7f 3f df ff 7f 3f
       1.0000008 1.0000002 0.9999998 0.99999803

convs.0.bn1.bias f4 [128]
000000 06 fe 81 34 b4 0b a2 33 16 34 88 33 b1 4e 40 b4
       2.421295e-07 7.5458416e-08 6.342468e-08 -1.7910021e-07
000010 bf ad 69 b3 ff 5a 84 33 81 d5 84 32 96 20 fc b3
       -5.440756e-08 6.163281e-08 1.5463913e-08 -1.1740592e-07
000020 ae e7 d4 b2 62 60 df 32 61 58 0a b3 be 7b bb 33
       -2.4785404e-08 2.6004447e-08 -3.221101e-08 8.730375e-08
000030 6c 77 8d b4 92 8b 04 b2 a6 ca 8e 32 2c ab 81 b4
       -2.6350187e-07 -7.715146e-09 1.662313e-08 -2.4152666e-07
000040 c5 87 dd 33 37 1a 2f 32 38 3e ff 33 df 28 9e b3
       1.0315811e-07 1.0192301e-08 1.188568e-07 -7.364883e-08
000050 90 af 6c b3 d8 01 93 32 fa c5 14 33 3a 52 3a 33
       -5.5107705e-08 1.711389e-08 3.4638994e-08 4.3381284e-08
000060 4f cd f2 b2 61 ae 2f 33 9a 3e 32 b4 a7 eb 02 b3
       -2.8265871e-08 4.090396e-08 -1.6600316e-07 -3.048231e-08
000070 8d 9e 3d 33 94 4b 9a b4 e9 f7 65 b3 13 02 b6 b4
       4.4149193e-08 -2.8739726e-07 -5.354369e-08 -3.390165e-07
000080 34 91 8c 33 74 d4 f3 b3 80 c7 89 34 23 63 b0 b1
       6.54567e-08 -1.1354214e-07 2.5663394e-07 -5.1335447e-09
000090 e7 8c 30 b1 1a 39 30 b4 37 76 21 b4 aa 20 18 33
       -2.5691465e-09 -1.6412051e-07 -1.50373e-07 3.5419966e-08
0000a0 69 bf e2 b3 9b 66 15 b4 61 f2 5a 31 7d 3d fa 32
       -1.05587624e-07 -1.3914034e-07 3.1860952e-09 2.9131792e-08
0000b0 cd 1b 40 b4 70 56 b4 b3 c9 1d a0 33 3c dd 07 31
       -1.7891507e-07 -8.397626e-08 7.4559985e-08 1.9770843e-09
0000c0 dd 24 05 b3 78 49 74 32 4f bf 35 32 3e 10 c5 33
       -3.1000003e-08 1.4219374e-08 1.0579085e-08 9.176482e-08
0000d0 f0 dd a4 32 25 4a 23 b4 15 ed 19 34 bc 38 62 b4
       1.9193038e-08 -1.5207532e-07 1.4335485e-07 -2.106853e-07
0000e0 33 47 4e 34 12 d3 51 33 fc 79 59 b3 f8 9a df b3
       1.9211147e-07 4.8853572e-08 -5.0635194e-08 -1.04124354e-07
0000f0 f1 ec 4b 35 d5 40 03 b4 11 22 83 33 2d 4c 31 b5
       7.596819e-07 -1.2223911e-07 6.1063595e-08 -6.604849e-07
000100 0c ec 1a b4 a1 57 ec b1 4a bf bb b2 c8 a7 67 b3
       -1.4428241e-07 -6.8784662e-09 -2.1856653e-08 -5.3936475e-08
000110 fd 85 5a 32 81 09 b0 b3 96 b2 3a b3 ac ab ad 33
       1.27197355e-08 -8.1973674e-08 -4.3468923e-08 8.087167e-08
000120 7d 1d 5a b1 e6 d5 01 32 76 f0 96 32 96 58 9c b3
       -3.1739937e-09 7.557423e-09 1.7571647e-08 -7.28043e-08
000130 0e ad 29 33 0a c6 b1 32 76 d0 36 33 40 9b 70 b3
       3.950577e-08 2.069557e-08 4.256477e-08 -5.6020554e-08
000140 0c 31 92 b3 de d0 e8 33 b8 5e e0 b2 a3 41 d1 b2
       -6.8075764e-08 1.08413346e-07 -2.6120105e-08 -2.436065e-08
000150 fb 4e 77 33 35 cd cd b1 d6 22 89 b1 17 c8 63 32
       5.7581e-08 -5.9896146e-09 -3.991185e-09 1.3258634e-08
000160 9d 49 3f b3 e4 03 6c 32 7b a4 27 33 a7 9b 9d b3
       -4.4537604e-08 1.3737893e-08 3.903231e-08 -7.339195e-08
000170 30 16 01 b3 ca 22 1d 34 2b a5 cf b2 20 c5 5c 34
       -3.0055332e-08 1.463442e-07 -2.4173081e-08 2.056081e-07
000180 14 a7 99 b2 dd b3 09 32 a2 6d b6 b4 df 36 db 32
       -1.7887523e-08 8.015346e-09 -3.397991e-07 2.5519908e-08
000190 d2 9e ff 32 24 a8 b7 32 66 73 9d 32 ca a3 78 32
       2.975813e-08 2.1380465e-08 1.8329683e-08 1.4472741e-08
0001a0 d2 ef c6 b2 ef d0 58 33 d5 29 4d 33 6f fd aa 33
       -2.3159291e-08 5.0481443e-08 4.7768328e-08 7.962341e-08
0001b0 df 28 83 33 33 33 10 32 9e 96 d8 b3 fa 9c 81 b1
       6.107597e-08 8.3935445e-09 -1.0085681e-07 -3.7722403e-09
0001c0 a3 c6 26 33 62 41 51 33 f8 b2 89 b2 f1 1c 8c 32
       3.8830546e-08 4.872107e-08 -1.6030285e-08 1.6311306e-08
0001d0 54 e3 8b b3 61 e7 49 33 e3 08 4e b3 3c c6 14 33
       -6.5140426e-08 4.7009397e-08 -4.7971195e-08 3.463923e-08
0001e0 3b ce f1 b1 60 34 41 b2 5f 57 82 32 2f cc 01 34
       -7.037469e-09 -1.1245987e-08 1.5173724e-08 1.2088343e-07
0001f0 f4 c3 76 b4 c6 b2 0f b4 91 de a7 33 7b ca 3b 35
       -2.2981823e-07 -1.338295e-07 7.817028e-08 6.9957576e-07

convs.0.bn1.running_mean f4 [128]
000000 30 2d 56 3b c7 1e 04 3c 8e 74 2f bb 61 53 ab bb
       0.0032680742 0.0080639785 -0.0026772353 -0.0052284454
000010 e0 a9 17 3b e5 a3 e4 3b 32 3b 29 3b 5e 13 26 bb
       0.0023142025 0.0069775456 0.0025822637 -0.0025341134
000020 c7 03 ac bb 8e 7e 81 bc d2 bf 18 3c c5 7d 27 bb
       -0.0052494737 -0.015807416 0.009323077 -0.0025557142
000030 94 71 8e b8 fb 45 ec bb 96 c9 5a bc 4e a4 85 3a
       -6.792243e-05 -0.0072104908 -0.013353726 0.0010196061
000040 0a 53 2d bc 05 ac 74 b9 66 45 85 3c 23 d7 9a bb
       -0.01057888 -0.00023333736 0.016268443 -0.0047253533
000050 c0 c6 8f 3c 6f 1d 96 bc 07 58 8b 3c 84 14 8c 3c
       0.017550826 -0.018324582 0.017009748 0.017099626
000060 7b e2 8d bb a2 a3 e2 bb 42 93 55 3b 1a 64 8f bc
       -0.004329977 -0.006916479 0.0032588993 -0.017503787
000070 ae 96 32 ba a8 8f d8 bb 15 43 74 3b da 8d 16 3b
       -0.0006812614 -0.006608922 0.003727143 0.0022972734
000080 1e 5d e5 3b 03 5d b9 bb 2d 04 2f 3c 02 87 a2 bb
       0.006999626 -0.00565684 0.010682148 -0.004959942
000090 24 4f 1a 3c e5 5e 7d bc 4b 3f 95 bb 29 58 02 bb
       0.009418283 -0.015464519 -0.0045546643 -0.0019888973
0000a0 dd f5 f4 3b b0 a7 5b 3a c0 b2 6d 3a 54 1b a1 bc
       0.0074755982 0.00083791744 0.00090674683 -0.019666351
0000b0 f1 b0 a9 bb 6c 84 2c bc b3 c4 a9 bb c5 81 41 b9
       -0.0051785638 -0.010529619 -0.005180919 -0.00018454257
0000c0 cd 1c 38 3b 7d b7 4f 3c ba f0 19 bb 43 ef 6e 3c
       0.0028093338 0.012678024 -0.0023489431 0.014583412
0000d0 73 d3 78 bb 62 ef 16 3c 16 67 c3 bc 9a 46 f6 3a
       -0.003796783 0.009212347 -0.023852866 0.0018789351
0000e0 e5 6e 60 3c 62 12 17 bb 3e 1b cf 3b c7 c1 4c 3b
       0.013698314 -0.0023051728 0.006320386 0.003124343
0000f0 42 5e 5b 3c 43 13 99 b9 a6 74 98 ba 59 83 2a bc
       0.013389172 -0.00029196785 -0.0011631444 -0.010407292
000100 e6 cb 06 3b 91 99 b8 bb 3f 7f 2d 3b 5c 6c 2b 3a
       0.002056831 -0.005633541 0.002647355 0.0006539279
000110 e2 e6 1d bc 86 da b7 3b e6 bb e8 3b 8d c5 22 3b
       -0.009637566 0.005610767 0.0071024774 0.0024836988
000120 be 13 75 3b 2c ca 04 3c 4d 22 0d bc 04 cb aa ba
       0.00373958 0.008104842 -0.008614135 -0.0013030474
000130 40 fa fd 3a aa 8e 62 bb 9f c5 bd 3b 9b b4 24 3c
       0.0019376948 -0.0034569898 0.0057913805 0.010052825
000140 da 6f ef 3b a3 44 ef bb cd fa 49 3c 43 d9 8f 3a
       0.007307035 -0.0073018833 0.012327862 0.0010974783
000150 35 97 20 bc ce e9 01 3b fa fb e8 bb 3e b4 4a bb
       -0.009801676 0.0019823196 -0.007110116 -0.0030930187
000160 e8 23 8e 3a 3d 4e 66 3a d5 fb 6d 38 68 25 f3 bb
       0.0010844441 0.0008785462 5.673974e-05 -0.0074202307
000170 4e d5 00 bc c2 1c 7b 3c ba e7 9d 3b a5 bb 32 3c
       -0.007863356 0.015326681 0.0048188837 0.010908996
000180 f3 ba b6 3b ae 16 7d bb 97 97 37 3b f5 22 70 3c
       0.0055764853 -0.0038618254 0.0028013939 0.014656772
000190 b6 a9 b0 bb 38 7b 0a 3c 45 87 ef bb a8 3a 5b ba
       -0.005391325 0.008452229 -0.0073098266 -0.00083629275
0001a0 55 3f ae b8 72 0b 26 3c 15 ee 94 bb b7 65 0c bb
       -8.308763e-05 0.010134565 -0.004544983 -0.0021422931
0001b0 02 ce 20 bc bc a0 39 bc 00 c4 dd 3a 4b 2f 7c 3c
       -0.009814741 -0.011329826 0.0016919374 0.015392135
0001c0 bd f5 69 bb f3 89 10 3b 0e c4 0c 3c 0e 17 75 3a
       -0.003569945 0.002205488 0.008591665 0.0009349444
0001d0 f6 13 92 bb 76 84 2f 3c 4d 8d 17 bc 73 d0 19 bc
       -0.004457946 0.0107127335 -0.009249997 -0.009388077
0001e0 2e 44 85 bc cf c3 46 39 d2 1c e2 3b 56 d7 22 ba
       -0.016267862 0.00018955696 0.0069004083 -0.0006211897
0001f0 c5 57 d5 36 e5 62 7f bb f2 4b 27 bb 55 59 7f 3a
       6.3581124e-06 -0.0038968858 -0.0025527445 0.00097407895

convs.0.bn1.running_var f4 [128]
000000 b6 7a 66 3f 6a a6 66 3f 39 87 66 3f 6f 82 66 3f
       0.9003099 0.9009768 0.90050083 0.90042776
000010 6b 8d 66 3f 30 aa 66 3f 30 96 66 3f b1 8d 66 3f
       0.90059537 0.90103436 0.9007292 0.90059954
000020 7d 88 66 3f 69 8c 66 3f 4b 87 66 3f 4e 77 66 3f
       0.90052015 0.90058 0.9005019 0.90025795
000030 d5 ce 66 3f b4 a0 66 3f 34 a0 66 3f 96 81 66 3f
       0.9015935 0.90088964 0.900882 0.9004148
000040 ac be 66 3f b9 9a 66 3f 4a 9a 66 3f 70 95 66 3f
       0.9013469 0.9007984 0.90079176 0.90071774
000050 d9 87 66 3f af a0 66 3f d5 8b 66 3f 92 9b 66 3f
       0.9005104 0.90088934 0.90057117 0.9008113
000060 94 8b 66 3f 64 9e 66 3f ae 8b 66 3f 5f 90 66 3f
       0.9005673 0.90085435 0.90056884 0.9006404
000070 b5 ad 66 3f c5 98 66 3f 90 db 66 3f 86 ac 66 3f
       0.90108806 0.9007686 0.90178776 0.90107
000080 7c 84 66 3f 3d 85 66 3f 7c 9c 66 3f b3 88 66 3f
       0.90045905 0.90047055 0.90082526 0.90052336
000090 15 91 66 3f bf a2 66 3f e5 7f 66 3f 45 75 66 3f
       0.9006513 0.9009208 0.900389 0.9002269
0000a0 8f 7a 66 3f e1 88 66 3f ea 95 66 3f 92 95 66 3f
       0.9003076 0.9005261 0.900725 0.90071976
0000b0 f0 a7 66 3f 09 7a 66 3f 7d 9d 66 3f fa a0 66 3f
       0.901 0.9002996 0.9008406 0.9008938
0000c0 f5 82 66 3f 9a a1 66 3f 82 a2 66 3f 07 86 66 3f
       0.90043575 0.90090334 0.9009172 0.9004826
0000d0 09 8d 66 3f f5 85 66 3f 62 b2 66 3f f1 92 66 3f
       0.9005895 0.9004815 0.9011594 0.90067965
0000e0 7c 7f 66 3f 66 fc 66 3f 77 82 66 3f 34 84 66 3f
       0.90038276 0.9022888 0.90042824 0.90045476
0000f0 11 8d 66 3f 94 80 66 3f 4d 7c 66 3f a7 a1 66 3f
       0.90059 0.90039945 0.9003342 0.9009041
000100 93 a3 66 3f 0e aa 66 3f 2c 88 66 3f 76 7e 66 3f
       0.90093344 0.9010323 0.9005153 0.90036714
000110 72 8a 66 3f 0b 89 66 3f 4e 97 66 3f f4 7b 66 3f
       0.90055 0.9005286 0.9007462 0.9003289
000120 9d 94 66 3f 8e 76 66 3f 2b 99 66 3f f8 75 66 3f
       0.90070516 0.9002465 0.90077466 0.90023756
000130 d6 7b 66 3f c7 95 66 3f 2d 83 66 3f 7c 7d 66 3f
       0.9003271 0.9007229 0.9004391 0.90035224
000140 44 8b 66 3f ec 96 66 3f 4e 7f 66 3f d9 9f 66 3f
       0.9005625 0.9007404 0.90038 0.9008766
000150 66 87 66 3f f4 a3 66 3f dc 88 66 3f 99 84 66 3f
       0.9005035 0.9009392 0.9005258 0.9004608
000160 13 8f 66 3f 87 a9 66 3f d8 87 66 3f c2 a1 66 3f
       0.90062064 0.9010243 0.9005103 0.9009057
000170 13 85 66 3f c9 a7 66 3f 2a b1 66 3f 64 93 66 3f
       0.90046805 0.9009977 0.9011408 0.9006865
000180 ad 7c 66 3f 11 9a 66 3f dd 94 66 3f f0 84 66 3f
       0.9003399 0.90078837 0.900709 0.90046597
000190 18 86 66 3f 9e 7c 66 3f 11 83 66 3f 2a 85 66 3f
       0.9004836 0.900339 0.9004374 0.9004694
0001a0 4d 8d 66 3f 13 8f 66 3f 1e 88 66 3f d6 92 66 3f
       0.9005936 0.90062064 0.9005145 0.90067804
0001b0 cc 9c 66 3f 2f 8b 66 3f 32 b5 66 3f b1 99 66 3f
       0.90083003 0.9005613 0.9012023 0.90078264
0001c0 0f 99 66 3f df 8a 66 3f 4b 99 66 3f d3 c4 66 3f
       0.900773 0.9005565 0.90077657 0.9014408
0001d0 d7 8d 66 3f 95 7d 66 3f a0 9d 66 3f 4c 88 66 3f
       0.9006018 0.9003537 0.90084267 0.9005172
0001e0 44 78 66 3f 54 8e 66 3f 44 88 66 3f 7f 93 66 3f
       0.9002726 0.90060925 0.90051675 0.9006881
0001f0 88 95 66 3f 73 9b 66 3f ea 8a 66 3f 05 8c 66 3f
       0.90071917 0.90080947 0.90055716 0.900574

convs.0.bn2.weight f4 [64]
000000 fb ff 7f 3f 01 00 80 3f f6 ff 7f 3f f7 ff 7f 3f
       0.9999997 1.0000001 0.9999994 0.99999946
000010 ea ff 7f 3f 02 00 80 3f 05 00 80 3f fb ff 7f 3f
       0.9999987 1.0000002 1.0000006 0.9999997
000020 01 00 80 3f ff ff 7f 3f ee ff 7f 3f 00 00 80 3f
       1.0000001 0.99999994 0.9999989 1.0
000030 f4 ff 7f 3f fc ff 7f 3f 05 00 80 3f 04 00 80 3f
       0.9999993 0.99999976 1.0000006 1.0000005
000040 07 00 80 3f ef ff 7f 3f fa ff 7f 3f 06 00 80 3f
       1.0000008 0.999999 0.99999964 1.0000007
000050 f8 ff 7f 3f 06 00 80 3f fb ff 7f 3f fc ff 7f 3f
       0.9999995 1.0000007 0.9999997 0.99999976
000060 fd ff 7f 3f 02 00 80 3f 03 00 80 3f 00 00 80 3f
       0.9999998 1.0000002 1.0000004 1.0
000070 04 00 80 3f 00 00 80 3f 04 00 80 3f f8 ff 7f 3f
       1.0000005 1.0 1.0000005 0.9999995
000080 f4 ff 7f 3f 0c 00 80 3f 04 00 80 3f fb ff 7f 3f
       0.9999993 1.0000014 1.0000005 0.9999997
000090 f6 ff 7f 3f 01 00 80 3f 01 00 80 3f 03 00 80 3f
       0.9999994 1.0000001 1.0000001 1.0000004
0000a0 05 00 80 3f 04 00 80 3f fe ff 7f 3f ec ff 7f 3f
       1.0000006 1.0000005 0.9999999 0.9999988
0000b0 04 00 80 3f 0b 00 80 3f fe ff 7f 3f 04 00 80 3f
       1.0000005 1.0000013 0.9999999 1.0000005
0000c0 f2 ff 7f 3f f9 ff 7f 3f f7 ff 7f 3f f9 ff 7f 3f
       0.99999917 0.9999996 0.99999946 0.9999996
0000d0 01 00 80 3f 06 00 80 3f ff ff 7f 3f 0a 00 80 3f
       1.0000001 1.0000007 0.99999994 1.0000012
0000e0 fa ff 7f 3f 04 00 80 3f fc ff 7f 3f ff ff 7f 3f
       0.99999964 1.0000005 0.99999976 0.99999994
0000f0 f8 ff 7f 3f 0c 00 80 3f f7 ff 7f 3f fb ff 7f 3f
       0.9999995 1.0000014 0.99999946 0.9999997

convs.0.bn2.bias f4 [64]
000000 36 2b 87 b2 e6 2e e8 30 e4 86 68 b2 75 69 9f b4
       -1.5735719e-08 1.6893551e-09 -1.3534848e-08 -2.9692788e-07
000010 92 92 70 b5 b3 7a 61 34 d6 16 aa b2 24 97 4f 2f
       -8.9620255e-07 2.0999396e-07 -1.980099e-08 1.8880236e-10
000020 87 ce 8b b3 d7 12 e0 af ed 15 f2 b3 41 38 51 b3
       -6.510259e-08 -4.075875e-10 -1.12729914e-07 -4.8712767e-08
000030 00 67 e5 b4 e6 89 9a b4 f3 c5 d4 34 f4 13 e5 33
       -4.2729516e-07 -2.878507e-07 3.9632104e-07 1.0667273e-07
000040 fc 40 dc 34 b4 dd 3e b4 7f 2d 8d b4 a5 71 18 34
       4.1025476e-07 -1.7775784e-07 -2.62964e-07 1.4197447e-07
000050 76 26 f9 b4 76 ef 97 b3 e4 56 66 34 ae 8f ac 33
       -4.6407848e-07 -7.075043e-08 2.145203e-07 8.035509e-08
000060 f2 c1 3d 32 a6 b2 df 34 01 3c dd 34 6c f4 66 b4
       1.1045346e-08 4.166697e-07 4.1208116e-07 -2.150934e-07
000070 8b 90 a2 33 20 99 99 b3 b4 08 a9 33 8a 8e 61 b4
       7.570005e-08 -7.152471e-08 7.871259e-08 -2.1006613e-07
000080 bc b0 fe b3 02 1e b4 34 08 8b 86 34 0c f5 85 33
       -1.18599445e-07 3.3549446e-07 2.5060604e-07 6.237869e-08
000090 25 39 f2 b4 95 4b 19 b4 70 8f c6 33 eb da cd 34
       -4.511759e-07 -1.4276732e-07 9.2461846e-08 3.834351e-07
0000a0 39 29 5e 34 19 21 c5 33 90 d0 f5 33 2e 3f c5 31
       2.0690358e-07 9.179548e-08 1.1446639e-07 5.7406373e-09
0000b0 45 70 94 b3 1f bb b2 34 1e f7 8e b3 c8 9e ed 33
       -6.912209e-08 3.3291232e-07 -6.6573406e-08 1.1065055e-07
0000c0 4b 84 83 b4 bf 3c 1d b3 36 3b 83 b4 2f 8c 71 32
       -2.4496907e-07 -3.660966e-08 -2.4443733e-07 1.405992e-08
0000d0 25 b9 20 b4 78 2a 05 34 77 e8 01 34 a3 59 dd 33
       -1.4968516e-07 1.240204e-07 1.2098631e-07 1.0307419e-07
0000e0 99 9d 8e b4 b0 de 35 34 ca e7 04 b4 f6 5e 3d 34
       -2.6564229e-07 1.6937952e-07 -1.2377782e-07 1.7636543e-07
0000f0 cb e7 28 34 ff 7c 9e 34 c3 84 9c b3 ed f1 35 b4
       1.5730545e-07 2.952074e-07 -7.288465e-08 -1.694495e-07

convs.0.bn2.running_mean f4 [64]
000000 6d 0f d8 3e 3a a4 fa 3e dc 89 07 3f 63 ed fa 3e
       0.4219927 0.4895342 0.5294473 0.49009237
000010 d9 71 03 3f 3b 1b 0b 3f 8f 8a 01 3f 33 19 e0 3e
       0.5134559 0.54338425 0.5060205 0.43769225
000020 ab 83 eb 3e 0a 4f 0a 3f be 0a e9 3e c0 9d f5 3e
       0.45998892 0.54026854 0.45516008 0.47971916
000030 db e0 0e 3f 96 d5 09 3f 2e 1e f4 3e 42 1b 0b 3f
       0.5581185 0.5384153 0.47679275 0.5433847
000040 52 cb e4 3e aa 1c f8 3e 64 ae 00 3f 9e 26 ed 3e
       0.4468637 0.4845937 0.502661 0.46318525
000050 bb c9 e4 3e 32 6f ca 3e 1d 27 fd 3e 59 02 17 3f
       0.44685158 0.3953796 0.49443904 0.5898796
000060 92 d8 fa 3e b4 26 06 3f 9a 9b fc 3e 58 c3 00 3f
       0.48993355 0.52402806 0.49337465 0.5029807
000070 72 05 05 3f 46 1f eb 3e 22 dd d2 3e cd 19 f6 3e
       0.51961434 0.45922297 0.41184336 0.4806656
000080 de 3f fc 3e c1 5c 02 3f fb 81 d8 3e a0 62 fa 3e
       0.49267477 0.5092278 0.42286667 0.4890337
000090 b6 7c f7 3e f2 da dc 3e 91 58 03 3f 03 75 d9 3e
       0.48337334 0.43135792 0.51307017 0.42472085
0000a0 d2 1c 03 3f 4b 32 ef 3e 55 81 ec 3e bd 4f 0f 3f
       0.5121585 0.46718058 0.46192423 0.55981046
0000b0 22 a2 0a 3f 43 8e 07 3f f6 8a f4 3e f6 6b 0e 3f
       0.54153645 0.5295145 0.4776227 0.55633485
0000c0 be 0e 04 3f 22 c0 03 3f 63 07 d0 3e 13 01 03 3f
       0.51584995 0.51465046 0.40630636 0.51173514
0000d0 ac e5 02 3f 20 9b f0 3e c5 cb d1 3e c8 04 ff 3e
       0.511317 0.4699335 0.40975776 0.49808335
0000e0 60 74 ff 3e 78 78 e7 3e 6a b6 db 3e 08 e2 fc 3e
       0.49893475 0.45209098 0.42912608 0.49391198
0000f0 28 57 e8 3e e2 d1 01 3f fa ce 0b 3f 26 96 d2 3e
       0.45378995 0.5071088 0.54612696 0.4113018

convs.0.bn2.running_var f4 [64]
000000 be e3 a8 3f a6 25 f5 3f 28 85 01 40 ea 69 bb 3f
       1.3194501 1.9152114 2.0237522 1.4641697
000010 a6 a4 e6 3f 9f b0 e6 3f 01 b5 ae 3f 1e 62 8a 3f
       1.8018997 1.802265 1.3648988 1.0811193
000020 60 25 9c 3f 8f 00 44 40 7b 33 e3 3f 3b c4 af 3f
       1.2198906 3.062534 1.7750086 1.373176
000030 3e b0 e3 3f 6e 80 d7 3f 64 96 9b 3f e4 b8 c3 3f
       1.778816 1.6836069 1.215527 1.5290799
000040 e3 58 a0 3f 13 53 b1 3f 60 3a d1 3f 41 8f c3 3f
       1.2527126 1.3853477 1.634594 1.5278093
000050 3e c5 8f 3f be d1 83 3f 2a ad 95 3f a0 cb b8 3f
       1.1232069 1.0298383 1.169347 1.4437141
000060 06 21 d1 3f ca 6f 36 40 38 63 9f 3f 46 e9 fd 3f
       1.6338203 2.850573 1.2452154 1.9836814
000070 2a 54 01 40 87 23 90 3f 00 a3 96 3f 2d 3f 94 3f
       2.020762 1.1260842 1.1768494 1.158178
000080 0d 18 f3 3f e7 34 ac 3f 0c fa 83 3f 2a a7 a0 3f
       1.8991715 1.3453645 1.0310683 1.2551014
000090 f4 07 a3 3f 72 7d 94 3f a2 e9 be 3f 8a 6c 87 3f
       1.2736802 1.1600783 1.4915049 1.0579998
0000a0 20 73 9d 3f 96 d8 a6 3f 6b af de 3f ed 62 cb 3f
       1.2300758 1.3034847 1.7397283 1.5889565
0000b0 e3 30 d3 3f 99 6d 07 40 58 55 97 3f b6 c6 44 40
       1.6499294 2.1160643 1.182292 3.0746284
0000c0 20 f4 ce 3f 17 c3 fb 3f cb d8 8f 3f e8 1e 0e 40
       1.6168251 1.9668912 1.1238035 2.2206364
0000d0 32 d7 e8 3f 82 25 ac 3f a0 79 97 3f 0c 49 17 40
       1.8190672 1.3448946 1.1833992 2.3638334
0000e0 14 d2 ad 3f de 31 a4 3f 87 15 ab 3f 74 3d ba 3f
       1.3579736 1.2827718 1.3365945 1.4550004
0000f0 69 c6 bc 3f ff 7e 11 40 ce d5 0a 40 7d 55 87 3f
       1.474805 2.2733762 2.1692996 1.0572964

convs.1.fc_full.weight f4 [128, 169]
000000 bc 52 13 bc e0 d8 2f bd 02 34 e9 3b f6 c0 c9 3c
       -0.008991893 -0.042931437 0.0071167955 0.024628144
000010 fe 7f 5a bd c5 12 02 bd 95 f3 32 bd da 34 94 3c
       -0.05334472 -0.03175618 -0.04368933 0.018091608
000020 b8 30 96 3d 33 58 a7 3c 52 2a 70 3d 20 84 ca 3c
       0.07333511 0.020427799 0.05863411 0.024721205
000030 47 b9 be bc 0e f4 de 3c 8f 57 b8 3c 23 d3 c9 bc
       -0.023281706 0.027215984 0.022502689 -0.02463681
000040 34 ac 85 3d bd 93 01 3b 7a 20 8a bc d1 3d 71 bc
       0.06526986 0.0019771897 -0.01686119 -0.014724211
000050 ae 0b 1f bd ef 32 72 3d 6b 2b 35 3d ab d0 68 3d
       -0.038829498 0.059130605 0.04423086 0.056839626
000060 50 a8 6e 3c a5 63 98 bc 37 80 5a 3d 96 0e d1 bc
       0.014566496 -0.018602202 0.05334493 -0.02551965
000070 26 6c 22 bd f4 76 0e 3c d6 31 47 3c d4 23 9b 3d
       -0.03965392 0.008695353 0.012157878 0.07575193
000080 90 d5 29 bd 57 74 36 3d b3 e9 8a 3d da 80 9f bb
       -0.041463435 0.044544544 0.06782856 -0.004867655
000090 03 31 4e 3c 64 21 ad bb 0e 16 2e 3b 4e ae 28 bd
       0.0125849275 -0.0052835215 0.0026563439 -0.041181855
0000a0 41 b6 3d 3d 32 f9 0f 3d b2 77 8c 3d ef 20 18 3d
       0.04631639 0.03514976 0.068587676 0.037140783
0000b0 18 9e f1 3c 51 5c 54 bc 03 29 1c 3d 7c 94 0a 3c
       0.02949433 -0.012961463 0.03812505 0.008458253
0000c0 27 ec 89 bb 81 66 82 bd 2e 47 80 bc e5 9f 99 bd
       -0.0042090598 -0.06367207 -0.015658941 -0.075012006
0000d0 34 3c cd bb ac 91 94 bd 20 d2 4c bd 42 50 92 3d
       -0.0062632803 -0.07254347 -0.05000508 0.07144214
0000e0 67 80 b5 bc 6e 6e 87 bc aa ad 4c bb 92 fb 79 3a
       -0.022155954 -0.01653215 -0.0031231442 0.0009536083
0000f0 70 22 63 bd 52 d9 b7 bc 4e 71 50 3d 2c f7 56 bd
       -0.055452764 -0.022442494 0.050889306 -0.052481815
000100 84 05 db ba 5a 1f 06 bd 1b f2 8e bd 95 38 05 bd
       -0.0016710018 -0.032744743 -0.06979772 -0.032524664
000110 93 53 67 3d 80 8a a7 3c 80 52 86 bd da fb a4 3c
       0.056476187 0.020451784 -0.065587044 0.020139623
000120 80 e8 4f bd fa 23 6a bd c0 ae 65 3d c4 56 b3 3c
       -0.05075884 -0.057163216 0.056074858 0.021891959
000130 ae 64 97 bd 58 4e 8f bc be 3a 32 bd 2d 68 4e bd
       -0.0739225 -0.017493412 -0.043513052 -0.05039232
000140 ca ee 38 3d ec b1 4c 3d 75 5e 97 bd ca 05 87 bd
       0.045149602 0.049974367 -0.07391063 -0.06592901
000150 f1 ef 78 bd 46 62 4b bd 52 ac 27 3d 10 0d 9c 3d
       -0.0607757 -0.049654268 0.04093582 0.07619679
000160 dc f4 0a 3b 67 10 41 bc b3 fa 95 bb 9e 6f b6 bc
       0.0021203076 -0.011783696 -0.004577005 -0.02227002
000170 27 fb 8f 3d 87 b1 1c bc 24 c8 16 bd 90 c3 90 3d
       0.070303254 -0.00956381 -0.036811963 0.070685506
000180 58 e6 97 bd 9b 8a 7c 3c ae a5 e2 3b 9c 3d 09 bd
       -0.074169815 0.0154139055 0.006916723 -0.03350602
000190 7c 8a 84 3d fa 81 91 bd 6b 89 21 3d 8a 4b 4b bd
       0.06471726 -0.07104869 0.039437693 -0.049632587
0001a0 fa fe 70 bd 48 8b 24 bd 1d d5 12 3d f5 49 01 bd
       -0.058836915 -0.04017189 0.035847772 -0.03156467
0001b0 bf 6f 66 3d bd 74 78 bd 1c 57 1d bd 66 60 93 bd
       0.056258913 -0.060658205 -0.038413152 -0.07196121
0001c0 95 d5 35 bd b7 7f eb bb 1a 74 42 3d 49 02 9f bc
       -0.04439314 -0.0071868557 0.047474004 -0.01941027
0001d0 3f 3f 64 bc df fd 83 bd ef 1c 75 3d 3a 15 07 3d
       -0.013931095 -0.064449064 0.059842046 0.032979228
0001e0 7d ca 80 bd f3 30 e3 b9 02 91 0d bd 48 8a 7b bd
       -0.062886216 -0.00043333284 -0.03456212 -0.061411172
0001f0 bc ed 48 bd e7 c0 ff bc c3 54 43 3d 25 d1 60 3a
       -0.049054846 -0.031219913 0.047688257 0.0008576087
000200 50 1f b2 bb 9a 79 d4 bc a0 f7 81 bd 9e c9 fd bc
       -0.0054358616 -0.02593689 -0.06346059 -0.030979928
000210 12 5c e2 bc 37 4f 0a bd 6e 3e a8 3b f8 5a 95 3d
       -0.027631793 -0.03376695 0.0051343953 0.072927415
000220 15 62 60 3c 46 d1 90 bd 6a b5 c1 bc 8b 05 8d 3d
       0.01369526 -0.07071166 -0.023646075 0.06885823
000230 27 ce 4f 3d 94 9e 3d 3b 02 b8 75 bd d4 ee d8 3b
       0.05073371 0.0028933631 -0.059989937 0.0066202674
000240 de 84 9b bd e9 80 35 bd 4e 1c 6d 3d df 27 0b bd
       -0.07593702 -0.04431239 0.05788832 -0.03397357
000250 12 34 52 bc 8c 34 be bc e0 20 58 bc e0 c7 5d bc
       -0.012829797 -0.023218416 -0.013191432 -0.013536423
000260 a8 3e 30 3d de 31 3e 3d 54 cf 9c bc 40 b9 29 bd
       0.043028504 0.046434276 -0.01914183 -0.041436434
000270 12 33 84 bd 86 98 d5 bc 2e da 7e 3d 80 a8 e3 3c
       -0.064550534 -0.026073705 0.06221979 0.027790308
000280 50 45 b5 bb 76 e8 4d 3d 4d ca 02 bd b8 ef 7e 3c
       -0.0055319443 0.05027052 -0.03193121 0.015560083
000290 a2 74 5f 3d 65 33 39 bd 1c de 46 bd 3b 28 88 3d
       0.05455459 -0.04521503 -0.048551664 0.06648298
0002a0 92 4d 3a bd f5 54 99 3c 12 56 8f 3d c6 6e 37 3d
       -0.045484133 0.018717268 0.069988385 0.044783376
0002b0 ea 4c 29 3d 64 4b 60 3d 1f 9f 35 3d 07 a1 c6 3c
       0.041333117 0.054759398 0.044341203 0.024246706
0002c0 4a 53 f3 3b 32 26 27 bc f5 ed c3 bc d8 5b f7 3c
       0.0074257003 -0.010201978 -0.023917178 0.030195162
0002d0 90 e9 6a 3c b7 d6 25 3d 68 2c 7b 3d 05 6f c4 3c
       0.014337912 0.04048797 0.061321646 0.02397872
0002e0 85 ea 12 3d b3 23 24 bd 0d 00 b5 bc ea 12 22 bd
       0.035868187 -0.040073108 -0.02209475 -0.03956882
0002f0 5a bc 86 bd 01 61 3a bb f8 62 58 bd 5f f0 87 bb
       -0.06578894 -0.0028439166 -0.05282876 -0.0041485275
000300 34 ce 91 bc 84 8e ca bc 72 8a 21 3c de 14 d8 bc
       -0.01779852 -0.02472616 0.009859668 -0.026377138
000310 bd ce 7d 3c 07 86 0b bd 56 36 45 3c 4c d8 ff 3c
       0.015491185 -0.034063365 0.0120368805 0.031231068
000320 9c 88 17 bd a7 35 98 bd 74 87 4a 3d 1e 53 3e 3d
       -0.036995515 -0.07432108 0.049445584 0.046465985
000330 f1 42 86 3d a7 24 7e bd 81 79 ed 3c ca e4 89 3d
       0.06555737 -0.062046673 0.028988602 0.06733091
000340 e4 8c b7 3c ed 9e 96 bd 9f 25 bb bb 35 53 af bc
       0.02240605 -0.073545314 -0.005711272 -0.02140198
000350 c8 76 5e 3c 7b b9 1b bd 34 50 2b 3d 43 25 8a 3d
       0.013578124 -0.038018685 0.041824535 0.06745388
000360 03 17 97 3d e4 66 d2 bc cf 3e 36 bc 81 46 8d 3d
       0.07377436 -0.025683828 -0.011123373 0.06898213
000370 89 ca 0c bd 91 22 4d 3d 05 de 7c bd 51 d0 8b 3d
       -0.03437284 0.050081793 -0.06173517 0.068268426
000380 1e 05 f2 bc 14 c9 0d 3d 68 5e 70 bc 04 d2 3d 3c
       -0.029543456 0.03461559 -0.014670946 0.011585716
000390 6e e0 14 3d 68 eb 52 bc 11 58 8d 3d c4 ba 69 3d
       0.036346845 -0.012873508 0.06901563 0.05706288
0003a0 b5 ed 35 3d 10 1a 8e 3c e2 26 c2 3c f7 84 2b bd
       0.04441615 0.017346412 0.023700181 -0.041874852
0003b0 4a 19 63 bd 67 9d 8e bd 21 ce 3d 3d 00 22 1d 3d
       -0.05544404 -0.06963616 0.046339158 0.038362503
0003c0 29 e2 bc bc a2 f9 2f bd 3d 71 28 bc 3d 9b 44 bd
       -0.02305706 -0.042962678 -0.010280904 -0.04799961
0003d0 45 4b 1a 3d 87 c7 17 3d f9 2f 86 3d 72 45 ed 3b
       0.03766944 0.03705552 0.06552119 0.0072409445
0003e0 43 3b 0f bd e8 11 11 3d a9 a5 88 3d 30 4e 93 bd
       -0.034968626 0.035417467 0.06672222 -0.071926475
0003f0 9c 60 77 bc a2 3c 91 bd cd 7d 1c bd 56 a5 e1 bc
       -0.015098717 -0.07091643 -0.03820591 -0.027544659
