trained/faradaic/checkpoint.pth.tar (torch, 671961 bytes, 58 tensors)

embedding.weight f4 [64, 92]
000000 64 60 fd 3c 56 45 c2 bd 14 c7 c4 3c 32 b9 a3 bd
       0.030929752 -0.09485881 0.02402071 -0.079943076
000010 38 a6 44 3c fc 05 a4 bd 0c d2 9c bd 60 e7 8b 3b
       0.01200252 -0.08008954 -0.07657251 0.0042695254
000020 35 92 84 3d a6 fe 12 bd 75 28 74 3d be 38 d0 bd
       0.06473199 -0.035887383 0.059608895 -0.10167073
000030 f1 2e c4 bd 67 4f 93 3d ee 5c 39 3d 64 21 d2 bd
       -0.09579266 0.07192879 0.04525464 -0.10260275
000040 53 a6 98 bc 02 33 b7 3b e4 fd 8c bd e1 c6 ae 3c
       -0.018633997 0.0055907974 -0.06884363 0.021335067
000050 79 c8 32 3d 5a f9 3c 3d 19 30 b9 bd b3 9e 94 3d
       0.043648217 0.046136238 -0.09042377 0.07256832
000060 28 e4 04 3c 6e 31 32 3d 4d 4e ad bd b2 8a 22 bd
       0.008111037 0.04350417 -0.084622 -0.03968305
000070 b2 14 2d 3d ff 21 b5 3d 8f cd 3e bd db 1c 82 3d
       0.042256065 0.08844375 -0.046582755 0.0635316
000080 e4 bf 99 bd 40 76 17 3d 35 11 8a 3d 4a 07 c8 3d
       -0.07507303 0.036978006 0.06741563 0.09767015
000090 ad af 4a bc 51 8b 4c 3a 0e 80 b9 bc 21 1b 01 bd
       -0.012370986 0.0007802742 -0.022644069 -0.031520013
0000a0 33 36 80 bc ca 8f 3f 3d ae c4 36 3d b2 db 62 3d
       -0.015650844 0.046767987 0.044621162 0.0553853
0000b0 8c d9 07 bd 01 e9 c2 3d ab f7 99 bc c4 dc 82 3c
       -0.033166453 0.09517098 -0.018794855 0.01597441
0000c0 80 ad 03 3a cd 9d f2 bc f2 4e 9c bd 07 a8 96 bb
       0.0005023107 -0.02961626 -0.07632245 -0.004597667
0000d0 5d d7 a3 3d 3d 34 a6 3c 86 66 d0 bd ed 1c 42 3d
       0.08000062 0.020288581 -0.10175805 0.047390867
0000e0 10 73 70 bc 28 02 cd bd 68 a7 47 3c e4 cb 4a bd
       -0.014675871 -0.10010177 0.012185909 -0.04951085
0000f0 cd de c2 3d 9a f6 66 3d 80 c1 68 bc 21 b6 cf bc
       0.09515152 0.05638752 -0.01420629 -0.0253554
000100 8b 44 22 bd 2e 5c b1 3d b0 0f 95 bb cc 1e 87 3c
       -0.03961615 0.0866016 -0.0045489892 0.016494177
000110 00 2a d5 bd 2e 5f 3e 3d af e8 81 bd 6e 6d a8 bd
       -0.104084015 0.04647749 -0.06343209 -0.08223997
000120 ed 7c c9 bd 42 32 80 bc 24 4c 91 bd 0e c4 d9 bc
       -0.09838281 -0.015648965 -0.07094601 -0.026582744
000130 e9 32 c5 3d 3d b8 48 bd b8 b4 07 3a bf 7c 13 bd
       0.09628851 -0.04900383 0.00051767705 -0.03600764
000140 4f 9c 04 3d 7a 4e 08 3d fc 6a d4 3c 83 b8 f2 3a
       0.03237563 0.033277966 0.02592992 0.0018518124
000150 d7 7d b7 bb 01 40 84 3d 4a eb 84 bd 9a bd 27 3d
       -0.005599718 0.0645752 -0.0649019 0.040952303
000160 22 5e 51 3d 04 80 88 bc 0e 2c 13 3d dc 05 d5 bd
       0.051115163 -0.016662605 0.035930686 -0.10401508
000170 f6 99 2d 3d 7a 53 ab bd fa 19 6c 3d a9 2d 88 bd
       0.042383157 -0.08365531 0.05764196 -0.06649334
000180 5e 11 06 bd dd fa 00 3d f7 84 4c bd 40 6e 5e bc
       -0.032731406 0.031489242 -0.049931493 -0.01357609
000190 46 7e b4 bd 07 d2 65 bd d9 71 75 bd c4 0d ca bd
       -0.08813147 -0.0561085 -0.059923027 -0.09865907
0001a0 34 7b c4 3c 96 91 08 3d ad 32 4a bd ae 46 dd 3c
       0.02398453 0.033341967 -0.049364734 0.027011242
0001b0 26 5c 83 3d 43 ec b6 bd 14 0d b2 bd dc d9 c2 bd
       0.0641406 -0.08931782 -0.08693901 -0.0951421
0001c0 5b 82 15 3d 36 93 cb bd 2d 15 89 bd 1d 20 34 bd
       0.03650127 -0.09940188 -0.06693492 -0.043975938
0001d0 d0 7b 8d bd 56 20 06 3d 5d 62 62 bd 15 38 cf 3d
       -0.06908381 0.03274568 -0.055269588 0.10118119
0001e0 56 93 74 bd d2 b0 c7 bd f8 bb df 3b 69 d4 e0 3c
       -0.059710823 -0.09750523 0.0068278275 0.027445035
0001f0 3e 78 77 bd 25 a1 d7 bc c5 5f b5 bd d5 de ca bd
       -0.060417406 -0.026321957 -0.08856157 -0.09905783
000200 2f 41 42 bd a7 4b 32 bd 85 2d 1d 3d 75 e2 c9 bd
       -0.047425445 -0.04352918 0.03837349 -0.098576464
000210 9d a9 90 bd a0 dd 65 3b fd 78 8d 3d 81 96 92 3d
       -0.07063601 0.0035074726 0.06907842 0.071576126
000220 5a fb 16 3d 8a 11 27 bd de 84 c9 b9 49 3f 8e 3d
       0.0368608 -0.04078821 -0.000384367 0.069456644
000230 9a 5e 09 3d bf cb c4 3d 6f 91 01 bc 08 2a 41 3d
       0.033537485 0.09609174 -0.007908209 0.047159225
000240 f6 b8 c8 3d 45 8f 96 3d 6c 77 99 3c bc 2c a4 3d
       0.098009035 0.07351545 0.018733703 0.08016345
000250 b3 32 cf 3d 6b 7b 95 bd a0 82 67 3c be 6f ac bd
       0.10117092 -0.07298931 0.0141302645 -0.08419751
000260 e1 47 a8 3d dd a2 6e 3d bb 38 9c 3d 82 44 cd bd
       0.08216835 0.058260787 0.07628008 -0.100228325
000270 3b 7a c6 3d 97 73 55 3d a2 13 cf bd cd f4 bc 3d
       0.09691282 0.05211219 -0.101111665 0.092263795
000280 67 dc c7 3d d4 88 a4 bc 28 33 8c 3d c6 1c b4 bd
       0.09758835 -0.020084776 0.06845695 -0.087945506
000290 23 c3 8c bd c6 7e 20 3c f9 54 86 3c 08 d5 80 bd
       -0.06873157 0.00979585 0.01639794 -0.062906325
0002a0 31 8e b1 bd d2 76 18 3d a2 4d 25 bd 21 b3 f4 3a
       -0.08669699 0.03722269 -0.04035724 0.0018669107
0002b0 91 6a 4f 3d ee e8 5c 3d d4 50 b2 bd c1 4a 29 bd
       0.05063874 0.053933077 -0.08706823 -0.041331057
0002c0 ad 39 a0 bd 26 98 1e bd fe 6e 83 bd 15 82 25 3c
       -0.07823501 -0.03871932 -0.064176545 0.010101815
0002d0 00 a2 77 3c cc 93 fa bc 16 41 66 3d 43 9d cc bd
       0.015114307 -0.030588053 0.056214415 -0.09990933
0002e0 a0 c9 a4 bd 82 50 cd bd 04 fb bd bc 11 1e ce 3d
       -0.080462694 -0.10025121 -0.023190983 0.100643285
0002f0 e7 4b 90 3d d8 3a a0 bd 7f fd ca 3d ee 25 17 3d
       0.07045727 -0.078237236 0.09911632 0.036901407
000300 9e 57 3b 3d 1c 8a 25 bd ac f5 c4 3d 14 9f 95 3c
       0.045737855 -0.040414914 0.09617171 0.01826433
000310 2c 21 e9 bc 25 d8 68 bd 74 fd c1 3d 6b 47 87 3c
       -0.0284582 -0.056846756 0.094721705 0.016513547
000320 f5 99 6b bd 01 d2 9a bd bd 20 98 bd 7e b8 86 bd
       -0.05751987 -0.07559586 -0.07428119 -0.06578158
000330 b2 20 b3 bd ce c9 30 3c 13 12 80 bd 4c 2b 8a bd
       -0.087464705 0.0107903015 -0.062534474 -0.067465395
000340 56 08 11 bd b4 b4 82 bd d6 78 28 bd 41 3c cd bd
       -0.03540834 -0.06382123 -0.041130863 -0.10021258
000350 fa 23 4f bd 73 01 1f bd 3a 93 17 bc 38 70 4e 3c
       -0.05057142 -0.03881974 -0.00925141 0.012599997
000360 e2 ac 01 3d 05 aa cb ba 9f bc 02 bd dd a8 cc bd
       0.031659015 -0.0015538341 -0.031918164 -0.099931456
000370 10 70 4a 3d 4b 41 0f bd 71 00 62 3d 81 db 9f 3d
       0.049423277 -0.034974378 0.055176202 0.07805539
000380 6f f5 65 bd e4 e7 c1 bd c7 0f 7b bd 41 c2 c9 3d
       -0.056142267 -0.09468058 -0.061294343 0.09851504
000390 f2 63 33 3d 22 70 15 3d fe 5b 93 3d 98 5e c8 bc
       0.043796487 0.03648389 0.071952805 -0.024459168
0003a0 44 e0 f5 bc 8c 1a b2 3d 8d d4 70 bb fd 43 c3 bd
       -0.030014165 0.0869647 -0.0036747784 -0.09534452
0003b0 b5 60 41 bd 41 e7 4a 3c 92 52 c2 3d 90 04 af 3d
       -0.047211368 0.012384237 0.09488405 0.08545792
0003c0 d0 98 c0 3b aa 80 03 bd 4c 6d 88 bd a8 74 87 3c
       0.0058775917 -0.032105125 -0.06661472 0.016535118
0003d0 ac 3e 82 bd f8 8a da bc e0 d5 81 bd 95 1e 67 bc
       -0.0635961 -0.026677594 -0.063396215 -0.014106412
0003e0 0b ca 46 3d 7b 75 a6 3d 06 19 77 3d 90 99 18 bd
       0.048532527 0.08127876 0.0603266 -0.037255824
0003f0 e3 80 88 3d fb 29 a0 3d be 11 e0 bc ee fa 0b 3d
       0.06665208 0.07820507 -0.02735221 0.034174852

embedding.bias f4 [64]
000000 8d 53 d3 bd a6 a2 78 bd 2f 71 e9 bc c4 df 97 3d
       -0.103186704 -0.06070199 -0.028496353 0.07415727
000010 0b 8b 9d 3d 11 be c2 3d 7e 31 74 3d 7f 0f 44 3d
       0.07692536 0.095089085 0.059617512 0.04786634
000020 15 09 fc bb 9d f6 bf bd 66 b2 8b 3d c1 fc 0b bd
       -0.0076915123 -0.093732096 0.06821136 -0.03417659
000030 cb ca 85 3d 05 08 ee 3c 81 f7 e8 3c 91 a7 56 bd
       0.0653282 0.029056558 0.028438332 -0.052405898
000040 ae 35 8e bd 8a 04 cf 3d 23 77 82 bb d8 c5 b4 3d
       -0.06943832 0.10108288 -0.0039814874 0.08826798
000050 36 1f 40 3d af a2 b7 3d fb 18 a2 bd 09 54 cf bd
       0.046904765 0.08966576 -0.07914921 -0.1012345
000060 d1 6f bf bc 3c 49 16 bc 40 3a e8 bc 6d fe ab bd
       -0.023368748 -0.009172734 -0.028348088 -0.08398137
000070 9a ae 7d bd 9e b3 62 3d 8f 58 2e 3d 6b 2e aa bd
       -0.06193409 0.055347078 0.042564925 -0.08309635
000080 5d 5a 09 3d e5 74 01 3d af 67 9e 3d 7d b5 bc bd
       0.033533443 0.03160562 0.0773462 -0.09214304
000090 69 4c 6a 3d ab 16 20 3d 67 2f a3 bd 99 46 dd bc
       0.057201777 0.039084118 -0.07968026 -0.027011203
0000a0 a2 55 cd 3d 3b e0 e4 bc 88 c8 02 bd f4 d5 13 3c
       0.10026099 -0.027938953 -0.031929523 0.009023178
0000b0 22 98 aa bd 91 75 04 bd 97 f7 be 3d 87 b8 74 3c
       -0.08329798 -0.032338683 0.09324568 0.014936573
0000c0 03 28 80 bd be f0 34 bc 18 75 95 bd d0 ae 97 3d
       -0.06257632 -0.011043726 -0.072977245 0.0740639
0000d0 e8 8b 4d 3c a0 bf 88 3d 99 57 1e 3c 7d 27 8b bd
       0.012545563 0.066771746 0.00966444 -0.06794641
0000e0 c5 eb d0 3d 73 92 93 bd 64 ee 83 3c 6f 0d 7f 3b
       0.102012195 -0.07205667 0.016104884 0.003891792
0000f0 e4 9c ce 3c e9 dd 7a bd 1c 3d 2c 3d ea c2 b5 bd
       0.025221296 -0.061246786 0.042050466 -0.088750675

convs.0.fc_full.weight f4 [128, 169]
000000 64 a9 ca 3c aa 51 1d 3d 6f 33 94 3c cb de a1 bc
       0.024738975 0.03840796 0.018090932 -0.019759556
000010 18 16 23 3c 3b 06 31 3d 19 40 6b bc e4 27 f9 bc
       0.009953998 0.043218832 -0.014358544 -0.03041453
000020 14 e8 88 3d 2e 67 86 3d 8a 69 ea 3c 29 95 04 bd
       0.066848904 0.06562649 0.028614778 -0.032368813
000030 bb 7c 98 bd 3e 3e c6 3c e3 2f 7a bd a3 ad 5a bc
       -0.074456654 0.024199601 -0.061080825 -0.013347062
000040 6e 5e 11 bd 35 e7 aa 3c e5 6c 67 3d 16 87 e8 3c
       -0.035490446 0.020862201 0.056500334 0.028384726
000050 c0 ad 8c bd 8f 49 4c 3d 00 4a 62 3d 6e c5 c5 3c
       -0.06869078 0.04987484 0.055246353 0.024141993
000060 ff c9 92 bd 82 6f 73 bd 60 7f 6f 3c 2e 71 81 3d
       -0.07167434 -0.059432514 0.014617771 0.063204154
000070 f3 ff 21 3d c3 06 0f 3d 11 89 90 3d fc 6c 29 bd
       0.039550733 0.034918558 0.07057393 -0.0413637
000080 8b 98 48 bd 2f 84 0e 3d 5b 78 46 3d 06 1d 38 bd
       -0.0489736 0.03479403 0.048454624 -0.044949554
000090 16 0f 52 3d d9 ea 75 3d 54 b8 da bc 22 6b 00 3d
       0.05128392 0.06003842 -0.026699223 0.03135217
0000a0 25 74 33 3d 63 93 42 bd 49 e5 8d bd 91 f6 08 bd
       0.043811936 -0.04750384 -0.06928498 -0.03343827
0000b0 4d 8e 1e 3d f3 ce 0d 3d 56 38 5f 3c a3 4e 71 bc
       0.038709927 0.03462119 0.013624271 -0.014728221
0000c0 49 fc 4d 3d f8 1d 73 bc 9f bc 98 bd c5 f6 d9 bc
       0.050289426 -0.014838688 -0.074578516 -0.026606927
0000d0 ed 16 57 3d 6d 08 08 3b a6 8f 89 3d a2 06 33 bc
       0.052512098 0.0020756975 0.06716852 -0.010926874
0000e0 45 b6 17 bd 52 00 6a 3d 79 57 86 bd 8c ca 82 3d
       -0.03703906 0.05712921 -0.06559653 0.06386289
0000f0 0c 40 c4 bc 48 3e 91 3d c2 f3 52 3d 8b 91 2e 3d
       -0.023956321 0.07091957 0.051501997 0.04261927
000100 87 c5 da 3c 3e 97 c9 bc a3 68 12 3d 0d b2 c2 3b
       0.026705517 -0.02460825 0.03574432 0.0059416355
000110 3c c6 57 bd 03 dc 43 bd ec 36 5d bc 30 69 9b 3b
       -0.052679285 -0.04781724 -0.013501864 0.004742764
000120 e9 c1 67 3b 2d d4 9e 3d 91 0e b2 3b f1 71 cc 3c
       0.0035363382 0.07755313 0.0054338654 0.024956675
000130 41 e8 94 bd e3 d8 e0 bc f3 b0 b6 bb a0 3a 0c 3d
       -0.072708614 -0.02744717 -0.005575293 0.034235597
000140 09 58 51 3d 09 88 b9 bb c1 bb bc bc 07 a0 b3 3a
       0.051109347 -0.0056619686 -0.023038747 0.0013704308
000150 c8 89 9b 3d bc fe fd bc 35 f2 67 3d 9e 0c ff bb
       0.07594639 -0.031005256 0.05662747 -0.0077834865
000160 93 01 85 bc 9d ce 54 3d df ce f7 bc 17 a6 54 bd
       -0.016236102 0.051954854 -0.030250011 -0.051916208
000170 2c 40 8e 3d 13 d4 80 bd ae f4 91 3d ca 82 1b bd
       0.069458336 -0.0629045 0.07126747 -0.037966527
000180 47 16 2e bd 37 20 40 3d 42 4e 41 3d fb 41 11 ba
       -0.042501714 0.046905722 0.047193773 -0.0005541143
000190 0e 6b 35 3c 3b 5a 9d 3d 92 8f 51 bd cb 43 81 3d
       0.011072887 0.07683226 -0.05116231 0.063117586
0001a0 32 b7 18 bd da a7 89 bd ba 21 9b 3d c9 f4 91 bd
       -0.037284084 -0.06721468 0.07574792 -0.07126767
0001b0 00 5b 8a 3d 15 e2 23 bd 46 d7 65 bd 68 5a 0c bd
       0.06755638 -0.04001053 -0.056113504 -0.034265906
0001c0 63 6f 3e bb a4 9e 95 bc 1c dc 91 3c 30 51 02 3d
       -0.002905809 -0.018264122 0.017805152 0.031815708
0001d0 b4 5b 97 3d 24 98 81 3d 67 fe 32 3d 0d ff 51 3d
       0.07390538 0.06327847 0.04369965 0.051268626
0001e0 2d f4 74 bd 61 71 4a 3c e2 99 59 3d 10 cf 36 bd
       -0.059803177 0.012356133 0.05312527 -0.044631064
0001f0 d8 10 1b 3d 76 05 16 bd 4a ac 3f bd c1 8e 8e bb
       0.03785786 -0.0366263 -0.046795167 -0.0043505137
000200 e5 4c 83 3d 5d c4 b0 bc 9b 7a cd bc 62 03 96 bb
       0.06411151 -0.021578008 -0.025082877 -0.00457804
000210 51 34 ba 3b b0 bd 85 bd 19 9d fc 3b fd b0 12 bc
       0.005682506 -0.06530321 0.007709157 -0.00895333
000220 e5 9c 47 bc 67 b3 54 3c 5d 30 d8 3c 1f 26 da 3c
       -0.012183403 0.012982226 0.026390249 0.026629506
000230 6d 94 92 3c 8d 7a 58 bc 4f 8e 03 bb 61 c9 73 3b
       0.01789304 -0.013212812 -0.0020073836 0.0037198889
000240 f0 d0 df bc 50 ca 1a 3d 45 01 f1 3b e0 74 02 bd
       -0.027321309 0.037790596 0.0073548877 -0.031849742
000250 b4 25 1a 3c 3d 1e 2b 3d 99 5f 07 3d 7b 9a 87 3d
       0.009408403 0.041776884 0.033050153 0.06621262
000260 7c 15 27 3d 72 a7 6c 3d 3b 0c 99 bd 76 9d 07 3d
       0.040791973 0.057776876 -0.07473036 0.03310915
000270 ee ff 4f 3d ca 1f d2 bc 36 5a 62 3d f2 93 f4 bc
       0.050781183 -0.025649924 0.055261813 -0.029855702
000280 86 85 5c bd 18 f2 a7 3c b0 24 dd bb e2 6b be bc
       -0.053838275 0.020501181 -0.0067487583 -0.023244802
000290 97 f2 27 bd 19 0e 13 bd 36 08 b2 bc a8 bf 26 3c
       -0.041002836 -0.035902116 -0.02173243 0.01017753
0002a0 59 91 42 bd eb e1 13 bd 3f 5b a2 bc f6 cc 81 bd
       -0.047501896 -0.036104124 -0.0198189 -0.06337921
0002b0 f9 b8 e8 bc 57 e2 65 3d 89 d6 97 bd e4 a2 9b b9
       -0.028408514 0.056124058 -0.07413966 -0.00029685267
0002c0 9d ae 13 3d 6d 66 79 3d a8 95 46 bd 6d e6 82 bd
       0.036055196 0.060888696 -0.048482567 -0.063916065
0002d0 af a5 19 bd e2 54 91 3d 0e de 32 3c 0c 14 86 bd
       -0.037511524 0.07096268 0.0109172 -0.065467924
0002e0 2d 45 0e 3d 2d 60 48 bd b7 85 54 bd 08 b0 41 3d
       0.03473394 -0.048919845 -0.051885333 0.047287017
0002f0 aa 31 b7 bc 19 3b 2d bd 24 70 17 bd 39 9a 3b bc
       -0.022362549 -0.042292688 -0.03697218 -0.011450344
000300 b5 ad 43 3d 9d d2 83 3d ee 07 59 bd 10 6a 1a bc
       0.04777308 0.06436656 -0.052986078 -0.009424701
000310 6a 94 84 bd 98 a0 77 3d 70 6b 5f bd 9e fd ab 3c
       -0.0647362 0.06045589 -0.05454582 0.020994958
000320 24 c2 ea 3c 9f 73 98 bd 85 e5 99 bd 21 e8 ae bc
       0.028657027 -0.07443928 -0.075144805 -0.021350922
000330 c8 a5 a8 bc 8a c8 85 3d 8a 05 ab bc e6 0a 70 bc
       -0.020586863 0.065323904 -0.020876665 -0.014651036
000340 ec 78 8d bc 43 02 5c 3c 0d 61 48 bd d6 9c d2 3a
       -0.017269574 0.013428274 -0.04892068 0.0016068469
000350 e9 77 86 3d fc fd e0 3b 18 8a 9a 3c 30 c5 39 3d
       0.0656584 0.006866215 0.018864676 0.04535407
000360 cc 5e d7 bb d3 2f 79 bd 98 26 87 bd 83 10 48 3c
       -0.00657258 -0.060836624 -0.06599158 0.012210968
000370 2b 2b 56 ba 48 89 93 3c b5 c7 5c 3d 07 92 a5 3c
       -0.00081698847 0.018009797 0.053901393 0.020211233
000380 ae cf 8e bd ed 20 52 bd c4 8b 54 3d ee 94 c8 bc
       -0.069732055 -0.05130093 0.051891103 -0.024485078
000390 d5 fc 37 bd a6 1a 0a 3d 4a 83 07 3c 19 cf 18 3c
       -0.044918854 0.03371682 0.008271048 0.00932672
0003a0 71 b7 f0 3c b8 f3 15 bc 43 ec 31 3d 2d 14 91 bd
       0.029384347 -0.009152345 0.043438207 -0.07083926
0003b0 e4 a3 9b bd 36 0c 6e bd 10 73 86 bd e7 93 8d bd
       -0.07599619 -0.058117114 -0.06564915 -0.06912976
0003c0 d0 74 cc bc af 56 7f bd cc da b9 3c cc 10 8c 3d
       -0.024958044 -0.062338527 0.022687338 0.06839141
0003d0 80 23 f4 3c 69 ba c6 3b a0 80 b4 38 99 73 72 3d
       0.029802084 0.0060647023 8.607027e-05 0.059192274
0003e0 34 00 94 3d 83 4a 69 3d 08 b7 7e 3d 64 88 75 bd
       0.07226601 0.056955826 0.06218627 -0.059944525
0003f0 d8 ed f2 3c 4e ed 4f 3d b1 60 95 3d a4 7a 4e bd
       0.029654428 0.05076342 0.07293833 -0.050409928

convs.0.fc_full.bias f4 [128]
000000 ac dd fa bc 62 94 5f 3d 18 51 8f 3c 15 76 75 bb
       -0.03062328 0.05458487 0.017494723 -0.0037454416
000010 3c 7f fa bc 46 7d ef bc 10 ed 20 3d 36 76 6f 3d
       -0.030578248 -0.02923454 0.03928858 0.058462344
000020 f2 15 74 3d 80 a1 a6 bc 28 13 6b 3c 30 3f 8f 3c
       0.05959124 -0.020340681 0.014347829 0.017486185
000030 1c 67 5d bd bb db 65 b9 18 7c 0b 3d c6 a3 77 bd
       -0.05405341 -0.00021920998 0.034053892 -0.06045892
000040 4a 61 e6 bc 27 66 98 bd 49 30 8c bd 13 a6 91 3d
       -0.028122563 -0.07441359 -0.06845147 0.07111754
000050 f0 5d 30 3c 4d 44 24 bd d5 e5 20 bc 16 82 71 bd
       0.010764584 -0.0401042 -0.009820421 -0.05896195
000060 ec 4f 8c 3c 9a f8 48 3d 9d fa 90 3d 48 00 22 bd
       0.017127953 0.04906521 0.07079051 -0.03955105
000070 94 6f 9b bd 2c 31 f1 3c af ba 36 bd 80 b9 5a bd
       -0.07589641 0.029442392 -0.04461163 -0.053399563
000080 46 4c df bc e2 7a 8b bc f6 1f 81 3a 54 a3 e8 3c
       -0.02725805 -0.017026369 0.0009851444 0.028398193
000090 88 f0 31 bd 4b b3 41 bb bc 83 c7 bc 24 5b f0 bc
       -0.04344228 -0.002955633 -0.024354808 -0.029340334
0000a0 b9 5f 9a 3d 65 d9 25 bd f0 92 e8 3c 28 64 a5 bc
       0.07537789 -0.040490527 0.028390378 -0.02018936
0000b0 86 5c 09 3d 59 77 93 bd 52 31 1d bd 40 d5 8e bc
       0.033535503 -0.07200498 -0.038377114 -0.01743567
0000c0 a2 4f 88 bd 2e 0c 6c 3d fc 40 44 bc ba 0e 27 3d
       -0.06655814 0.057628803 -0.011978384 0.04078553
0000d0 b8 53 35 3c 40 15 a7 3c 28 52 e5 bc ec a0 32 3d
       0.011067323 0.020395875 -0.027993277 0.0436105
0000e0 b2 26 5b 3d 50 b0 63 3c 4d 00 81 3d c3 f2 7c ba
       0.0535037 0.013897017 0.062988855 -0.00096492114
0000f0 0c 51 a1 3c 00 0f 15 3d 16 09 0d bd 68 74 d0 bc
       0.019691966 0.03639126 -0.034432493 -0.025446132
000100 9e eb c3 bc d4 6f 2d bd 85 28 20 bd ea 2e ee bc
       -0.023916062 -0.042342976 -0.039101142 -0.029075105
000110 14 0d c8 bc 0e c6 6d 3d f7 36 1d bd 32 70 96 bd
       -0.024420299 0.058050208 -0.038382497 -0.07345618
000120 68 90 1e bd 3a 2a 90 bd 42 56 5d 3d 40 e0 ae 3c
       -0.038711935 -0.07039304 0.05403734 0.021347165
000130 58 11 96 bd 0a 0c 91 bc e0 44 58 3c f6 ac 28 3d
       -0.07327527 -0.017705936 0.013200015 0.041180573
000140 a8 37 57 bd c8 db 59 bd 6b 08 87 3d 92 52 2f 3d
       -0.052543312 -0.053188115 0.065934025 0.042803355
000150 39 bd 65 bd 82 b6 73 3d c0 61 fd 3b 44 1e e8 3c
       -0.05608866 0.059500225 0.0077326 0.028334744
000160 a6 4b 0d 3d 16 65 58 bd 68 0e 27 bd f0 e8 44 3d
       0.034495972 -0.052830778 -0.040785223 0.04807371
000170 7e 83 30 3d 50 48 6c 3c 40 2a 0f 3d fe 5a 96 bd
       0.04309415 0.0144215375 0.034952402 -0.07341574
000180 6c 5f d3 3c d9 2e 39 bd 48 14 25 bd ee 95 52 3d
       0.025802337 -0.045210693 -0.040302545 0.051412515
000190 e1 f4 8b 3d f6 65 95 bd d0 a4 44 3c 54 1e 61 bd
       0.06833816 -0.07294838 0.012002185 -0.054960564
0001a0 fc 4b fd 3c 88 86 91 bd 18 77 eb bb f2 ed 39 3d
       0.030920021 -0.07105738 -0.007185828 0.045392938
0001b0 3e 66 80 bd ea 2c 88 bd 64 d0 77 bc 09 b0 8e bd
       -0.06269501 -0.06649192 -0.015125368 -0.0696717
0001c0 f4 56 05 3d 15 fb d7 3b d0 4e 4d bd 46 62 c2 bc
       0.032553628 0.0065912106 -0.05012399 -0.023728501
0001d0 5d 16 97 3d b4 90 05 3d 67 26 96 bd 6a 69 df 3b
       0.07377312 0.032608703 -0.073315434 0.0068179863
0001e0 f7 a4 1f bd 87 2d 8c 3d 8d 6d 25 3c 36 f5 54 bd
       -0.038975682 0.06844621 0.01009692 -0.051991664
0001f0 56 6e 42 3d cd f6 54 bd f5 49 8b bd d6 8b 16 3d
       0.047468506 -0.05199318 -0.068012156 0.03675445

convs.0.bn1.weight f4 [128]
000000 03 f2 7f 3f 3f 05 80 3f 6a f7 7f 3f 7e e5 7f 3f
       0.99978656 1.0001601 0.999869 0.9995955
000010 f0 0a 80 3f a1 f5 7f 3f e0 ff 7f 3f ca 03 80 3f
       1.0003338 0.99984175 0.9999981 1.0001156
000020 6b fe 7f 3f 56 ec 7f 3f 36 f7 7f 3f d4 0a 80 3f
       0.99997586 0.99969995 0.9998659 1.0003304
000030 05 00 80 3f 1c ff 7f 3f 05 ff 7f 3f fc f2 7f 3f
       1.0000006 0.9999864 0.99998504 0.9998014
000040 db 01 80 3f 28 fb 7f 3f 94 f5 7f 3f 3e 09 80 3f
       1.0000566 0.9999261 0.999841 1.000282
000050 8d 00 80 3f 74 04 80 3f e6 09 80 3f 42 03 80 3f
       1.0000168 1.0001359 1.0003021 1.0000994
000060 c2 f5 7f 3f 7b fa 7f 3f 75 ff 7f 3f 3e 03 80 3f
       0.9998437 0.9999158 0.9999917 1.000099
000070 b6 01 80 3f f1 f1 7f 3f c2 01 80 3f d8 f7 7f 3f
       1.0000522 0.9997855 1.0000536 0.99987555
000080 61 03 80 3f 15 01 80 3f 52 f5 7f 3f ea fd 7f 3f
       1.0001031 1.000033 0.99983704 0.9999682
000090 04 05 80 3f c3 f2 7f 3f 3e 07 80 3f 73 e2 7f 3f
       1.0001531 0.999798 1.000221 0.9995491
0000a0 9b 01 80 3f 44 fd 7f 3f de ff 7f 3f 5c 02 80 3f
       1.000049 0.9999583 0.999998 1.000072
0000b0 c8 01 80 3f 27 00 80 3f a6 fc 7f 3f ff fe 7f 3f
       1.0000544 1.0000046 0.99994886 0.9999847
0000c0 0b f9 7f 3f f6 fa 7f 3f a6 e8 7f 3f 03 f9 7f 3f
       0.99989384 0.9999231 0.9996437 0.99989337
0000d0 cb 00 80 3f 62 fd 7f 3f 11 fe 7f 3f 3b fd 7f 3f
       1.0000242 0.99996006 0.9999705 0.99995774
0000e0 ca ff 7f 3f 8f 02 80 3f 68 fa 7f 3f 1c 06 80 3f
       0.9999968 1.0000781 0.99991465 1.0001864
0000f0 fd fd 7f 3f b5 e5 7f 3f fd 0a 80 3f af 0a 80 3f
       0.9999693 0.9995988 1.0003353 1.000326
000100 d8 02 80 3f 42 f6 7f 3f 3e 02 80 3f af 07 80 3f
       1.0000868 0.99985135 1.0000684 1.0002345
000110 b1 fa 7f 3f 72 00 80 3f 08 02 80 3f f2 fb 7f 3f
       0.999919 1.0000136 1.000062 0.99993813
000120 7d 00 80 3f 12 0c 80 3f 1b 03 80 3f 04 ec 7f 3f
       1.0000149 1.0003684 1.0000948 0.99969506
000130 77 fe 7f 3f 00 fe 7f 3f b9 f8 7f 3f 39 05 80 3f
       0.9999766 0.9999695 0.99988896 1.0001594
000140 4d fb 7f 3f 67 06 80 3f 70 03 80 3f c4 eb 7f 3f
       0.9999283 1.0001954 1.0001049 0.99969125
000150 46 02 80 3f ec f7 7f 3f 86 e9 7f 3f 17 fd 7f 3f
       1.0000694 0.99987674 0.99965703 0.9999556
000160 4c 00 80 3f ed fe 7f 3f 80 05 80 3f 33 fc 7f 3f
       1.0000091 0.9999836 1.0001678 0.999942
000170 22 fa 7f 3f 54 0d 80 3f e5 fc 7f 3f 6f 05 80 3f
       0.9999105 1.0004067 0.9999526 1.0001658
000180 9f fc 7f 3f f9 f8 7f 3f ad 07 80 3f 17 fd 7f 3f
       0.99994844 0.9998928 1.0002342 0.9999556
000190 04 fb 7f 3f bf 00 80 3f de e7 7f 3f 7e 0a 80 3f
       0.99992394 1.0000228 0.99963176 1.0003202
0001a0 9f fc 7f 3f 91 ff 7f 3f da f6 7f 3f ee fe 7f 3f
       0.99994844 0.9999934 0.9998604 0.99998367
0001b0 65 f6 7f 3f b2 04 80 3f 54 fd 7f 3f 3c fb 7f 3f
       0.99985343 1.0001433 0.99995923 0.9999273
0001c0 4f 06 80 3f 3e 02 80 3f fb 05 80 3f a4 01 80 3f
       1.0001925 1.0000684 1.0001825 1.0000501
0001d0 b0 ff 7f 3f 55 00 80 3f be ea 7f 3f 46 06 80 3f
       0.99999523 1.0000101 0.99967563 1.0001915
0001e0 db f8 7f 3f e5 f8 7f 3f e1 fc 7f 3f 76 ea 7f 3f
       0.999891 0.9998916 0.9999524 0.99967134
0001f0 3c fa 7f 3f 74 09 80 3f 9b ec 7f 3f 11 e2 7f 3f
       0.999912 1.0002885 0.99970406 0.99954325

convs.0.bn1.bias f4 [128]
000000 e8 65 cf 38 06 40 d5 b8 dc e8 e3 38 9d a5 0a 39
       9.889511e-05 -0.00010168557 0.00010867577 0.00013222401
000010 74 34 a2 b9 68 18 03 38 76 9e 2f b7 6a 17 1c 38
       -0.00030938128 3.1255564e-05 -1.0467707e-05 3.7215104e-05
000020 4d 59 99 37 df 08 fb 38 20 bf b9 38 e5 1b 39 b9
       1.8280605e-05 0.00011970265 8.857087e-05 -0.00017653366
000030 e2 47 47 b8 b5 79 66 37 4f 05 48 38 40 75 ed b6
       -4.7512243e-05 1.3737405e-05 4.768866e-05 -7.0768e-06
000040 53 7e 23 b8 80 a7 0a 37 d6 2b 8b 38 da 35 2d b9
       -3.8979877e-05 8.26444e-06 6.6362016e-05 -0.00016518627
000050 d2 0c 93 38 81 ce 29 b9 38 e4 dc b7 69 2e 08 39
       7.011894e-05 -0.00016194025 -2.6332316e-05 0.0001298726
000060 96 d6 02 39 51 2b 52 39 66 98 ba 38 5b 1e 0d b7
       0.00012477706 0.00020043297 8.8975576e-05 -8.411323e-06
000070 10 82 df b7 f6 21 d3 39 80 8d 5f b8 59 ae aa 38
       -2.6644237e-05 0.0004027036 -5.3299125e-05 8.1387065e-05
000080 a5 e7 3a b8 ad 52 9a b8 c5 12 12 39 5f 01 40 37
       -4.456159e-05 -7.358692e-05 0.00013930637 1.1444411e-05
000090 57 1b 19 b9 d4 c3 0e 39 b4 5d 31 b9 bc 67 2e 39
       -0.00014601402 0.00013615127 -0.00016914943 0.00016632577
0000a0 63 ae ad 38 c0 73 f0 37 d9 d5 5e 38 42 eb 8c b8
       8.281765e-05 2.866413e-05 5.3128086e-05 -6.7195404e-05
0000b0 04 3e 62 b8 7e 57 4f 38 3f 29 b5 38 b2 c7 02 b8
       -5.3940355e-05 4.943413e-05 8.638435e-05 -3.1180396e-05
0000c0 d2 df 90 38 35 68 5b 38 1c b5 45 39 6a c4 5a 38
       6.908145e-05 5.231072e-05 0.00018854853 5.2158175e-05
0000d0 2c ed eb b8 e7 7a 32 38 c0 6b 9d b8 19 f2 15 38
       -0.0001124985 4.255297e-05 -7.5064134e-05 3.574984e-05
0000e0 15 af c0 36 83 d3 99 b8 6e ad 5e 38 de 25 b0 b8
       5.742428e-06 -7.335006e-05 5.3090444e-05 -8.399387e-05
0000f0 00 ad a2 b7 07 58 4d 39 4b 7b fa b8 50 02 bd b9
       -1.9392464e-05 0.00019583116 -0.00011943894 -0.00036050612
000100 01 06 03 b8 85 77 83 38 20 e2 94 b7 e0 1b 7e b8
       -3.1238425e-05 6.268829e-05 -1.7748273e-05 -6.058428e-05
000110 af 8a 05 b8 68 80 88 37 48 e8 97 b7 3c 52 f4 37
       -3.183883e-05 1.6272257e-05 -1.8108767e-05 2.912536e-05
000120 6e f1 ed 35 82 e0 ec b8 90 2f e0 33 6f da d2 38
       1.7728141e-06 -0.00011295175 1.04394644e-07 0.00010054267
000130 15 cf 78 b7 3c 75 42 37 18 7d 18 37 ed 83 46 b8
       -1.4830167e-05 1.1590597e-05 9.089032e-06 -4.7329744e-05
000140 a7 c4 51 37 e3 89 1c b8 3c 79 26 b8 4f fe 97 38
       1.2503157e-05 -3.7321715e-05 -3.9690392e-05 7.24761e-05
000150 f2 41 65 b8 00 9e 11 38 29 67 b9 38 d8 3c 66 b7
       -5.465927e-05 3.4717843e-05 8.8407025e-05 -1.3723235e-05
000160 9f 0e c8 37 0d 89 58 37 6e a5 5b b8 94 ef 0a 38
       2.3848666e-05 1.2906513e-05 -5.2367737e-05 3.312489e-05
000170 7a 1a 2e 38 e8 8e 38 b9 40 07 01 37 88 f1 65 b8
       4.150949e-05 -0.00017600844 7.690687e-06 -5.4822798e-05
000180 16 cd a0 37 07 59 1a 38 9c 84 f4 b8 37 f6 1a 38
       1.9168987e-05 3.6799374e-05 -0.00011659527 3.6945767e-05
000190 d7 2c b0 37 a3 b4 fc b5 c0 4a 5e 39 dd d4 c4 b8
       2.1001715e-05 -1.8828035e-06 0.00021199416 -9.385657e-05
0001a0 84 88 1d 36 d1 b6 ad 36 3d 11 80 38 44 54 3a 37
       2.3474286e-06 5.1770844e-06 6.1067265e-05 1.1106084e-05
0001b0 95 a9 bc 37 63 28 ec b8 4a 08 2a 38 cd 09 31 38
       2.2490314e-05 -0.000112608795 4.053888e-05 4.2209216e-05
0001c0 c6 95 8a b8 73 55 24 b8 e0 5b 7e b8 b3 fd 69 b7
       -6.60825e-05 -3.9180228e-05 -6.0643884e-05 -1.3946951e-05
0001d0 42 8e 2e b8 a4 8a 60 b7 90 ed 01 39 61 05 c4 b8
       -4.161732e-05 -1.338372e-05 0.00012390898 -9.34701e-05
0001e0 2a 71 1a 38 ce 0d fb 37 3e d6 f8 36 1d 7b 02 39
       3.6821853e-05 2.992796e-05 7.415917e-06 0.0001244363
0001f0 cf f4 05 38 68 89 78 b8 03 2b f6 37 ab 9a 10 39
       3.1937667e-05 -5.9255777e-05 2.9345514e-05 0.00013790528

convs.0.bn1.running_mean f4 [128]
000000 53 86 5e bd 6c ac ff 3d 8a 0f 1e 3d fe ce 4c be
       -0.05432732 0.12484059 0.038589038 -0.20000836
000010 00 a1 f5 3c 61 b2 ce bd 0a 8f 4c 3d 5d 41 8a bd
       0.029983997 -0.10092617 0.0499411 -0.06750748
000020 78 f8 08 3d 56 f6 37 bd a4 ae 84 3d 58 79 7b bd
       0.033440083 -0.04491266 0.064786226 -0.06139502
000030 5d d0 e3 bc b6 15 18 be 1c 1e 56 3d 38 38 1b 3e
       -0.027809316 -0.14852032 0.05227481 0.15158165
000040 83 df 2b be d5 0e 0a 3d 7c 99 17 bd 31 62 bf 3d
       -0.16784482 0.03370555 -0.03701161 0.093449004
000050 a0 5b 0a 3e d1 d4 fc 3d 82 d6 96 3d dc 1c 11 bd
       0.13511515 0.12345279 0.07365133 -0.035427913
000060 2f 57 95 bd 04 37 4d bc fb 2e 35 bd 1f 75 0c 3d
       -0.072920196 -0.012525324 -0.044234257 0.034291383
000070 99 cd 33 be a8 a9 8c bd c3 f4 38 bb 5a c4 ea bb
       -0.17558898 -0.06868297 -0.0028222061 -0.00716452
000080 9e e0 10 3e 18 8e cd 3d 1f 02 dc 3b fe ed 08 3e
       0.14148185 0.10036868 0.00671412 0.13372037
000090 bb 11 89 bd 14 b2 1c 3b c6 33 b4 bd 06 19 96 3c
       -0.06692835 0.0023909854 -0.087989375 0.018322479
0000a0 e0 02 4e 3e 7c 12 93 bc 28 e7 49 bd ca 84 74 3d
       0.20118284 -0.01795315 -0.049292713 0.05969695
0000b0 94 3c 33 3d c1 3f b2 bd 81 10 38 bd cc 52 86 3d
       0.043758944 -0.08703566 -0.044937614 0.06558761
0000c0 6a 79 1e 3c c0 de 86 bd 6d 40 fc 3d b1 be 86 3c
       0.009672502 -0.06585455 0.12316976 0.01644835
0000d0 69 94 8d 3d ef 0b 22 bc cd 0a af 3c f5 f3 aa 3d
       0.069130726 -0.0098905405 0.021367455 0.08347312
0000e0 bc e7 65 3d ac 3f a6 3d 6e 0c 85 3d 2f 21 aa bd
       0.056129202 0.08117613 0.064965114 -0.083071105
0000f0 42 bc 1c 3e 1a 51 ce 3c fa d9 04 be 6a d7 5e bd
       0.1530619 0.025185157 -0.12973776 -0.054404654
000100 1d 36 88 3d d5 03 51 bd 73 75 3f bd 9e 1e 08 3d
       0.06650946 -0.051029045 -0.046742868 0.033232324
000110 70 b3 ad bc 45 26 f4 3c b8 79 d8 3c 04 d7 5f bd
       -0.021203727 0.029803405 0.026425228 -0.054648414
000120 59 83 96 bb 87 06 75 bd 65 b8 5f bd 8a a3 de 3d
       -0.0045932946 -0.059820678 -0.05461921 0.10871036
000130 28 e6 44 3c f4 69 84 3d aa 1c 84 3d 0e 91 6d 3b
       0.012017764 0.064655215 0.0645078 0.003624979
000140 96 18 15 be ca 9f 0e be 0c b3 2d 3e 5f ab 7b bc
       -0.1456016 -0.13928142 0.16962832 -0.015360682
000150 07 bb 1a be f4 d7 55 3e 86 c7 97 bd 8a 5c cb 37
       -0.15110408 0.20883161 -0.07411103 2.4242578e-05
000160 4e 8f 01 bd 22 e4 46 bd fc f0 48 3c 48 0a 9a bc
       -0.031630807 -0.04855741 0.012264486 -0.01880373
000170 76 51 89 3d df 9f 5a 3d ff e5 df bc cf ec 17 be
       0.067049906 0.05337512 -0.02733135 -0.14836429
000180 df 37 10 3e f7 55 81 3d 02 76 82 bc 46 11 c0 3c
       0.14083813 0.063152246 -0.015925411 0.023445737
000190 5e 90 6f 3d 50 69 d5 bd 10 96 89 bd a9 54 b2 bd
       0.05848729 -0.104204774 -0.06718075 -0.08707554
0001a0 b7 d7 d0 3c f5 76 19 be d6 5c 67 3d 8b 83 88 bd
       0.025493486 -0.14986785 0.05648502 -0.06665715
0001b0 38 c8 a2 bd b7 66 3a bd 0a 77 a4 3d 18 10 2a bd
       -0.07948345 -0.045508113 0.080305174 -0.041519254
0001c0 10 8b f8 bc 0f bb 53 3c b2 fa 0d be 94 95 bd bd
       -0.030339748 0.012923016 -0.13865164 -0.092570454
0001d0 1a c3 25 3e 9e 9e d8 3d 4f f1 3e bd 6d ef 72 3d
       0.16187707 0.10577129 -0.04661685 0.059310365
0001e0 27 34 a1 bd 89 f1 99 3b 9c db 5c bd 22 79 03 3d
       -0.078712754 0.0046979827 -0.053920373 0.032097943
0001f0 c9 78 39 3e c6 fe 63 bc b1 6d 45 be 58 42 34 bc
       0.18112482 -0.013915723 -0.19280125 -0.011002146

convs.0.bn1.running_var f4 [128]
000000 e3 6c 3b 3b 64 cd c2 3c 1c 9b 00 3c c8 73 00 3c
       0.0028598837 0.023779579 0.007849481 0.007840104
000010 c0 b6 23 3c bf 35 54 3c 08 01 8b 3b 6a 73 b0 3b
       0.009992301 0.012952267 0.0042420663 0.005384852
000020 19 1c d7 3b 36 31 15 3c 0a 44 0a 3c 40 15 20 3c
       0.006564629 0.009105971 0.008439073 0.009770691
000030 af c5 8c 3b 36 89 25 3c 22 84 dc 3b ac c2 94 3b
       0.0042960267 0.010103514 0.0067296186 0.0045398083
000040 8e 8c f3 3b ac 39 10 3c 0c 80 d2 3b e7 31 ac 3b
       0.007432527 0.008802813 0.006423956 0.0052549723
000050 96 d2 3d 3c 00 08 0c 3c d0 7a 2d 3b 37 99 71 3c
       0.011585852 0.008546829 0.0026470907 0.014746002
000060 d7 37 a4 3b ae 92 70 3b a3 a2 fb 3b fe e0 58 3b
       0.0050115394 0.0036708522 0.0076793 0.003309309
000070 a9 26 39 3b fb 1e a6 3b 1d 8a 19 3c 36 45 b1 3b
       0.0028251803 0.005069611 0.009371308 0.005409862
000080 44 da 09 3c 86 d0 cf 3b c1 b6 28 3c ce c0 c2 3b
       0.008413855 0.0063419966 0.010297478 0.0059433943
000090 ff 6c bb 3b 3b 45 31 3c 0e ab 6c 3c 5b 63 71 3c
       0.0057197805 0.0108197285 0.0144450795 0.014733161
0000a0 b7 cb bc 3b c3 d7 c0 3b 7e 87 c6 3b 27 2a 7a 3b
       0.0057615894 0.005885096 0.0060586324 0.0038172097
0000b0 73 f5 41 3c fa 64 29 3c a4 44 d2 3b f4 f9 3e 3c
       0.011838305 0.010339016 0.006416874 0.011656273
0000c0 c7 06 57 3c 2a 38 be 3b dc 33 7d 3b b6 be 6d 3b
       0.013124174 0.005805035 0.0038635647 0.0036277003
0000d0 36 f2 2f 3c 55 25 19 3c b0 c5 86 3b 43 38 23 3c
       0.0107389 0.00934728 0.0041129217 0.009962144
0000e0 5c f2 17 3c 33 46 03 3c 26 bd 3f 3c 00 be ad 3b
       0.009274092 0.008012342 0.011702811 0.005302191
0000f0 f9 55 88 3c c4 99 18 3c 94 cf c1 3c 6d 81 dd 3b
       0.016642557 0.009314004 0.023658551 0.0067598135
000100 56 b6 ce 3b 81 6d 35 3b c2 ea 9a 3b e6 40 12 3c
       0.006308357 0.0027683678 0.0047276923 0.008926606
000110 69 66 d7 3b d3 cf 10 3c 30 29 b2 3b b4 69 29 3c
       0.0065734875 0.008838612 0.005437039 0.010340143
000120 06 af 76 3b b6 09 c8 3b 8a bc 02 3c a5 39 0a 3c
       0.0037640943 0.0061046733 0.0079795215 0.008436595
000130 8a 49 99 3b 8d bf 5c 3b 67 15 04 3c 48 83 08 3c
       0.004677956 0.003368351 0.008061743 0.008332081
000140 14 87 07 3c cb a8 67 3b d5 31 1d 3c ad f9 af 3b
       0.008271951 0.0035348411 0.0095944 0.00537034
000150 7c ce 08 3c 19 6d 05 3c 15 15 67 3c 59 68 3b 3c
       0.008350011 0.008143687 0.014104147 0.011438453
000160 ef 9e de 3b 0b ce 4e 3c 9f e1 1c 3c 52 75 01 3c
       0.0067938487 0.012622367 0.009575277 0.0079015065
000170 01 db 2a 3c 25 65 21 3c f5 6d 06 3c 1c 10 b1 3b
       0.010428191 0.009850775 0.008204927 0.0054035317
000180 49 ce 08 3c 76 01 c2 3b b3 c8 81 3b 6d d4 69 3b
       0.008349963 0.0059205843 0.003960693 0.0035679594
000190 f3 cf 13 3c 26 ab cf 3b 54 9c d6 3b b8 a8 85 3c
       0.009021747 0.006337541 0.0065493975 0.016315803
0001a0 76 7e 8f 3c d2 74 49 3c 38 76 ec 3b 8d e9 35 3b
       0.017516356 0.012295919 0.007216241 0.0027757615
0001b0 f5 fc d7 3b 0e d4 ae 3b 28 d4 14 3c 12 18 c3 3c
       0.006591434 0.0053353375 0.009083785 0.023815189
0001c0 13 dd 1b 3c e4 76 cf 3b d4 ed 18 3c 8c db 40 3c
       0.009513157 0.0063313115 0.009334046 0.011771094
0001d0 b3 1e 06 3c 5c 46 dd 3b ff b8 f3 3b 54 a9 bd 3b
       0.00818603 0.0067527723 0.0074378247 0.0057880078
0001e0 6d 20 7a 3c 2d 05 77 3b 98 9d 80 3c cc 15 28 3c
       0.01526652 0.0037692294 0.015700147 0.010259103
0001f0 16 17 05 3c a1 c3 46 3c c4 1c a4 3b 04 7e 20 3c
       0.00812318 0.0121316025 0.005008312 0.0097956695

convs.0.bn2.weight f4 [64]
000000 fa fa 7f 3f 0c fa 7f 3f 60 f2 7f 3f f3 d6 7f 3f
       0.99992335 0.99990916 0.9997921 0.9993736
000010 fe 2e 80 3f 2f ea 7f 3f a0 15 80 3f c0 d6 7f 3f
       1.0014341 0.9996671 1.00066 0.9993706
000020 e9 ef 7f 3f 45 14 80 3f 91 9b 7f 3f 8f e8 7f 3f
       0.9997545 1.0006186 0.9984675 0.9996423
000030 71 02 80 3f 52 04 80 3f 35 0b 80 3f a0 11 80 3f
       1.0000745 1.0001318 1.000342 1.0005379
000040 98 21 80 3f 0c cd 7f 3f 16 f0 7f 3f 84 0e 80 3f
       1.0010252 0.9992225 0.9997572 1.000443
000050 f7 17 80 3f 87 ee 7f 3f 3d 08 80 3f e1 35 80 3f
       1.0007313 0.9997334 1.0002514 1.0016443
000060 ff a0 7f 3f 46 f4 7f 3f a3 0a 80 3f 01 f4 7f 3f
       0.99855036 0.99982107 1.0003246 0.99981695
000070 49 fb 7f 3f e4 1d 80 3f 28 02 80 3f d7 0e 80 3f
       0.99992806 1.0009122 1.0000658 1.0004529
000080 7f f9 7f 3f 7d d1 7f 3f e8 13 80 3f 0d 03 80 3f
       0.99990076 0.9992903 1.0006075 1.0000931
000090 9b 08 80 3f 3e f0 7f 3f f4 01 80 3f 34 cd 7f 3f
       1.0002626 0.99975955 1.0000596 0.9992249
0000a0 50 e8 7f 3f 89 f8 7f 3f 10 d9 7f 3f 89 fc 7f 3f
       0.99963856 0.9998861 0.99940586 0.99994713
0000b0 32 ff 7f 3f 4e f9 7f 3f 0d 0b 80 3f 7e cb 7f 3f
       0.9999877 0.99989784 1.0003372 0.9991988
0000c0 3d ee 7f 3f a2 24 80 3f 8b f9 7f 3f ef 02 80 3f
       0.999729 1.001118 0.9999015 1.0000895
0000d0 72 09 80 3f a1 ce 7f 3f 56 e5 7f 3f 4a 04 80 3f
       1.0002882 0.99924666 0.99959314 1.0001309
0000e0 94 f9 7f 3f 3c 09 80 3f 1c b6 7f 3f 38 f7 7f 3f
       0.999902 1.0002818 0.9988725 0.999866
0000f0 71 ea 7f 3f 35 02 80 3f ac 08 80 3f 39 00 80 3f
       0.99967104 1.0000674 1.0002646 1.0000068

convs.0.bn2.bias f4 [64]
000000 43 c2 95 36 c4 bc 0a 37 f8 b4 b5 b8 8e 55 b3 b8
       4.463161e-06 8.269391e-06 -8.6644606e-05 -8.551321e-05
000010 1f 11 a7 39 93 14 f3 b6 0d 8b 45 39 fe 18 ef b8
       0.00031865478 -7.2443595e-06 0.00018839184 -0.00011401063
000020 fb df f9 b8 6f cb 9c 39 c2 d7 0d ba 46 58 28 b9
       -0.00011914965 0.00029906209 -0.00054108736 -0.00016054613
000030 d7 03 98 38 fd b9 f5 38 36 10 47 39 e5 a4 f8 38
       7.24864e-05 0.000117171534 0.00018984158 0.000118562755
000040 fa ff 30 3a 68 7c 02 ba 55 2e 8d b8 1e 28 d4 37
       0.00067520107 -0.00049776444 -6.732034e-05 2.529105e-05
000050 31 bf bd 39 29 24 3c b9 55 8e b1 39 53 21 21 3a
       0.00036191338 -0.00017942548 0.00033866116 0.00061466283
000060 d8 6e cf b9 fb b0 f5 b7 ce e6 0a 39 73 cd 93 b8
       -0.00039564702 -2.9288689e-05 0.00013246687 -7.047774e-05
000070 c5 65 42 38 b6 0b 3a 3a a8 8e 5c 37 db 4a 08 39
       4.6347985e-05 0.0007097082 1.3146237e-05 0.00012997857
000080 59 10 5a b8 82 5e b0 b9 6e 7a 63 39 28 40 25 39
       -5.1990475e-05 -0.0003363975 0.00021694016 0.00015759526
000090 8f 2f 83 37 34 51 37 37 b8 8e 30 39 91 fd b5 b9
       1.5638563e-05 1.0926557e-05 0.00016837835 -0.00034711932
0000a0 2b 73 96 b9 68 b6 03 39 2a 1b 42 38 99 fe da b6
       -0.00028696036 0.00012561085 4.6278503e-05 -6.5265453e-06
0000b0 46 27 52 37 05 76 25 39 35 f0 a3 39 93 da 89 b9
       1.25261195e-05 0.00015779592 0.0003126875 -0.00026293527
0000c0 65 74 29 b9 06 12 41 3a fa c4 ac b8 26 48 58 39
       -0.00016160456 0.00073650514 -8.238289e-05 0.00020626243
0000d0 22 ff dc 38 74 4c 89 38 21 0c 37 b9 dd 9f 06 b8
       0.0001053794 6.5469096e-05 -0.00017456758 -3.2096974e-05
0000e0 62 43 5c b7 91 a5 94 38 f3 a3 a9 b9 40 62 31 39
       -1.3128711e-05 7.088029e-05 -0.00032356344 0.00016916636
0000f0 c1 c4 36 b8 d8 56 0d 38 24 59 92 38 ba 6b e0 37
       -4.3575423e-05 3.36979e-05 6.978426e-05 2.6753045e-05

convs.0.bn2.running_mean f4 [64]
000000 43 01 93 40 bf 07 9b 40 a2 04 8d 40 66 be 84 40
       4.593904 4.8446956 4.4068155 4.148242
000010 6c 04 a0 40 0d c7 99 40 43 f2 b1 40 b2 39 9b 40
       5.00054 4.805548 5.560823 4.850793
000020 00 ba a1 40 87 a2 87 40 2b cd a4 40 46 62 98 40
       5.053955 4.23859 5.150045 4.7619963
000030 e0 71 96 40 7b 3f b8 40 99 3a 95 40 ff 3a 78 40
       4.7014008 5.757749 4.663403 3.8786008
000040 34 6e a6 40 73 4e a5 40 a7 b1 8f 40 5e 4b 9b 40
       5.2009525 5.1658263 4.490436 4.85295
000050 97 03 9f 40 74 75 97 40 4c f1 8e 40 46 e0 89 40
       4.969188 4.7330875 4.466955 4.308627
000060 84 ca 9e 40 27 3b a1 40 aa 1c 96 40 3e ac 97 40
       4.962221 5.0384707 4.690999 4.7397757
000070 ae 14 ae 40 0e d2 b7 40 e0 70 ab 40 06 9a 86 40
       5.4400244 5.7443914 5.3575287 4.2063017
000080 c4 a9 91 40 e5 cb a5 40 35 31 a9 40 a4 a7 90 40
       4.5519733 5.1811395 5.2872567 4.520464
000090 17 e5 8f 40 17 3d 9a 40 33 84 91 40 1b 76 95 40
       4.496715 4.8199573 4.5473876 4.670667
0000a0 f5 5a 91 40 6a 67 b2 40 f5 d0 a4 40 67 5d a5 40
       4.542353 5.575124 5.1505075 5.1676517
0000b0 76 94 88 40 7d 52 87 40 f3 25 9a 40 d1 c7 95 40
       4.2681227 4.2288194 4.8171325 4.6806417
0000c0 ca e5 a9 40 71 20 a3 40 f5 72 9a 40 82 4f 98 40
       5.3093004 5.09771 4.826533 4.7597055
0000d0 ea d8 a8 40 5d ad 98 40 56 aa 88 40 8d be a6 40
       5.276479 4.7711625 4.270793 5.2107606
0000e0 83 dc a4 40 a6 48 a2 40 0b 0c 9a 40 38 20 8b 40
       5.151918 5.071368 4.81397 4.347683
0000f0 07 07 82 40 98 b5 85 40 58 ab 94 40 6d 22 9f 40
       4.063358 4.178417 4.645916 4.9729524

convs.0.bn2.running_var f4 [64]
000000 90 af 33 40 c2 31 c2 40 cf 2d 7a 40 65 81 bb 3f
       2.8075905 6.068574 3.909046 1.4648863
000010 5a e8 ff 40 c2 e9 96 40 80 d8 67 41 f1 23 af 40
       7.997113 4.716035 14.490356 5.4731374
000020 52 20 e5 40 ba 83 10 40 12 6e d6 40 e7 c2 b2 40
       7.1601954 2.25804 6.7009363 5.586292
000030 ac fe 6e 40 d5 3f b3 41 41 ed 30 41 16 8c 4c 3f
       3.734294 22.406168 11.057923 0.79901254
000040 2a be 9d 40 fa d2 ce 40 ce 23 b7 40 47 2d 38 40
       4.9294634 6.463254 5.7231207 2.8777635
000050 b0 1e 28 41 72 d6 8f 40 1e 45 23 40 9e 9f de 3f
       10.507492 4.4949274 2.5510936 1.7392461
000060 c5 93 0e 41 87 34 b4 40 2d 54 83 40 86 44 a5 40
       8.911077 5.631412 4.1040254 5.1646147
000070 ea 1c cc 40 ac c5 df 40 1d bd 33 41 6f e8 72 40
       6.3785295 6.99288 11.23367 3.7954366
000080 58 2f 65 40 90 8e 38 41 72 5d 70 41 18 dc 9e 40
       3.5810146 11.534805 15.022814 4.964367
000090 48 20 e4 40 be 88 86 40 2d 58 b0 40 84 73 e1 40
       7.1289406 4.204192 5.5107636 7.045351
0000a0 dd 26 7d 40 56 9e bb 41 eb fe 24 41 db d2 a1 40
       3.955497 23.452312 10.312236 5.056989
0000b0 3c 18 69 40 1e d1 ca 3f 3c 6e 4f 40 a9 1d 1f 40
       3.6421041 1.5845068 3.2411032 2.4861853
0000c0 68 65 42 41 af 05 fb 40 ef e0 82 40 50 5a eb 40
       12.149757 7.844444 4.0899577 7.3547745
0000d0 a2 36 7a 41 ed 60 1b 41 81 3a 04 40 ff c7 f4 40
       15.638338 9.7111635 2.0660708 7.6494136
0000e0 e4 2e b7 40 aa 6b f0 40 f0 b6 2f 40 69 45 78 40
       5.724474 7.5131426 2.7455406 3.8792365
0000f0 6b d5 0e 40 ab 01 16 40 94 5f b2 40 3e e5 af 40
       2.231776 2.3438518 5.5741673 5.4967337

convs.1.fc_full.weight f4 [128, 169]
000000 51 3e 21 3d e3 39 56 bd 70 d3 5e 3c a6 b3 81 bd
       0.03936607 -0.0523013 0.013600215 -0.06333093
000010 eb 6f 09 3d 21 ee b2 bc bb e2 a2 bb 52 4c 77 bc
       0.033554 -0.021842064 -0.004970876 -0.01509388
000020 20 55 27 bd a9 ad 8f 3d 12 68 dc bc bd ca 33 bc
       -0.040852666 0.07015545 -0.026905093 -0.01097363
000030 a8 38 07 3d 57 51 26 3d a8 7f 93 bc 25 68 9a bc
       0.033013016 0.040604915 -0.018005207 -0.018848488
000040 45 d4 28 b9 e4 ff 5d 3d 4e 7d 1c 3c a8 30 2f bd
       -0.00016100805 0.054199114 0.009551359 -0.04277101
000050 b4 32 ef bb 43 5a a3 bc 82 dd 06 3d bb 8e 79 3b
       -0.0072997455 -0.019940501 0.03292609 0.0038079459
000060 af cc 0d bc 45 8b 7e bd aa b5 ad bc 26 e9 17 3c
       -0.008654757 -0.062144537 -0.021204788 0.0092718955
000070 b6 0e 82 bc bc ed fc bc 66 50 43 3c a9 59 04 3d
       -0.015876155 -0.03087508 0.011921024 0.03231207
000080 d6 92 12 3d f8 e6 79 3c 29 70 61 bd 56 1e 25 bd
       0.035784565 0.015252821 -0.055038605 -0.040312134
000090 d2 58 46 3d a8 33 53 bd ae ab 6e 3d 24 7b 1f bd
       0.04842455 -0.051562935 0.058269195 -0.038935795
0000a0 01 2b 62 3d fc f9 bd ba 92 23 96 3d 9c 45 c2 bc
       0.055216793 -0.0014494057 0.07331003 -0.023714833
0000b0 a3 a9 ce bc 83 51 31 3d c2 63 1d bc 7e 9a 60 bd
       -0.025227373 0.043290626 -0.009606304 -0.054834835
0000c0 98 5e 0e bc 1e f2 9f 3c f5 ba 09 bd b2 26 99 3c
       -0.008689545 0.01952463 -0.03362556 0.01869521
0000d0 2c df 85 bd e1 66 7b 3d 3a a3 cb 3c 9c a2 15 bd
       -0.06536707 0.06137741 0.024858106 -0.03653203
0000e0 34 af 39 3d 55 e9 6f 3d d2 3e 30 3d b5 40 53 3d
       0.045333102 0.058572132 0.04302866 0.05157538
0000f0 08 15 a0 3b 8b c1 8c bd 71 4f 90 bd 6d ed 3b 3c
       0.0048853196 -0.06872853 -0.07046402 0.011470181
000100 58 21 18 bd 29 87 61 bd cb bf 89 bd f8 17 59 3c
       -0.037141174 -0.05506054 -0.06726035 0.0132503435
000110 ac a1 87 bd 58 d9 83 3d 4f bb 88 3b 91 0d 47 bd
       -0.06622633 0.064379394 0.0041727195 -0.048596922
000120 f8 d9 8a bd a3 23 6e bd 4f f8 57 bd 82 bd 8f 3b
       -0.067798555 -0.058139455 -0.05272704 0.0043866048
000130 d8 3f 3f 3b 51 b9 80 3c c5 ee 2f ba e5 5b c5 3b
       0.002918234 0.015713366 -0.00067112996 0.0060229176
000140 ff ab 0e bd 2d 2d 47 bd d1 d3 5c bd e2 6f 9a 3d
       -0.034831997 -0.048627067 -0.05391294 0.07540871
000150 e7 31 6d 3d 0c 5e 08 3d 90 8d 08 bd 15 c5 82 bd
       0.05790892 0.033292815 -0.03333813 -0.06385247
000160 e7 0d ab 3c c8 9c f8 bc fe 71 2d bd 6c 2e 6a 3c
       0.020880653 -0.030348197 -0.04234504 0.014293294
000170 7c bc 0c bd ea 02 c2 bc 3a d5 44 3d 2a 9a 75 3d
       -0.03435944 -0.02368303 0.04805491 0.059961475
000180 6a a1 39 3d 06 01 56 3c 2a bb 52 3d 3a b5 81 bd
       0.045319952 0.013061767 0.051448025 -0.06333394
000190 31 4f 94 bd bd e7 84 bd 50 00 06 3d 92 07 51 3d
       -0.07241667 -0.06489513 0.03271514 0.05103261
0001a0 c7 41 70 bd 69 73 9e 3c 07 71 83 bd cd 4a db 3a
       -0.05865648 0.019342141 -0.06418043 0.0016730666
0001b0 6e 35 50 3c 5c 5f 99 3d 64 27 9a 3d 8f 31 28 bd
       0.012708051 0.074888915 0.075270444 -0.041062888
0001c0 c5 92 f9 bc 22 a3 86 3d 87 cc 3d 3d 16 a1 e7 bc
       -0.030465493 0.06574084 0.04633763 -0.028275054
0001d0 25 52 2b 3d 7c ab ba bb a7 d0 76 3d bc 5f 51 bd
       0.041826386 -0.005696712 0.06025758 -0.05111669
0001e0 9f d7 92 bc 59 40 88 3c 24 0b 3c bc 11 ce 33 bd
       -0.017925082 0.016632246 -0.0114772655 -0.043897692
0001f0 8c 1c ca 3b b9 2f 8d bd 9f 32 32 3d 35 f8 eb 3c
       0.006167954 -0.06893868 0.043505307 0.028804878
000200 a0 4c 13 3c 27 0a 30 ba c8 61 5c bd bc a1 86 bd
       0.008990437 -0.000671538 -0.05380419 -0.06573817
000210 0e b1 5d bd 79 33 f8 bb 4e cb 18 bd 17 69 0d bd
       -0.05412393 -0.0075744954 -0.03730326 -0.03452405
000220 f5 1a 99 3c ab 5c 90 bd a7 67 90 bd 4d 2b 95 3d
       0.018689612 -0.07048925 -0.0705102 0.072836496
000230 ad c6 35 3d 58 d4 d9 3c 9e b9 8e bd 71 47 e5 bc
       0.044378925 0.026590511 -0.069689974 -0.027988167
000240 05 f5 ea bc 69 57 2e 3c 39 d0 34 3d d6 2d 97 bd
       -0.028681288 0.010640957 0.04414389 -0.073817894
000250 c9 29 93 bc ac 0a 41 3d 5b 7b 21 bc 80 34 33 3b
       -0.01796426 0.047129318 -0.00985607 0.0027344525
000260 a2 fc 2f 3d f2 20 8c bc 40 b7 3f 3b ca fc 37 bd
       0.04296554 -0.017105553 0.0029253513 -0.044918813
000270 8d c0 31 bd 22 a3 a4 bc 8d 90 9a 3d 64 20 8b bd
       -0.04339652 -0.020097319 0.07547102 -0.067932874
000280 dc fc 2f bd 40 f4 fa ba a8 8a 20 3d e0 19 4a bb
       -0.042965755 -0.0019146279 0.039194733 -0.0030838177
000290 7c 2d 3f bd 92 a4 10 3d 5a 2b 7d 3d c3 36 8c 3d
       -0.046674237 0.035313196 0.06180892 0.068463825
0002a0 bc 67 bc bc e8 a4 fc 3c 8e 98 49 bc 95 3b 06 ba
       -0.022998683 0.030840352 -0.012304438 -0.0005120573
0002b0 b6 3e 81 3d 92 ff 6f 3d 70 f1 46 3d 86 fe a6 bc
       0.06310789 0.05859334 0.048570096 -0.020385038
0002c0 4a 83 b0 3c fb 38 3e bd df 2f b1 bc 8b 6c 4d bd
       0.021546979 -0.04644106 -0.021629272 -0.050152343
0002d0 90 0e 22 bc 4d 98 0c 3c d3 39 a4 3a 21 6c 5f bd
       -0.009891167 0.008581233 0.001252944 -0.05454648
0002e0 3a 5a 5b bd 69 1d 9f 3c 07 03 24 bb 63 cf ad bc
       -0.053552844 0.019423204 -0.0025026218 -0.021217054
0002f0 a1 e1 7d bd 68 df 90 3c 1e f3 6a bd 44 2a 82 bd
       -0.061982755 0.017684653 -0.05736076 -0.06355718
000300 1c 11 5c bd c1 aa 61 bc ad be 9a 3d c7 a0 ea bb
       -0.053727254 -0.013773621 0.075559 -0.0071602794
000310 66 3d 73 3d 41 23 11 bd 6e 24 00 bd 6c 74 91 bd
       0.059384726 -0.03543401 -0.031284742 -0.07102284
000320 cf 66 8b bd e3 eb 3d bd 8c 7b 17 3d 68 a5 9b 3d
       -0.068067186 -0.046367537 0.036983058 0.07599908
000330 8a 36 65 3d 24 48 b0 3c 17 59 4b bd f0 c6 10 bd
       0.055960216 0.021518774 -0.04964551 -0.03534597
000340 24 26 eb 3c ad 3c 21 3c a3 2e 71 bb 11 7b 08 3d
       0.02870471 0.009841126 -0.003680148 0.03332049
000350 ba cf 2d 3d 47 fa 20 3d b9 47 dc 3b fb 72 c5 3c
       0.04243443 0.039301183 0.006722417 0.024102679
000360 7c 36 92 bc d8 df 54 3d 3b 4a 34 bd 8d 23 42 3d
       -0.017848246 0.051971287 -0.044016104 0.047397185
000370 8d f6 bd bc 6a a5 12 3c 90 a8 8b bd db 5a 8a bd
       -0.023188854 0.008950571 -0.0681926 -0.067556106
000380 43 c9 a8 3a 5b 45 ce bc 4f d0 aa 3b 5a ba 95 bc
       0.0012877363 -0.025179556 0.0052128206 -0.018277336
000390 65 38 fa 3c 95 db fe 3c 88 fe 41 3d 17 0d 88 3d
       0.03054447 0.031110564 0.04736188 0.06643122
0003a0 cc a8 15 3d 64 8e 4f 3c 11 13 a7 bc 7a fc 30 3d
       0.03653793 0.012668226 -0.020394834 0.04320953
0003b0 d0 e9 8b 3d d8 ae 94 bc 4e 42 02 bd 74 f7 97 3b
       0.068317056 -0.018149778 -0.031801514 0.004637653
0003c0 65 c8 5a bd d1 30 32 3d e5 c1 02 bc 7e db 51 bd
       -0.053413767 0.043503586 -0.007980798 -0.051234715
0003d0 58 ce 75 3c cb a6 59 3b 6d 11 60 bd 25 af 61 bc
       0.015002809 0.0033210989 -0.05470412 -0.013774668
0003e0 37 ce 70 3d dc 30 23 3d a7 b3 8c 3b c2 10 9c bd
       0.05879041 0.039841518 0.004293877 -0.07620384
0003f0 0f 8b 0a 3d 03 77 17 bd 8c 29 1d bd 8c c3 13 bd
       0.033824023 -0.036978733 -0.0383697 -0.03607516
