trained/faradaic/model_best.pth.tar (torch, 671961 bytes, 58 tensors)

embedding.weight f4 [64, 92]
0	0x3cfd6064	0.030929752
1	0xbdc33881	-0.09532262
2	0x3cc4c714	0.02402071
3	0xbda3b932	-0.079943076
4	0x3c44a638	0.01200252
5	0xbda50c1f	-0.080589525
6	0xbd9cd20c	-0.07657251
7	0x3b8be760	0.0042695254
8	0x3d8564f5	0.06513397
9	0xbd124569	-0.035710726
10	0x3d740333	0.059573364
11	0xbdd038be	-0.10167073
12	0xbdc42ef1	-0.09579266
13	0x3d934f67	0.07192879
14	0x3d375518	0.044758886
15	0xbdd37eda	-0.103269294
16	0xbc8e2130	-0.01734981
17	0x3bc0d6d2	0.0058849836
18	0xbd8cfde4	-0.06884363
19	0x3caafa2d	0.020871246
20	0x3d3819dd	0.04494654
21	0x3d395c3d	0.04525398
22	0xbdb91983	-0.09038069
23	0x3d949eb3	0.07256832
24	0x3c04e428	0.008111037
25	0x3d32316e	0.04350417
26	0xbdad4e4d	-0.084622
27	0xbd228ab2	-0.03968305
28	0x3d2d14b2	0.042256065
29	0x3db4b1b1	0.088229544
30	0xbd44739b	-0.047961812
31	0x3d81fbdd	0.06346867
32	0xbd99bfe4	-0.07507303
33	0x3d18f35b	0.037341457
34	0x3d8c691a	0.06855984
35	0x3dc852b9	0.09781403
36	0xbc524915	-0.012834807
37	0x3b078d42	0.0020683561
38	0xbcb96a9a	-0.02263384
39	0xbd02f12f	-0.03196829
40	0xbc8369e9	-0.016041713
41	0x3d3f8fca	0.046767987
42	0x3d36c4ae	0.044621162
43	0x3d62dbb2	0.0553853
44	0xbd07d98c	-0.033166453
45	0x3dc2e901	0.09517098
46	0xbc9dc45f	-0.019258676
47	0x3c82dcc4	0.01597441
48	0x3a03ad80	0.0005023107
49	0xbcf6ad7d	-0.030112023
50	0xbd9eb28d	-0.077488996
51	0xbb5926ff	-0.0033134816
52	0x3da4719d	0.080294825
53	0x3ca97f3a	0.02069055
54	0xbdd009e6	-0.10158138
55	0x3d41f7ab	0.047355335
56	0xbc707310	-0.014675871
57	0xbdcd0228	-0.10010177
58	0x3c47a768	0.012185909
59	0xbd4acbe4	-0.04951085
60	0x3dc2decd	0.09515152
61	0x3d65f0b6	0.056137763
62	0xbc68c180	-0.01420629
63	0xbcd76ef4	-0.026298024
64	0xbd1dfdfc	-0.038572297
65	0x3db1a79d	0.08674548
66	0xbb950fb0	-0.0045489892
67	0x3c871ecc	0.016494177
68	0xbdd52a00	-0.104084015
69	0x3d3e5f2e	0.04647749
70	0xbd8178ee	-0.06321894
71	0xbda86d6e	-0.08223997
72	0xbdc8aa2d	-0.097980835
73	0xbc8dd9dc	-0.017315798
74	0xbd900acf	-0.070333116
75	0xbcd89e82	-0.02644277
76	0x3dc532e9	0.09628851
77	0xbd4783c3	-0.048709642
78	0x3861e2ea	5.385551e-05
79	0xbd11c87c	-0.035591587
80	0x3d04c981	0.03241873
81	0x3d084e7a	0.033277966
82	0x3cd2c176	0.025727015
83	0x3b1cf3b8	0.0023948979
84	0xbbc7e001	-0.0060997014
85	0x3d83a679	0.064282365
86	0xbd844f38	-0.06460422
87	0x3d285b37	0.041102614
88	0x3d515e22	0.051115163
89	0xbc888004	-0.016662605
90	0x3d132c0e	0.035930686
91	0xbdd505dc	-0.10401508
92	0x3d2d99f6	0.042383157
93	0xbdac2ead	-0.0840734
94	0x3d6c19fa	0.05764196
95	0xbd882da9	-0.06649334
96	0xbd06115e	-0.032731406
97	0x3d007019	0.031356905
98	0xbd4c84f7	-0.049931493
99	0xbc5e6e40	-0.01357609
100	0xbdb3bc77	-0.08776181
101	0xbd66098e	-0.056161456
102	0xbd754fea	-0.059890665
103	0xbdca0dc4	-0.09865907
104	0x3cc47b34	0.02398453
105	0x3d089196	0.033341967
106	0xbd38f6ef	-0.04515737
107	0x3cc93489	0.024561184
108	0x3d80e483	0.06293585
109	0xbdb7a8ce	-0.08967744
110	0xbdb20d14	-0.08693901
111	0xbdc3b50f	-0.095560186
112	0x3d18ba5a	0.037287094
113	0xbdccca13	-0.0999948
114	0xbd88a386	-0.066718146
115	0xbd34201d	-0.043975938
116	0xbd8d7bd0	-0.06908381
117	0x3d062056	0.03274568
118	0xbd62625d	-0.055269588
119	0x3dcf3815	0.10118119
120	0xbd749356	-0.059710823
121	0xbdc7a7b7	-0.09748786
122	0x3bb198af	0.0054198126
123	0x3d044daf	0.032300647
124	0xbd77783e	-0.060417406
125	0xbce261bd	-0.027634496
126	0xbdb8d3b4	-0.09024754
127	0xbdcbd7c6	-0.09953265
128	0xbd43f798	-0.047843546
129	0xbd3b2573	-0.04569001
130	0x3d293f49	0.04132012
131	0xbdcacc80	-0.099022865
132	0xbd9084c4	-0.07056573
133	0x3b65dda0	0.0035074726
134	0x3d8d78fd	0.06907842
135	0x3d929681	0.071576126
136	0x3d16fb5a	0.0368608
137	0xbd27118a	-0.04078821
138	0xba525cad	-0.0008024674
139	0x3d8e3f49	0.069456644
140	0x3d095e9a	0.033537485
141	0x3dcd69a0	0.10029912
142	0xbc2be0b9	-0.01049059
143	0x3d3c3abb	0.045954447
144	0x3dc7fc6b	0.09764942
145	0x3d975114	0.07388511
146	0x3c990862	0.018680755
147	0x3da43db7	0.08019584
148	0x3dcf32b3	0.10117092
149	0xbd957b6b	-0.07298931
150	0x3c6782a0	0.0141302645
151	0xbdac6fbe	-0.08419751
152	0x3da847e1	0.08216835
153	0x3d6ed6fb	0.05831049
154	0x3d9c38bb	0.07628008
155	0xbdc56abc	-0.096394986
156	0x3dbf7af4	0.09349623
157	0x3d5381b1	0.051637355
158	0xbdcf13a2	-0.101111665
159	0x3dbcf4cd	0.092263795
160	0x3dc7dc67	0.09758835
161	0xbca488d4	-0.020084776
162	0x3d89469b	0.0670292
163	0xbdb41cc6	-0.087945506
164	0xbd8c0154	-0.06836191
165	0x3c05dc3e	0.008170186
166	0x3c9b408e	0.01895168
167	0xbd7fb17b	-0.062425118
168	0xbdb18e31	-0.08669699
169	0x3d16fdc6	0.03686311
170	0xbd27040b	-0.04077534
171	0x3b06fe16	0.0020598224
172	0x3d504de2	0.050855525
173	0x3d5ce8ee	0.053933077
174	0xbda95b5d	-0.08269379
175	0xbd27dcaf	-0.040981945
176	0xbda07f0e	-0.07836734
177	0xbd1f4754	-0.038886383
178	0xbd8cbf5d	-0.06872437
179	0x3c27656c	0.010217052
180	0x3c77a200	0.015114307
181	0xbcfa93cc	-0.030588053
182	0x3d664116	0.056214415
183	0xbdcc9d43	-0.09990933
184	0xbda4c9a0	-0.080462694
185	0xbdca5552	-0.09879555
186	0xbcbdfb04	-0.023190983
187	0x3dce1e11	0.100643285
188	0x3d904be7	0.07045727
189	0xbda0eea1	-0.07858015
190	0x3dcafd7f	0.09911632
191	0x3d1725ee	0.036901407
192	0x3d39ae6d	0.04533236
193	0xbd251705	-0.040305156
194	0x3dc518b3	0.096238516
195	0x3c959f14	0.01826433
196	0xbce9212c	-0.0284582
197	0xbd68d825	-0.056846756
198	0x3dbd8a1e	0.092548594
199	0x3c899031	0.016792389
200	0xbd5ed48f	-0.05440193
201	0xbd9ef5d9	-0.077617355
202	0xbd9820bd	-0.07428119
203	0xbd83bd4e	-0.064325914
204	0xbdb3a20e	-0.08771144
205	0x3c27c224	0.010239158
206	0xbd813de6	-0.06310634
207	0xbd8a2b4c	-0.067465395
208	0xbd110856	-0.03540834
209	0xbd82b4b4	-0.06382123
210	0xbd2878d6	-0.041130863
211	0xbdcd3c41	-0.10021258
212	0xbd4f23fa	-0.05057142
213	0xbd20e61f	-0.03928196
214	0xbc0d3048	-0.008617468
215	0x3c2c5145	0.010517423
216	0x3d01ace2	0.031659015
217	0xba01203a	-0.00049257616
218	0xbcee1e65	-0.029067228
219	0xbdd09517	-0.10184687
220	0x3d506671	0.050878946
221	0xbd0b6c57	-0.034038868
222	0x3d5d28c6	0.053993963
223	0x3d9eba9c	0.07750437
224	0xbd684d42	-0.056714304
225	0xbdc1e7e4	-0.09468058
226	0xbd7b0fc7	-0.061294343
227	0x3dc9c241	0.09851504
228	0x3d3363f2	0.043796487
229	0x3d157022	0.03648389
230	0x3d96572e	0.07340847
231	0xbcc85e98	-0.024459168
232	0xbcf5e044	-0.030014165
233	0x3dada736	0.084791586
234	0xbb750818	-0.0037388857
235	0xbdbce149	-0.09222657
236	0xbd49a865	-0.04923286
237	0x3c44428a	0.011978755
238	0x3dc28c21	0.09499384
239	0x3daf2797	0.08552473
240	0x3bc098d0	0.0058775917
241	0xbd0380aa	-0.032105125
242	0xbd886d4c	-0.06661472
243	0x3c8774a8	0.016535118
244	0xbd823eac	-0.0635961
245	0xbcddc84d	-0.02707305
246	0xbd81d5e0	-0.063396215
247	0xbc8be614	-0.017077483
248	0x3d5cc6a3	0.053900372
249	0x3da28941	0.07936335
250	0x3d771906	0.0603266
251	0xbd189990	-0.037255824
252	0x3d8880e3	0.06665208
253	0x3da029fb	0.07820507
254	0xbcd681ad	-0.026184881
255	0x3d0bfaee	0.034174852

embedding.bias f4 [64]
0	0xbdd355ff	-0.10319137
1	0xbd78ab71	-0.060710374
2	0xbce8bd0a	-0.028410453
3	0x3d980cd8	0.07424325
4	0x3d9ce3ca	0.07660635
5	0x3dc2c1f4	0.0950965
6	0x3d736c9c	0.05942975
7	0x3d44874c	0.04798059
8	0xbbf82cf2	-0.0075737173
9	0xbdc092f5	-0.0940303
10	0x3d8cce09	0.068752356
11	0xbd0b55c8	-0.034017354
12	0x3d85a543	0.06525662
13	0x3ced1290	0.028939515
14	0x3ce76ae7	0.028249217
15	0xbd572373	-0.05252404
16	0xbd8f97b9	-0.07011361
17	0x3dd00897	0.101578884
18	0xbb80448a	-0.0039144205
19	0x3db4b85c	0.08824226
20	0x3d3ea368	0.046542555
21	0x3db8008e	0.08984481
22	0xbda2c9cd	-0.07948647
23	0xbdd095f1	-0.10184849
24	0xbcbc32d1	-0.02297345
25	0xbc15cde2	-0.009143325
26	0xbce94f18	-0.028480098
27	0xbdabd994	-0.08391109
28	0xbd7ddec0	-0.06198001
29	0x3d5fcc07	0.054637935
30	0x3d2e4b40	0.042552233
31	0xbdaa7222	-0.0832255
32	0x3d0990c5	0.03358533
33	0x3d02d389	0.031940017
34	0x3d9df5e7	0.07712918
35	0xbdbd0840	-0.09230089
36	0x3d6a3cae	0.057186775
37	0x3d200a7c	0.0390725
38	0xbda387ca	-0.07984884
39	0xbcda7203	-0.026665693
40	0x3dcdeb8b	0.10054692
41	0xbce5e6c5	-0.028064141
42	0xbd02fa0e	-0.031976752
43	0x3c13f376	0.009030214
44	0xbdaa9eb4	-0.083310515
45	0xbd051b96	-0.03249701
46	0x3dbe547b	0.09293457
47	0x3c7905d8	0.015199147
48	0xbd7fa697	-0.06241473
49	0xbc40fab6	-0.011778524
50	0xbd954a26	-0.07289533
51	0x3d974315	0.07385842
52	0x3c4bd4fd	0.012440917
53	0x3d889dc3	0.06670716
54	0x3c213642	0.009839596
55	0xbd8b16e8	-0.067914784
56	0x3dd0f2ba	0.102025464
57	0xbd93b79e	-0.072127566
58	0x3c86921c	0.016427092
59	0x3b73f0d6	0.0037222407
60	0x3ccef6ec	0.025264226
61	0xbd7b023a	-0.06128142
62	0x3d2bf3dc	0.04198061
63	0xbdb5d179	-0.08877844

convs.0.fc_full.weight f4 [128, 169]
0	0x3cc49a3f	0.023999332
1	0x3d1bef26	0.038069867
2	0x3c97b9fc	0.018521301
3	0xbca22352	-0.019792233
4	0x3c1b9ba5	0.009497558
5	0x3d34cfd0	0.044143498
6	0xbc666959	-0.014063203
7	0xbcff3b26	-0.031156134
8	0x3d86a2f4	0.065740496
9	0x3d86982e	0.06571995
10	0x3cf0c1ad	0.029389227
11	0xbd022bf5	-0.031780202
12	0xbd9800e6	-0.07422046
13	0x3cc3181e	0.02381521
14	0xbd78dfc3	-0.06076027
15	0xbc55b321	-0.013043196
16	0xbd0f8e28	-0.03504768
17	0x3cacd699	0.021098422
18	0x3d695c25	0.05697264
19	0x3ce96d82	0.0284946
20	0xbd8b6d0b	-0.06807908
21	0x3d4dd41f	0.050251123
22	0x3d65348d	0.05595832
23	0x3cc7fbc4	0.024412043
24	0xbd92a15e	-0.071596846
25	0xbd74f785	-0.059806366
26	0x3c7f8914	0.015596647
27	0x3d80d21c	0.06290075
28	0x3d24caca	0.040232457
29	0x3d11155d	0.035420764
30	0x3d904587	0.07044511
31	0xbd2a6b5d	-0.041606296
32	0xbd473495	-0.04863413
33	0x3d0f098d	0.034921218
34	0x3d47ced5	0.048781235
35	0xbd37a9e2	-0.044839747
36	0x3d5561ef	0.05209535
37	0x3d732421	0.059360627
38	0xbcdae0f9	-0.026718603
39	0x3cff50e8	0.031166509
40	0x3d2f4686	0.042791866
41	0xbd431daa	-0.04763571
42	0xbd8de350	-0.06928122
43	0xbd08eaf3	-0.03342719
44	0x3d1c57ef	0.038169798
45	0x3d0e5fb6	0.034759246
46	0x3c66b43b	0.014081056
47	0xbc7c6df8	-0.015407078
48	0x3d4e7001	0.050399784
49	0xbc71c2d5	-0.014755924
50	0xbd98f7e5	-0.07469157
51	0xbcd9d6bb	-0.02659165
52	0x3d585c48	0.05282238
53	0x3a95373e	0.0011384261
54	0x3d87f012	0.06637587
55	0xbc218d11	-0.009860293
56	0xbd1736d8	-0.036917537
57	0x3d69bb5e	0.057063453
58	0xbd860e85	-0.06545738
59	0x3d82d908	0.06389052
60	0xbccbe41f	-0.02488905
61	0x3d9178ba	0.07103105
62	0x3d50ed98	0.051007837
63	0x3d2e93b4	0.04262133
64	0x3cd746dc	0.026278906
65	0xbcc716c2	-0.024302844
66	0x3d1832d0	0.037157834
67	0x3bafadf6	0.005361314
68	0xbd56f819	-0.052482698
69	0xbd46512b	-0.04841725
70	0xbc613c2e	-0.013747258
71	0x3bbdb324	0.0057891775
72	0x3b7b2381	0.0038320723
73	0x3d9ca563	0.076487325
74	0x3bb84a88	0.005624119
75	0x3ccd8774	0.025089003
76	0xbd929233	-0.071567915
77	0xbce01aea	-0.027356584
78	0xbbc97596	-0.0061480505
79	0x3d0f5d79	0.03500125
80	0x3d52a12a	0.05142323
81	0xbbd2a11d	-0.0064278976
82	0xbcbaac61	-0.022787275
83	0x3a932027	0.0011224792
84	0x3d9c54e9	0.07633383
85	0xbd01d6ec	-0.031699106
86	0x3d6ba73e	0.05753254
87	0xbc11a53c	-0.008889493
88	0xbc8b8c95	-0.017034808
89	0x3d50698e	0.050881915
90	0xbcf94c4f	-0.030431895
91	0xbd53db65	-0.051722903
92	0x3d8f3405	0.06992344
93	0xbd80904e	-0.06277524
94	0x3d9405a2	0.07227637
95	0xbd196140	-0.03744626
96	0xbd2c4dee	-0.042066507
97	0x3d3f468f	0.04669815
98	0x3d411e98	0.047148317
99	0xb9f35224	-0.0004640977
100	0x3c3a4784	0.01136959
101	0x3d9d2a37	0.076740675
102	0xbd54f5fc	-0.0519924
103	0x3d80555d	0.06266282
104	0xbd16250f	-0.036656436
105	0xbd897eaf	-0.06713616
106	0x3d9b5ba2	0.07585837
107	0xbd91c311	-0.07117284
108	0x3d89fe7c	0.06737992
109	0xbd24ca9f	-0.040232297
110	0xbd62cca5	-0.055370945
111	0xbd09735b	-0.033557277
112	0xbb6ba769	-0.0035957939
113	0xbc91f441	-0.017816665
114	0x3c91ac2e	0.017782297
115	0x3d023f05	0.03179838
116	0x3d992df8	0.07479471
117	0x3d809293	0.06277957
118	0x3d2c7557	0.04210409
119	0x3d5254b6	0.051350318
120	0xbd7bb65f	-0.06145322
121	0x3c5037d9	0.012708628
122	0x3d5a12ad	0.053240467
123	0xbd3876f6	-0.045035325
124	0x3d188692	0.03723771
125	0xbd160fb9	-0.036636088
126	0xbd3e87ae	-0.046516113
127	0xbb6e7991	-0.0036388377
128	0x3d834ce5	0.06411151
129	0xbcb0c4b2	-0.021578167
130	0xbccd7f47	-0.025085105
131	0xbb95743c	-0.0045609754
132	0x3bc22c74	0.0059257094
133	0xbd8563ed	-0.065132
134	0x3bd92c80	0.0066276193
135	0xbc1ba5e5	-0.009500002
136	0xbc421808	-0.01184655
137	0x3c4fbdbb	0.012679513
138	0x3cda99cc	0.026684664
139	0x3ce11fb6	0.027480941
140	0x3c9fc4d9	0.019503044
141	0xbc4c7c0f	-0.01248075
142	0xbaaac6fb	-0.0013029272
143	0x3b34b023	0.0027570806
144	0xbce225f0	-0.02760598
145	0x3d1a1e41	0.03762651
146	0x3bd98e28	0.006639261
147	0xbd0568fc	-0.032570824
148	0x3c1761d6	0.0092396345
149	0x3d2b13de	0.041766994
150	0x3d075f38	0.033049792
151	0x3d879a7b	0.06621262
152	0x3d27157c	0.040791973
153	0x3d6ca772	0.057776876
154	0xbd990c3b	-0.07473036
155	0x3d079d76	0.03310915
156	0x3d4fffee	0.050781183
157	0xbcd21fca	-0.025649924
158	0x3d625a36	0.055261813
159	0xbcf493f2	-0.029855702
160	0xbd5c8586	-0.053838275
161	0x3ca7f218	0.020501181
162	0xbbdd24b0	-0.0067487583
163	0xbcbe6be2	-0.023244802
164	0xbd27f297	-0.041002836
165	0xbd130e19	-0.035902116
166	0xbcb20836	-0.02173243
167	0x3c26bfa8	0.01017753
168	0xbd429159	-0.047501896
169	0xbd14264b	-0.03616933
170	0xbca334f9	-0.01992272
171	0xbd830fe2	-0.06399514
172	0xbce8455e	-0.02835339
173	0x3d6533bc	0.05595754
174	0xbd96f02b	-0.07370027
175	0xb9188cc4	-0.00014548289
176	0x3d1127c0	0.0354383
177	0x3d773d36	0.06036111
178	0xbd440bcb	-0.04786281
179	0xbd831f69	-0.064024754
180	0xbd1906a0	-0.037359834
181	0x3d905492	0.070473805
182	0x3c30faaa	0.0108019505
183	0xbd853406	-0.06504063
184	0x3d0c5f70	0.034270704
185	0xbd48e869	-0.04904977
186	0xbd53304f	-0.051559743
187	0x3d41c190	0.047303736
188	0xbcb8cd38	-0.022558793
189	0xbd2e1ab8	-0.04250595
190	0xbd157bf3	-0.03649516
191	0xbc3cddd5	-0.011527498
192	0x3d463d0c	0.048398063
193	0x3d849236	0.064732
194	0xbd57b052	-0.052658387
195	0xbc15e0db	-0.009147848
196	0xbd84b452	-0.06479706
197	0x3d783942	0.06060148
198	0xbd5f03ed	-0.054447103
199	0x3ca63503	0.02028895
200	0x3ce96a6b	0.028493127
201	0xbd986a4d	-0.0744215
202	0xbd99885f	-0.07496714
203	0xbcad87de	-0.02118295
204	0xbca8c051	-0.020599516
205	0x3d85e67a	0.065381005
206	0xbca9c62c	-0.020724379
207	0xbc6c8f31	-0.014438436
208	0xbc8b12e1	-0.016976776
209	0x3c51bc36	0.012801221
210	0xbd488658	-0.048956245
211	0x3ab6037d	0.0013886538
212	0x3d866cd2	0.065637246
213	0x3be672df	0.0070327367
214	0x3c9b34db	0.018946102
215	0x3d385372	0.045001455
216	0xbbeca960	-0.0072223395
217	0xbd77c20a	-0.060487784
218	0xbd87d272	-0.06631936
219	0x3c47ae5e	0.0121875685
220	0xba461fad	-0.00075578206
221	0x3c901c99	0.017591761
222	0x3d5d0d0b	0.053967517
223	0x3caa58d2	0.020794306
224	0xbd8e89fc	-0.06959912
225	0xbd4f5329	-0.050616417
226	0x3d54d3c9	0.051959787
227	0xbcc7e7d9	-0.024402546
228	0xbd37eda9	-0.044904385
229	0x3d0a3f4a	0.033751763
230	0x3c0ba6d7	0.008523664
231	0x3c16911c	0.00918987
232	0x3ceb015b	0.02868717
233	0xbc1c9489	-0.009556898
234	0x3d31a6ad	0.043371845
235	0xbd91de94	-0.071225315
236	0xbd9b2a0d	-0.0757638
237	0xbd6f677c	-0.0584483
238	0xbd85a070	-0.06524742
239	0xbd8d9ab3	-0.06914272
240	0xbcd25326	-0.025674414
241	0xbd80f8c4	-0.06297448
242	0x3cbd07cd	0.023075009
243	0x3d8c8e56	0.06863086
244	0x3cf7acb1	0.030233713
245	0x3bb50cce	0.005525208
246	0xb98ba1b9	-0.0002663264
247	0x3d72cc52	0.059276886
248	0x3d93e371	0.072211154
249	0x3d6996ba	0.05702851
250	0x3d7f6292	0.062349863
251	0xbd75b875	-0.059990365
252	0x3cf3e74d	0.029773379
253	0x3d4f85dd	0.05066477
254	0x3d9613ac	0.07327971
255	0xbd4d6197	-0.050141897

convs.0.fc_full.bias f4 [128]
0	0xbcfaddac	-0.03062328
1	0x3d5f9462	0.05458487
2	0x3c8f5118	0.017494723
3	0xbb7575c0	-0.0037454218
4	0xbcfa7f3c	-0.030578248
5	0xbcef7d46	-0.02923454
6	0x3d20ed10	0.03928858
7	0x3d6f7636	0.058462344
8	0x3d7415f2	0.05959124
9	0xbca6a180	-0.020340681
10	0x3c6b1328	0.014347829
11	0x3c8f3f30	0.017486185
12	0xbd5d671c	-0.05405341
13	0xb965dc00	-0.00021921098
14	0x3d0b7c18	0.034053892
15	0xbd77a3c6	-0.06045892
16	0xbce6614a	-0.028122563
17	0xbd986627	-0.07441359
18	0xbd8c3049	-0.06845147
19	0x3d91a613	0.07111754
20	0x3c305df0	0.010764584
21	0xbd24444d	-0.0401042
22	0xbc20e5e0	-0.0098204315
23	0xbd718216	-0.05896195
24	0x3c8c4fec	0.017127953
25	0x3d48f89a	0.04906521
26	0x3d90fa9d	0.07079051
27	0xbd220048	-0.03955105
28	0xbd9b6f94	-0.07589641
29	0x3cf1312c	0.029442392
30	0xbd36baaf	-0.04461163
31	0xbd5ab980	-0.053399563
32	0xbcdf4c46	-0.02725805
33	0xbc8b7ae2	-0.017026369
34	0x3a812000	0.0009851456
35	0x3ce8a354	0.028398193
36	0xbd31f088	-0.04344228
37	0xbb41b340	-0.0029556304
38	0xbcc783bc	-0.024354808
39	0xbcf05b24	-0.029340334
40	0x3d9a5fb9	0.07537789
41	0xbd25d965	-0.040490527
42	0x3ce892f0	0.028390378
43	0xbca56428	-0.02018936
44	0x3d095c86	0.033535503
45	0xbd937759	-0.07200498
46	0xbd1d3152	-0.038377114
47	0xbc8ed540	-0.01743567
48	0xbd884fa2	-0.06655814
49	0x3d6c0c2e	0.057628803
50	0xbc4440f8	-0.01197838
51	0x3d270eba	0.04078553
52	0x3c3553b8	0.011067323
53	0x3ca71540	0.020395875
54	0xbce55228	-0.027993277
55	0x3d32a0ec	0.0436105
56	0x3d5b26b2	0.0535037
57	0x3c63b050	0.013897017
58	0x3d81004d	0.062988855
59	0xba7cf302	-0.0009649248
60	0x3ca1510c	0.019691966
61	0x3d150f00	0.03639126
62	0xbd0d0916	-0.034432493
63	0xbcd07468	-0.025446132
64	0xbcc3eb9e	-0.023916062
65	0xbd2d6fd4	-0.042342976
66	0xbd202885	-0.039101142
67	0xbcee2ef6	-0.029075127
68	0xbcc80d14	-0.024420299
69	0x3d6dc60e	0.058050208
70	0xbd1d36f7	-0.038382497
71	0xbd967032	-0.07345618
72	0xbd1e9068	-0.038711935
73	0xbd902a3a	-0.07039304
74	0x3d5d5642	0.05403734
75	0x3caee040	0.021347165
76	0xbd961158	-0.07327527
77	0xbc910c0a	-0.017705936
78	0x3c5844e0	0.013200015
79	0x3d28acf6	0.041180573
80	0xbd5737a8	-0.052543312
81	0xbd59dbc8	-0.053188115
82	0x3d87086b	0.065934025
83	0x3d2f5292	0.042803355
84	0xbd65bd39	-0.05608866
85	0x3d73b682	0.059500225
86	0x3bfd61c0	0.0077326
87	0x3ce81e44	0.028334744
88	0x3d0d4ba6	0.034495972
89	0xbd586516	-0.052830778
90	0xbd270e68	-0.040785223
91	0x3d44e8f0	0.04807371
92	0x3d30837e	0.04309415
93	0x3c6c4850	0.0144215375
94	0x3d0f2a40	0.034952402
95	0xbd965afe	-0.07341574
96	0x3cd35f6c	0.025802337
97	0xbd392ed9	-0.045210693
98	0xbd251448	-0.040302545
99	0x3d5295ee	0.051412515
100	0x3d8bf4e1	0.06833816
101	0xbd9565f6	-0.07294838
102	0x3c44a4d0	0.012002185
103	0xbd611e54	-0.054960564
104	0x3cfd4bfc	0.030920021
105	0xbd918688	-0.07105738
106	0xbbeb7710	-0.007185824
107	0x3d39edf2	0.045392938
108	0xbd80663e	-0.06269501
109	0xbd882cea	-0.06649192
110	0xbc77d064	-0.015125368
111	0xbd8eb009	-0.0696717
112	0x3d0556f4	0.032553628
113	0x3bd7fb70	0.006591253
114	0xbd4d4ed0	-0.05012399
115	0xbcc26246	-0.023728501
116	0x3d97165d	0.07377312
117	0x3d0590b4	0.032608703
118	0xbd962667	-0.073315434
119	0x3bdf6940	0.0068179667
120	0xbd1fa4f7	-0.038975682
121	0x3d8c2d87	0.06844621
122	0x3c256d88	0.010096915
123	0xbd54f536	-0.051991664
124	0x3d426e56	0.047468506
125	0xbd54f6cd	-0.05199318
126	0xbd8b49f5	-0.068012156
127	0x3d168bd6	0.03675445

convs.0.bn1.weight f4 [128]
0	0x3f7ffffb	0.9999997
1	0x3f800004	1.0000005
2	0x3f7ffffd	0.9999998
3	0x3f7fffeb	0.99999875
4	0x3f800005	1.0000006
5	0x3f7ffffb	0.9999997
6	0x3f800000	1.0
7	0x3f800003	1.0000004
8	0x3f800000	1.0
9	0x3f7ffff3	0.9999992
10	0x3f7ffffd	0.9999998
11	0x3f800006	1.0000007
12	0x3f800001	1.0000001
13	0x3f800000	1.0
14	0x3f800000	1.0
15	0x3f7ffff7	0.99999946
16	0x3f800001	1.0000001
17	0x3f7ffffd	0.9999998
18	0x3f7ffffb	0.9999997
19	0x3f800004	1.0000005
20	0x3f800001	1.0000001
21	0x3f800003	1.0000004
22	0x3f800004	1.0000005
23	0x3f800007	1.0000008
24	0x3f7ffff4	0.9999993
25	0x3f7ffffa	0.99999964
26	0x3f800001	1.0000001
27	0x3f800002	1.0000002
28	0x3f800000	1.0
29	0x3f7ffff7	0.99999946
30	0x3f800001	1.0000001
31	0x3f800000	1.0
32	0x3f800003	1.0000004
33	0x3f800001	1.0000001
34	0x3f7ffffe	0.9999999
35	0x3f7ffffa	0.99999964
36	0x3f800002	1.0000002
37	0x3f800001	1.0000001
38	0x3f800002	1.0000002
39	0x3f7fffe5	0.9999984
40	0x3f7ffffd	0.9999998
41	0x3f7ffffd	0.9999998
42	0x3f7ffffe	0.9999999
43	0x3f800001	1.0000001
44	0x3f800000	1.0
45	0x3f7ffffa	0.99999964
46	0x3f7ffffe	0.9999999
47	0x3f7fffff	0.99999994
48	0x3f7ffffe	0.9999999
49	0x3f7ffffe	0.9999999
50	0x3f7ffff1	0.9999991
51	0x3f7ffffc	0.99999976
52	0x3f800001	1.0000001
53	0x3f800000	1.0
54	0x3f800005	1.0000006
55	0x3f7ffffe	0.9999999
56	0x3f800000	1.0
57	0x3f800001	1.0000001
58	0x3f800001	1.0000001
59	0x3f800001	1.0000001
60	0x3f7ffffc	0.99999976
61	0x3f7ffff6	0.9999994
62	0x3f800005	1.0000006
63	0x3f800007	1.0000008
64	0x3f800001	1.0000001
65	0x3f7ffff9	0.9999996
66	0x3f800001	1.0000001
67	0x3f800006	1.0000007
68	0x3f7ffffc	0.99999976
69	0x3f7fffff	0.99999994
70	0x3f800001	1.0000001
71	0x3f7ffffb	0.9999997
72	0x3f7fffff	0.99999994
73	0x3f800008	1.000001
74	0x3f800001	1.0000001
75	0x3f7ffff4	0.9999993
76	0x3f800001	1.0000001
77	0x3f7fffff	0.99999994
78	0x3f7ffffc	0.99999976
79	0x3f800003	1.0000004
80	0x3f7ffffc	0.99999976
81	0x3f800004	1.0000005
82	0x3f800002	1.0000002
83	0x3f7ffff8	0.9999995
84	0x3f7fffff	0.99999994
85	0x3f7ffffe	0.9999999
86	0x3f7ffff7	0.99999946
87	0x3f7ffff5	0.99999934
88	0x3f800002	1.0000002
89	0x3f800000	1.0
90	0x3f800001	1.0000001
91	0x3f7ffffe	0.9999999
92	0x3f7ffffe	0.9999999
93	0x3f800007	1.0000008
94	0x3f7fffff	0.99999994
95	0x3f800001	1.0000001
96	0x3f7ffffb	0.9999997
97	0x3f7ffffa	0.99999964
98	0x3f800001	1.0000001
99	0x3f800001	1.0000001
100	0x3f800000	1.0
101	0x3f7ffffa	0.99999964
102	0x3f7ffff4	0.9999993
103	0x3f800009	1.0000011
104	0x3f800002	1.0000002
105	0x3f800000	1.0
106	0x3f7ffffe	0.9999999
107	0x3f800000	1.0
108	0x3f7fffff	0.99999994
109	0x3f800005	1.0000006
110	0x3f7fffff	0.99999994
111	0x3f7fffff	0.99999994
112	0x3f800003	1.0000004
113	0x3f800001	1.0000001
114	0x3f800004	1.0000005
115	0x3f800001	1.0000001
116	0x3f800000	1.0
117	0x3f7fffff	0.99999994
118	0x3f7fffee	0.9999989
119	0x3f800005	1.0000006
120	0x3f7ffffc	0.99999976
121	0x3f7ffffc	0.99999976
122	0x3f7ffffa	0.99999964
123	0x3f7ffffc	0.99999976
124	0x3f7ffffc	0.99999976
125	0x3f800005	1.0000006
126	0x3f7ffff7	0.99999946
127	0x3f7fffeb	0.99999875

convs.0.bn1.bias f4 [128]
0	0x3420a961	1.4962781e-07
1	0xb4907c33	-2.6912457e-07
2	0x344c6058	1.903403e-07
3	0x3529ab9e	6.320714e-07
4	0xb50b3421	-5.185739e-07
5	0x33cd4f19	9.560444e-08
6	0xb1ab53a2	-4.986263e-09
7	0xb337ec71	-4.282305e-08
8	0x32b01913	2.0500499e-08
9	0x348c6e4c	2.6157284e-07
10	0x340e920a	1.3277909e-07
11	0xb4e5e624	-4.2822023e-07
12	0xb3ed0f55	-1.10389614e-07
13	0xb33d79c9	-4.4115755e-08
14	0x33835e97	6.117369e-08
15	0xb2d4793d	-2.4735181e-08
16	0xb3fd372e	-1.1791268e-07
17	0x3380b73e	5.993796e-08
18	0x33f156f9	1.1238257e-07
19	0xb4a25c49	-3.0241998e-07
20	0x3392ff8b	6.845138e-08
21	0xb4a234d3	-3.0213286e-07
22	0x3387e972	6.328891e-08
23	0xb3b47a0f	-8.4041055e-08
24	0x3503e9f7	4.9141767e-07
25	0x34a69692	3.1029464e-07
26	0x3403bef8	1.22698e-07
27	0xb47897c1	-2.3152008e-07
28	0x32e859c4	2.7049175e-08
29	0x354cec89	7.6340126e-07
30	0xb4074f6b	-1.2601747e-07
31	0x33133de6	3.42824e-08
32	0xb4809522	-2.3950366e-07
33	0xb4581e69	-2.0127631e-07
34	0x33c01c7f	8.94588e-08
35	0x343da069	1.7660354e-07
36	0xb49ebd6c	-2.9567616e-07
37	0xb22aabb9	-9.934348e-09
38	0xb47b296d	-2.3391267e-07
39	0x351a99f3	5.7593496e-07
40	0x34a13992	3.0030475e-07
41	0x340939fc	1.2780214e-07
42	0x344a5d77	1.8846718e-07
43	0xb409854d	-1.2807614e-07
44	0xb2ee628c	-2.775166e-08
45	0x350b17f4	5.181639e-07
46	0x3400ab54	1.1983258e-07
47	0xb213d460	-8.604815e-09
48	0x339a2a91	7.1789266e-08
49	0x3422d48e	1.5164753e-07
50	0x34da1b10	4.0625355e-07
51	0x3413be5f	1.3759698e-07
52	0xb4a739dc	-3.1148272e-07
53	0xb339620f	-4.3162853e-08
54	0xb4f07843	-4.4790985e-07
55	0x33892300	6.385926e-08
56	0x33168364	3.5044096e-08
57	0xb3e1cdc4	-1.05148075e-07
58	0x32c263e4	2.2629997e-08
59	0xb3f6e106	-1.1496199e-07
60	0x339d58ac	7.3270115e-08
61	0x34a7898a	3.1206247e-07
62	0xb446d426	-1.8517366e-07
63	0xb55d598c	-8.2459223e-07
64	0xb3323412	-4.1491212e-08
65	0x341984ca	1.4297544e-07
66	0xb2ff11d1	-2.9694009e-08
67	0xb44bcd6a	-1.8980577e-07
68	0xb299a551	-1.7886721e-08
69	0x335eb738	5.185504e-08
70	0xb354c1de	-4.9536418e-08
71	0x33e79518	1.0783896e-07
72	0x332d2333	4.0311715e-08
73	0xb49514d7	-2.7768576e-07
74	0x32e46e2e	2.6592797e-08
75	0x34893123	2.555399e-07
76	0xb39546d7	-6.951239e-08
77	0x32c4fe8a	2.2933154e-08
78	0x33422e48	4.5211237e-08
79	0xb3c3366d	-9.090295e-08
80	0x33907d03	6.728262e-08
81	0xb40564d0	-1.2423266e-07
82	0xb3cd5e84	-9.563249e-08
83	0x340cac3c	1.3101175e-07
84	0x330fe5a8	3.3503653e-08
85	0x32841f9d	1.5381199e-08
86	0x34133d91	1.371284e-07
87	0x347ad5a8	2.3360792e-07
88	0x3300217c	2.9832776e-08
89	0xb2421ff3	-1.1299551e-08
90	0xb3303cf4	-4.103363e-08
91	0x336389ee	5.2978002e-08
92	0x3383634b	6.118224e-08
93	0xb4b78666	-3.4184194e-07
94	0x32022f35	7.5777296e-09
95	0xb3bfc710	-8.93034e-08
96	0x33bf237a	8.900584e-08
97	0x341041ff	1.3435054e-07
98	0xb3c9f847	-9.404953e-08
99	0x32cefce0	2.409655e-08
100	0xb19b727b	-4.5241086e-09
101	0x34202d75	1.4917698e-07
102	0x34f815d7	4.620949e-07
103	0xb4936dc6	-2.7460754e-07
104	0xb3eb2432	-1.0949624e-07
105	0xb1ce40ec	-6.00277e-09
106	0x32670d01	1.3448926e-08
107	0x3303bbbd	3.067156e-08
108	0xb21f18ce	-9.260658e-09
109	0xb47e9d4e	-2.371282e-07
110	0x33783333	5.7788565e-08
111	0x33607017	5.225601e-08
112	0xb3cf6369	-9.657271e-08
113	0xb381e3d0	-6.0484695e-08
114	0xb4121465	-1.3604729e-07
115	0xb3687b15	-5.4128652e-08
116	0xb3b5dff6	-8.4692076e-08
117	0xb28486ae	-1.5428068e-08
118	0x34a50faf	3.0745056e-07
119	0xb4951c89	-2.7774175e-07
120	0x33cf2bf1	9.6471815e-08
121	0x33c487f3	9.15169e-08
122	0x339f8817	7.428769e-08
123	0x33e4875f	1.0641701e-07
124	0x33901d91	6.7109006e-08
125	0xb44539f8	-1.8368144e-07
126	0x337e8577	5.926037e-08
127	0x34c7706d	3.714844e-07

convs.0.bn1.running_mean f4 [128]
0	0xbbaee6c5	-0.0053375685
1	0x3c4a86b0	0.012361214
2	0x3b6db8f5	0.0036273573
3	0xbca4cdb1	-0.020117613
4	0x3b4be150	0.0031109639
5	0xbc210ca4	-0.009829674
6	0x3ba2b663	0.00496559
7	0xbbdbf846	-0.006712946
8	0x3b637726	0.003470847
9	0xbb9dd6a7	-0.0048168483
10	0x3bd3165b	0.006441874
11	0xbbcb5ce2	-0.006206141
12	0xbb4a95af	-0.0030911972
13	0xbc6fec05	-0.014643674
14	0x3ba6d1d6	0.0050909324
15	0x3c747c3a	0.014922196
16	0xbc8b51c7	-0.017006768
17	0x3b4fc886	0.0031705215
18	0xbb6cac3e	-0.0036113407
19	0x3c14310e	0.009044899
20	0x3c5b8938	0.013399415
21	0x3c4a5d8c	0.012351405
22	0x3bed906d	0.007249883
23	0xbb804f72	-0.0039157206
24	0xbbedaee5	-0.007253515
25	0xba9237ea	-0.001115558
26	0xbb8da004	-0.004322054
27	0x3b750136	0.0037384755
28	0xbc929318	-0.017892405
29	0xbbdd227d	-0.006748496
30	0xb9ab3c75	-0.00032660706
31	0xba28a720	-0.0006433595
32	0x3c6b116b	0.0143474145
33	0x3c20d6d1	0.009816841
34	0x39ed82fd	0.00045301756
35	0x3c5b3148	0.013378449
36	0xbbddcfb5	-0.0067691454
37	0x38b35320	8.5508684e-05
38	0xbc120749	-0.00891287
39	0x3b039b7a	0.0020081685
40	0x3ca32213	0.019913709
41	0xbaf51cb0	-0.0018700566
42	0xbb9f104d	-0.004854238
43	0x3bc45206	0.0059912233
44	0x3b8f9b61	0.0043825363
45	0xbc0fab3e	-0.008768855
46	0xbb9b2a68	-0.00473528
47	0x3bd53ec8	0.0065077282
48	0x3a4daa33	0.0007845491
49	0xbbdab14b	-0.006673967
50	0x3c484b0a	0.012224922
51	0x3acb1e20	0.0015496649
52	0x3be2a64b	0.0069167963
53	0xba81a2d5	-0.0009890447
54	0x3b05d917	0.0020423585
55	0x3c02f2f2	0.007992493
56	0x3bb4c712	0.005516895
57	0x3c048aae	0.008089704
58	0x3bcb84e6	0.006210911
59	0xbc0c9003	-0.008579257
60	0x3c76c6c0	0.015062034
61	0x3b19ec7a	0.0023486898
62	0xbc556bda	-0.013026202
63	0xbbad50c6	-0.00528917
64	0x3bd9d2f0	0.00664746
65	0xbbb8eac6	-0.0056432215
66	0xbb969cee	-0.004596344
67	0x3b32029f	0.0027162207
68	0xbade63ca	-0.0016966995
69	0x3b4d9c70	0.0031373762
70	0x3b2621a6	0.0025349646
71	0xbbb5995b	-0.005541963
72	0xb992a50a	-0.00027970254
73	0xbbc94205	-0.0061419033
74	0xbbaadf5a	-0.005214614
75	0x3c33c972	0.010973321
76	0x3a8d8586	0.0010797239
77	0x3bd61fb3	0.0065345406
78	0x3bd1e070	0.006404929
79	0x3932c0ca	0.00017047222
80	0xbc731a4d	-0.014837814
81	0xbc65e27b	-0.014031048
82	0x3c8c1576	0.017100077
83	0xbae8ad1a	-0.0017751784
84	0xbc779d3d	-0.015113172
85	0x3ca9c79f	0.02072507
86	0xbbf270e2	-0.0073987106
87	0xba1689fa	-0.0005742606
88	0xbb4ff7be	-0.003173336
89	0xbba14327	-0.0049213353
90	0x3aa55b6d	0.0012615748
91	0xbaf400aa	-0.001861592
92	0x3bd11522	0.006380693
93	0x3ba5c1c7	0.0050585005
94	0xbb33c57a	-0.0027430938
95	0xbc7266b2	-0.014794992
96	0x3c6680f0	0.014068827
97	0x3bc5ec3b	0.0060401238
98	0xbaeffddd	-0.001830991
99	0x3b1bf1d0	0.0023795255
100	0x3bbf21b9	0.0058328775
101	0xbc25ef88	-0.0101279095
102	0xbbd4ceeb	-0.006494393
103	0xbc0bfd5c	-0.008544292
104	0x3b1b2fe9	0.002367968
105	0xbc75c098	-0.014999531
106	0x3bb98cba	0.005662528
107	0xbbd8e0aa	-0.006618579
108	0xbbfc5f56	-0.0077017946
109	0xbb92b73a	-0.0044774087
110	0x3bf684a2	0.0075231353
111	0xbb916b45	-0.0044378364
112	0xbb542875	-0.0032372747
113	0x3abbb57e	0.0014321057
114	0xbc65ad2b	-0.014018337
115	0xbc1664f5	-0.0091793435
116	0x3c851c72	0.016248915
117	0x3c2d4c51	0.010577277
118	0xbb9f7c45	-0.004867109
119	0x3bb5e78b	0.0055512837
120	0xbc02171f	-0.007940083
121	0x39c2ef0b	0.00037180664
122	0xbbb6490a	-0.005562906
123	0x3b3ecba5	0.002911308
124	0x3c9251f0	0.017861336
125	0xbaddf83a	-0.0016934939
126	0xbc9be2c2	-0.019029025
127	0xba76e745	-0.0009418617

convs.0.bn1.running_var f4 [128]
0	0x3f667786	0.9002613
1	0x3f66ff62	0.90233433
2	0x3f6693f4	0.9006951
3	0x3f669a6c	0.9007938
4	0x3f66a163	0.90090007
5	0x3f66bdb3	0.9013321
6	0x3f667f86	0.90038335
7	0x3f6688c0	0.90052414
8	0x3f66925d	0.9006708
9	0x3f669f10	0.9008646
10	0x3f669f36	0.90086687
11	0x3f66a5da	0.9009682
12	0x3f667e4d	0.9003647
13	0x3f66a22d	0.9009121
14	0x3f66903a	0.9006382
15	0x3f667dcd	0.90035707
16	0x3f66969f	0.9007358
17	0x3f669ecc	0.90086055
18	0x3f668e31	0.90060717
19	0x3f668487	0.9004597
20	0x3f66b1fa	0.9011532
21	0x3f669e2c	0.900851
22	0x3f66785b	0.900274
23	0x3f66bb39	0.9012943
24	0x3f6683fe	0.90045154
25	0x3f667a7b	0.9003064
26	0x3f669635	0.9007295
27	0x3f6679eb	0.9002978
28	0x3f6675cc	0.90023494
29	0x3f668279	0.90042835
30	0x3f66a41a	0.9009415
31	0x3f668986	0.90053594
32	0x3f669d99	0.90084225
33	0x3f668bc4	0.90057015
34	0x3f66a88f	0.9010095
35	0x3f668e0f	0.90060514
36	0x3f6688b9	0.9005237
37	0x3f66a705	0.900986
38	0x3f66c1ac	0.9013927
39	0x3f66c130	0.9013853
40	0x3f6687a8	0.90050745
41	0x3f668956	0.9005331
42	0x3f668c30	0.9005766
43	0x3f667ed0	0.9003725
44	0x3f66b6ac	0.90122485
45	0x3f66a87d	0.9010084
46	0x3f668c35	0.9005769
47	0x3f66af98	0.90111685
48	0x3f66b9fe	0.9012755
49	0x3f668b26	0.90056074
50	0x3f667d9b	0.9003541
51	0x3f667c3a	0.90033305
52	0x3f66a83f	0.90100473
53	0x3f66a182	0.9009019
54	0x3f667d34	0.90034795
55	0x3f66a4ac	0.9009502
56	0x3f66a045	0.900883
57	0x3f669889	0.900765
58	0x3f66aeeb	0.90110654
59	0x3f6687ab	0.9005076
60	0x3f66c88a	0.9014975
61	0x3f66a36f	0.9009313
62	0x3f66fae5	0.90226585
63	0x3f66928d	0.9006737
64	0x3f668eb9	0.9006153
65	0x3f6677cd	0.9002655
66	0x3f668126	0.90040815
67	0x3f669da8	0.90084314
68	0x3f669372	0.90068734
69	0x3f669cd8	0.90083075
70	0x3f668402	0.9004518
71	0x3f66a971	0.901023
72	0x3f667efb	0.90037507
73	0x3f668bdd	0.90057164
74	0x3f66953c	0.90071464
75	0x3f669908	0.9007726
76	0x3f6681c9	0.90041786
77	0x3f667b9f	0.9003238
78	0x3f669a27	0.9007897
79	0x3f66a092	0.9008876
80	0x3f66a09a	0.9008881
81	0x3f667977	0.9002909
82	0x3f66a2ff	0.9009246
83	0x3f668691	0.9004908
84	0x3f669da7	0.9008431
85	0x3f66998b	0.9007804
86	0x3f66b840	0.90124893
87	0x3f66b33d	0.90117246
88	0x3f66912c	0.90065265
89	0x3f66b1f1	0.9011527
90	0x3f66a554	0.9009602
91	0x3f669a20	0.90078926
92	0x3f66a4c9	0.9009519
93	0x3f66a945	0.90102035
94	0x3f669ae2	0.9008008
95	0x3f668990	0.90053654
96	0x3f669954	0.9007771
97	0x3f668826	0.90051496
98	0x3f668018	0.90039206
99	0x3f66798d	0.9002922
100	0x3f669e96	0.9008573
101	0x3f668e43	0.90060824
102	0x3f669037	0.90063804
103	0x3f66d22d	0.9016445
104	0x3f66d3b4	0.90166783
105	0x3f66b5c3	0.90121096
106	0x3f669266	0.90067136
107	0x3f66763a	0.9002415
108	0x3f6696c0	0.90073776
109	0x3f668ba2	0.9005681
110	0x3f669e66	0.90085447
111	0x3f670302	0.90238965
112	0x3f66a033	0.90088195
113	0x3f669204	0.9006655
114	0x3f669d55	0.9008382
115	0x3f66b191	0.90114695
116	0x3f6696dd	0.9007395
117	0x3f669486	0.9007038
118	0x3f6697eb	0.9007556
119	0x3f668ac0	0.90055466
120	0x3f66cbfc	0.90155005
121	0x3f667e08	0.9003606
122	0x3f66cb3a	0.9015385
123	0x3f66a520	0.9009571
124	0x3f669a2a	0.90078986
125	0x3f66b417	0.90118545
126	0x3f668382	0.90044415
127	0x3f66a049	0.90088326

convs.0.bn2.weight f4 [64]
0	0x3f800000	1.0
1	0x3f7ffff6	0.9999994
2	0x3f7ffff6	0.9999994
3	0x3f7ffff4	0.9999993
4	0x3f80000d	1.0000015
5	0x3f7ffff2	0.99999917
6	0x3f80000c	1.0000014
7	0x3f7fffee	0.9999989
8	0x3f7fffe7	0.9999985
9	0x3f80000f	1.0000018
10	0x3f7fffe7	0.9999985
11	0x3f7fffe2	0.9999982
12	0x3f800005	1.0000006
13	0x3f800006	1.0000007
14	0x3f800010	1.0000019
15	0x3f800006	1.0000007
16	0x3f800000	1.0
17	0x3f7fffd4	0.9999974
18	0x3f7ffff5	0.99999934
19	0x3f800005	1.0000006
20	0x3f7fffff	0.99999994
21	0x3f800001	1.0000001
22	0x3f80000c	1.0000014
23	0x3f800010	1.0000019
24	0x3f7fffc5	0.9999965
25	0x3f800004	1.0000005
26	0x3f800009	1.0000011
27	0x3f800002	1.0000002
28	0x3f800000	1.0
29	0x3f80000f	1.0000018
30	0x3f800006	1.0000007
31	0x3f80000a	1.0000012
32	0x3f800004	1.0000005
33	0x3f7fffdd	0.9999979
34	0x3f800004	1.0000005
35	0x3f7ffff7	0.99999946
36	0x3f80000c	1.0000014
37	0x3f7ffff2	0.99999917
38	0x3f7fffe9	0.9999986
39	0x3f7fffcd	0.99999696
40	0x3f7ffff1	0.9999991
41	0x3f7ffffb	0.9999997
42	0x3f7fffe7	0.9999985
43	0x3f800005	1.0000006
44	0x3f7ffff9	0.9999996
45	0x3f7ffff5	0.99999934
46	0x3f800009	1.0000011
47	0x3f7fffe9	0.9999986
48	0x3f7ffff5	0.99999934
49	0x3f800013	1.0000023
50	0x3f7ffff3	0.9999992
51	0x3f800004	1.0000005
52	0x3f80000b	1.0000013
53	0x3f7ffff7	0.99999946
54	0x3f7fffff	0.99999994
55	0x3f800005	1.0000006
56	0x3f800003	1.0000004
57	0x3f800001	1.0000001
58	0x3f7fffcc	0.9999969
59	0x3f80000b	1.0000013
60	0x3f7fffef	0.999999
61	0x3f7ffff4	0.9999993
62	0x3f800005	1.0000006
63	0x3f7fffe5	0.9999984

convs.0.bn2.bias f4 [64]
0	0xb4486e4b	-1.8666576e-07
1	0xb40b970f	-1.3000339e-07
2	0xb54503e3	-7.3393875e-07
3	0x34f4ab10	4.5573006e-07
4	0xb4c2d66b	-3.6291326e-07
5	0x34586f5a	2.0157077e-07
6	0x352d87db	6.464522e-07
7	0x3478f364	2.3185345e-07
8	0xb5b517a5	-1.3492432e-06
9	0x356a87f3	8.7369625e-07
10	0xb3de3ab3	-1.0348358e-07
11	0xb5adec5f	-1.2958297e-06
12	0x3574a196	9.113222e-07
13	0x34089f95	1.2724043e-07
14	0x3541963c	7.211672e-07
15	0x34d92dc2	4.0452693e-07
16	0xb3ba4b90	-8.675045e-08
17	0xb5ea6220	-1.7462917e-06
18	0xb4868f63	-2.5063773e-07
19	0xb4edcfc1	-4.429585e-07
20	0xb49b1642	-2.8887195e-07
21	0xb4baffff	-3.4831461e-07
22	0x35be5c97	1.418305e-06
23	0x3536207d	6.784756e-07
24	0xb4b90f74	-3.447018e-07
25	0x33fc14b9	1.1738434e-07
26	0x34f3e7e4	4.5431e-07
27	0xb44103be	-1.7975887e-07
28	0x34e85c90	4.3280716e-07
29	0x3518df9b	5.69498e-07
30	0x34f3dc2f	4.5422482e-07
31	0x3563cc09	8.4861e-07
32	0xb3caba9a	-9.4403006e-08
33	0xb6072050	-2.0135376e-06
34	0xb3e17522	-1.0498685e-07
35	0xb48d061b	-2.626774e-07
36	0x352bad32	6.3954496e-07
37	0xb539ccdd	-6.9215986e-07
38	0xb463d5f5	-2.121886e-07
39	0xb5d6bacf	-1.5998611e-06
40	0xb58a43f9	-1.0301584e-06
41	0x34de936b	4.1457983e-07
42	0xb579890e	-9.295917e-07
43	0x35077cd8	5.047309e-07
44	0xb30a5689	-3.2209332e-08
45	0xb5101981	-5.3681293e-07
46	0x35d271ca	1.5679336e-06
47	0xb4bfbb93	-3.5713e-07
48	0xb2fdb5b2	-2.9535702e-08
49	0x35e44f0c	1.7010329e-06
50	0xb502682a	-4.858035e-07
51	0x3550eb9c	7.7828895e-07
52	0x354531ca	7.346067e-07
53	0x357396c3	9.074394e-07
54	0x35207a12	5.978228e-07
55	0xb4e6c7b4	-4.2986142e-07
56	0x342599eb	1.5422818e-07
57	0xb331f1b7	-4.1430862e-08
58	0xb5b803d7	-1.3710186e-06
59	0xb4cd46db	-3.823578e-07
60	0xb52fd7c1	-6.5506543e-07
61	0xb57ae85f	-9.34704e-07
62	0xb38d95ae	-6.593051e-08
63	0xb5842599	-9.845709e-07

convs.0.bn2.running_mean f4 [64]
0	0x3ee76b96	0.4519927
1	0x3eee1e78	0.4650762
2	0x3ee28aa3	0.44246396
3	0x3ed3bab3	0.41353378
4	0x3efa879d	0.4893159
5	0x3ef80fd6	0.48449582
6	0x3f0d076e	0.5508946
7	0x3ef47d85	0.47752014
8	0x3f02fd03	0.51167315
9	0x3ed74f00	0.4205246
10	0x3f037363	0.5134794
11	0x3ef2027e	0.47267526
12	0x3ee8ab9b	0.45443425
13	0x3f133b4a	0.5751234
14	0x3eedce52	0.46446472
15	0x3ec5a07c	0.38599002
16	0x3f0649da	0.5245644
17	0x3f01a792	0.50646317
18	0x3ee5a98a	0.4485591
19	0x3ef6080a	0.48053008
20	0x3eff398a	0.49848586
21	0x3ef0060b	0.4687961
22	0x3ee55ee5	0.4479896
23	0x3ed8284b	0.4221824
24	0x3efdc8f5	0.4956738
25	0x3efd2d7a	0.49448758
26	0x3ef0c6b0	0.47026587
27	0x3ef7b805	0.48382583
28	0x3f094e59	0.53635174
29	0x3f10c893	0.5655605
30	0x3f0834e2	0.5320569
31	0x3edaecbb	0.42758736
32	0x3ee6b735	0.4506165
33	0x3f0284da	0.50983965
34	0x3f0a9c90	0.54145145
35	0x3ee785ae	0.45219177
36	0x3eeb2fd6	0.45934933
37	0x3ef39412	0.47573906
38	0x3ee4307d	0.44568244
39	0x3ee9c3b3	0.4565712
40	0x3ee04c0b	0.43808016
41	0x3f0dbdc3	0.5536768
42	0x3f041d0e	0.51606834
43	0x3f01d0bf	0.50709146
44	0x3ed99cae	0.4250235
45	0x3ed8474b	0.42241892
46	0x3ef692d3	0.48158893
47	0x3eef44bb	0.46732125
48	0x3f086f99	0.53295285
49	0x3f01bd82	0.5067979
50	0x3ee99e48	0.45628572
51	0x3ef004f3	0.46878776
52	0x3f0565d2	0.5210849
53	0x3ef3b7d5	0.4760119
54	0x3edb15b0	0.42789984
55	0x3f059763	0.5218412
56	0x3f04a544	0.51814675
57	0x3f017d06	0.50581396
58	0x3ef5e6da	0.48027688
59	0x3edcec8e	0.43149227
60	0x3ecf2ee0	0.4046545
61	0x3ed8ef05	0.42369857
62	0x3ee613ee	0.4493708
63	0x3efe3c4b	0.49655375

convs.0.bn2.running_var f4 [64]
0	0x3f8f7eb4	1.1210542
1	0x3fa1563e	1.2604444
2	0x3fa6bf70	1.3027172
3	0x3f809c23	1.0047649
4	0x3fcf6963	1.6204036
5	0x3fb624eb	1.4230016
6	0x400a4550	2.1604805
7	0x3fae9f8c	1.364244
8	0x3fd00814	1.6252465
9	0x3f881749	1.0632106
10	0x3fb6e128	1.4287462
11	0x3fb17666	1.3864257
12	0x3fa01b79	1.2508384
13	0x404be82c	3.1860456
14	0x4004991a	2.0718446
15	0x3f7d011f	0.98829836
16	0x3fbd3140	1.4780655
17	0x3fa7f8ab	1.3122762
18	0x3fb7e058	1.4365339
19	0x3f9d954c	1.2311187
20	0x40049679	2.0716841
21	0x3fa5f026	1.2963912
22	0x3f9e1894	1.2351251
23	0x3f850c83	1.0394443
24	0x3ff68c26	1.926152
25	0x3fb6c5c4	1.4279103
26	0x3fa6d3f6	1.3033435
27	0x3fb5e131	1.4209348
28	0x3fb39eb9	1.4032813
29	0x3fc4c54f	1.5372714
30	0x4000def5	2.0136082
31	0x3f9d7ba5	1.2303358
32	0x3fa46d6a	1.284589
33	0x3ff06946	1.8782127
34	0x4028dc60	2.6384506
35	0x3fb32227	1.3994797
36	0x3fdb5ed9	1.713832
37	0x3fa8f855	1.3200785
38	0x3fac8b47	1.3480004
39	0x3fbd38d4	1.4782968
40	0x3fa082c0	1.2539902
41	0x404ac696	3.1683707
42	0x4000a739	2.0102065
43	0x3fab9845	1.3405844
44	0x3fa24a73	1.267897
45	0x3f8932e4	1.0718656
46	0x3f9c1af1	1.2195722
47	0x3f948982	1.1604464
48	0x40084246	2.129045
49	0x3fcf9eec	1.6220374
50	0x3f9461cd	1.1592346
51	0x3fc856d1	1.5651494
52	0x401d307a	2.4560838
53	0x3fe6c3fe	1.8028562
54	0x3f92c380	1.1465912
55	0x3fc223f5	1.5167223
56	0x3fbe2929	1.4856311
57	0x3fd84905	1.6897284
58	0x3f9630ea	1.1733677
59	0x3f9f2c59	1.2435409
60	0x3f8fe612	1.1242087
61	0x3f939c44	1.1532063
62	0x3fb6055a	1.4220383
63	0x3fc6b361	1.5523492

convs.1.fc_full.weight f4 [128, 169]
0	0x3d22c4fe	0.039738648
1	0xbd57b143	-0.052659284
2	0x3c631ce4	0.0138618685
3	0xbd804173	-0.062624834
4	0x3d01047e	0.031498425
5	0xbcadff86	-0.021240007
6	0xbb8d5e69	-0.004314233
7	0xbc675e7b	-0.014121647
8	0xbd263e98	-0.040587038
9	0x3d90bf97	0.07067793
10	0xbce4c68d	-0.027926708
11	0xbc411952	-0.011785822
12	0x3d08ed69	0.033429537
13	0x3d26cee9	0.04072467
14	0xbc99f11f	-0.018791733
15	0xbc996b6d	-0.018727982
16	0xba6f7c5b	-0.0009135657
17	0x3d604697	0.05475482
18	0x3c22446e	0.00990401
19	0xbd2b5bbf	-0.041835543
20	0xbc1230ef	-0.0089227995
21	0xbcb16660	-0.021655262
22	0x3d00e212	0.031465597
23	0x3b201559	0.0024426787
24	0xbc313930	-0.010816857
25	0xbd7dc0ff	-0.061951634
26	0xbca53651	-0.020167502
27	0x3c23243e	0.009957371
28	0xbc7d2581	-0.015450836
29	0xbd047f90	-0.032348216
30	0x3c4dc284	0.012558583
31	0x3d064e0e	0.032789283
32	0x3d113673	0.035452317
33	0x3c82d5ca	0.015971083
34	0xbd63746f	-0.05553096
35	0xbd25cbaf	-0.04047745
36	0x3d47b6aa	0.048758186
37	0xbd507e1d	-0.05090152
38	0x3d686121	0.056733254
39	0xbd1fd65c	-0.03902279
40	0x3d632168	0.05545178
41	0xba3feb98	-0.0007321178
42	0x3d96eb86	0.07369141
43	0xbcbe5c1c	-0.02323728
44	0xbccc762c	-0.024958692
45	0x3d30a543	0.043126356
46	0xbc107706	-0.00881744
47	0xbd5cbd69	-0.053891573
48	0xbc06bdf9	-0.008224004
49	0x3ca7849f	0.02044898
50	0xbd07a776	-0.033118688
51	0x3c9db06f	0.01924917
52	0xbd8b855a	-0.06812544
53	0x3d77b5cf	0.06047612
54	0x3ccde6b8	0.02513443
55	0xbd1500d4	-0.036377743
56	0x3d3c13c6	0.045917295
57	0x3d73d57a	0.05952976
58	0x3d327653	0.043569874
59	0x3d4fd0ac	0.050736114
60	0x3babc322	0.0052417675
61	0xbd8edfc0	-0.06976271
62	0xbd91351b	-0.07090207
63	0x3c35a939	0.011087709
64	0xbd167627	-0.036733773
65	0xbd609a23	-0.054834496
66	0xbd885d77	-0.06658452
67	0x3c66c6fe	0.014085529
68	0xbd88b7c5	-0.06675676
69	0x3d85176c	0.06498608
70	0x3ba06a68	0.004895497
71	0xbd459a2b	-0.04824273
72	0xbd88d22a	-0.066807106
73	0xbd6bd5e4	-0.05757703
74	0xbd5b982d	-0.053611923
75	0x3b645b9b	0.003484464
76	0x3b750443	0.0037386573
77	0x3c78a4ab	0.015175979
78	0xbaa1990d	-0.0012328938
79	0x3bbc8afa	0.005753872
80	0xbd125298	-0.0357233
81	0xbd43c697	-0.047796812
82	0xbd5da869	-0.054115687
83	0x3d9a83ec	0.07544693
84	0x3d683056	0.05668672
85	0x3d038aa5	0.032114644
86	0xbd0bc6a2	-0.034124978
87	0xbd852eb0	-0.065030456
88	0x3ca3056f	0.019900052
89	0xbcfb610d	-0.030685926
90	0xbd2c2bc8	-0.04203394
91	0x3c7219dc	0.014776673
92	0xbd09eace	-0.033671193
93	0xbcc54452	-0.02408043
94	0x3d492802	0.04911042
95	0x3d77154a	0.060323037
96	0x3d382f61	0.04496706
97	0x3c64a3ea	0.013955096
98	0x3d4e651e	0.0503894
99	0xbd825734	-0.06364289
100	0xbd95cc41	-0.07314349
101	0xbd8325a8	-0.06403667
102	0x3d026bfe	0.03184127
103	0x3d4d969d	0.050192464
104	0xbd6d8af0	-0.05799383
105	0x3c9d5aad	0.019208277
106	0xbd822f57	-0.063566856
107	0x3b0d610a	0.0021572732
108	0x3c4bce7e	0.012439368
109	0x3d980122	0.07422091
110	0x3d9a7a85	0.075429
111	0xbd26ab87	-0.040690925
112	0xbcfcd3d3	-0.030862724
113	0x3d887c13	0.0666429
114	0x3d3d9556	0.046284996
115	0xbce0ee81	-0.027457478
116	0x3d260ae3	0.040537726
117	0xbbcf6f3e	-0.0063304
118	0x3d765379	0.0601382
119	0xbd4f4ed3	-0.050612282
120	0xbc8d5805	-0.017253885
121	0x3c895c6c	0.016767703
122	0xbc316866	-0.010828113
123	0xbd3688aa	-0.044563927
124	0x3bd5bc83	0.0065227165
125	0xbd8e5ee5	-0.069516934
126	0x3d2f7c0e	0.042842917
127	0x3cf0be59	0.02938764
128	0x3c134ca0	0.008990437
129	0xba302f67	-0.00067209307
130	0xbd5c6b24	-0.053813115
131	0xbd86ad03	-0.06575968
132	0xbd5db829	-0.054130707
133	0xbbf70d71	-0.007539444
134	0xbd187bb0	-0.037227333
135	0xbd0ceb56	-0.03440412
136	0x3c99a5d6	0.018755835
137	0xbd90479c	-0.070449084
138	0xbd9058a3	-0.07048156
139	0x3d95440c	0.072883695
140	0x3d360abf	0.044443842
141	0x3cd99dcd	0.026564503
142	0xbd8f28b1	-0.06990183
143	0xbce7472c	-0.02823218
144	0xbceb6a7c	-0.0287373
145	0x3c2eef9e	0.010677246
146	0x3d34fa22	0.044183858
147	0xbd9724ca	-0.07380064
148	0xbc9322bc	-0.017960899
149	0x3d410b61	0.047129992
150	0xbc217b28	-0.009856023
151	0x3b333480	0.0027344525
152	0x3d2ffca2	0.04296554
153	0xbc8c20f2	-0.017105553
154	0x3b3fb740	0.0029253513
155	0xbd37fcca	-0.044918813
156	0xbd31c08d	-0.04339652
157	0xbca4a322	-0.020097319
158	0x3d9a908d	0.07547102
159	0xbd8b2064	-0.067932874
160	0xbd2ffcdc	-0.042965755
161	0xbafaf440	-0.0019146279
162	0x3d208aa8	0.039194733
163	0xbb4a19e0	-0.0030838177
164	0xbd3f2d7c	-0.046674237
165	0x3d10a492	0.035313196
166	0x3d7d2b5a	0.06180892
167	0x3d8c36c3	0.068463825
168	0xbcbc67bc	-0.022998683
169	0x3cfd5d5e	0.03092831
170	0xbc484e8e	-0.01222576
171	0xb9e05bbe	-0.00042792963
172	0x3d8159ce	0.06315957
173	0x3d70fd3c	0.058835253
174	0x3d47cf94	0.048781946
175	0xbca8279d	-0.020526702
176	0x3caf873a	0.021426786
177	0xbd3db724	-0.046317235
178	0xbcb1909e	-0.021675404
179	0xbd4eaca2	-0.050457604
180	0xbc2557eb	-0.010091762
181	0x3c095d89	0.008384117
182	0x3a843802	0.0010087492
183	0xbd5f03fe	-0.054447167
184	0xbd5bf3b9	-0.05369923
185	0x3c9cffbd	0.019164914
186	0xbb1f7596	-0.0024331561
187	0xbcaccf0c	-0.021094821
188	0xbd7f358d	-0.06230693
189	0x3c8ea0e1	0.017410697
190	0xbd6af0db	-0.057358604
191	0xbd821ed8	-0.06353539
192	0xbd5cc510	-0.05389887
193	0xbc607212	-0.0136990715
194	0x3d9aa8b3	0.07551708
195	0xbbec4668	-0.0072105415
196	0x3d74b0a6	0.059738778
197	0xbd109749	-0.035300527
198	0xbcfe8363	-0.03106851
199	0xbd915818	-0.07096881
200	0xbd8a2a6f	-0.06746375
201	0xbd3e3a84	-0.046442524
202	0x3d178807	0.03699496
203	0x3d9b0c64	0.07570723
204	0x3d65a8bb	0.056069117
205	0x3cada421	0.021196427
206	0xbd4b9a0c	-0.049707457
207	0xbd10d4ac	-0.03535907
208	0x3ce9a54c	0.028521203
209	0x3c23aac9	0.009989449
210	0xbb7e7bc4	-0.0038831094
211	0x3d09346b	0.033497255
212	0x3d2ea098	0.042633623
213	0x3d1fce86	0.039015315
214	0x3be2bbb8	0.0069193505
215	0x3cc58fad	0.024116362
216	0xbc93725d	-0.017998869
217	0x3d541fc7	0.051788118
218	0xbd339940	-0.043847322
219	0x3d4186cd	0.047247697
220	0xbcbe7158	-0.023247406
221	0x3c12eb71	0.008967266
222	0xbd8b6f77	-0.068083696
223	0xbd8a60c2	-0.06756736
224	0x3ab97c02	0.0014151337
225	0xbcce5159	-0.025185274
226	0x3ba8790a	0.005141382
227	0xbc958d02	-0.018255714
228	0x3cfe3a4c	0.031033657
229	0x3cffa353	0.031205809
230	0x3d427542	0.047475107
231	0x3d87d528	0.06632453
232	0x3d15cfbc	0.036575064
233	0x3c521cb7	0.012824229
234	0xbca6f8ec	-0.020382367
235	0x3d312b5a	0.043254234
236	0x3d8bef22	0.0683272
237	0xbc964dd8	-0.018347666
238	0xbd01f2c1	-0.03172565
239	0x3b9884b7	0.0046544927
240	0xbd5a6b4b	-0.05332498
241	0x3d321f50	0.043486893
242	0xbc026fdb	-0.007961239
243	0xbd522786	-0.051307224
244	0x3c75c5ed	0.015000802
245	0x3b525432	0.0032093641
246	0xbd6014d8	-0.05470738
247	0xbc61441d	-0.01374915
248	0x3d714c81	0.05891085
249	0x3d22f03e	0.039779894
250	0x3b8cba95	0.0042947032
251	0xbd9bdf11	-0.07610906
252	0x3d0ab8ed	0.033867765
253	0xbd184aee	-0.037180834
254	0xbd1de57a	-0.038548924
255	0xbd145cd9	-0.03622136

convs.1.fc_full.bias f4 [128]
0	0x3cea233c	0.028581254
1	0xbcf49ebc	-0.029860847
2	0x3d94de69	0.07268984
3	0x3d968e75	0.0735139
4	0x3ad77240	0.0016437247
5	0x3d999e15	0.07500855
6	0x3cb0ee40	0.021597981
7	0x3d73484e	0.059395127
8	0xbcfbc006	-0.030731212
9	0x3d5441ae	0.05182045
10	0x3d8f0f6f	0.069853656
11	0x3ced23cc	0.028947733
12	0xbcb581c0	-0.022156596
13	0xbd7020c0	-0.058624983
14	0xbd31272f	-0.04325026
15	0x3d8f84df	0.07007765
16	0xbcfa3668	-0.030543521
17	0xbd413e2d	-0.047178436
18	0x3d8f2899	0.06990165
19	0x3d4bdb7a	0.049769856
20	0xbd4a3dd0	-0.049375355
21	0x3d28118c	0.04103236
22	0x3d1f96ba	0.038962103
23	0xbd26decd	-0.040739823
24	0xbc197258	-0.009365641
25	0xbd3443e5	-0.04401006
26	0x3d8cc345	0.06873182
27	0xbcbc7580	-0.023005247
28	0x3d8213d5	0.06351439
29	0x3c991718	0.01868777
30	0x3c3517a8	0.011053003
31	0x3cea0fa0	0.028571904
32	0x3d9cff29	0.076658554
33	0x3d043c42	0.03228403
34	0x3c326e00	0.010890484
35	0xbd94feda	-0.072751716
36	0xbd8e5330	-0.069494605
37	0xbd98d744	-0.07462934
38	0x3ca4ab44	0.020101197
39	0xbd501db6	-0.050809585
40	0xbbef0bf0	-0.007295124
41	0x3d35acb6	0.044354163
42	0xbd01f379	-0.031726334
43	0x3c6ed120	0.0145762265
44	0xbd69dcaa	-0.057095207
45	0x3c802f68	0.015647605
46	0x3c84ce94	0.016211785
47	0xbad45680	-0.0016200095
48	0x3c1806e0	0.009278983
49	0x3d3dc016	0.046325766
50	0xbd95415a	-0.072878554
51	0xbca45d06	-0.020063888
52	0x3cc12f6c	0.023582183
53	0x3d23ec68	0.040020376
54	0xbc93caf2	-0.018041108
55	0x3d1b9b1e	0.03798973
56	0xbd8748a2	-0.066056505
57	0x3c8aac70	0.016927928
58	0xbd11e443	-0.035618078
59	0x3d8dd2ab	0.06924947
60	0xbd798c72	-0.060924955
61	0xbd2efe34	-0.042722896
62	0xbd1a8c94	-0.037731722
63	0x3bdf8970	0.0068218037
64	0x3d9774cb	0.07395323
65	0x3ccd3384	0.025048979
66	0x3d651dc6	0.055936597
67	0xbb0adee0	-0.0021189973
68	0xbd3755f9	-0.044759724
69	0xbd674868	-0.056465536
70	0xbd611a90	-0.054956973
71	0x3d7818e6	0.06057062
72	0x3d3cceea	0.046095766
73	0xbd0a324d	-0.033739377
74	0xbd41e408	-0.04733661
75	0x3d8eb579	0.06968207
76	0xbbb13e00	-0.0054090023
77	0x3cb392b0	0.021920532
78	0x3c64b6b8	0.013959579
79	0x3d73dc3a	0.059536196
80	0x3d2711b0	0.040788352
81	0x3d1eff12	0.038817473
82	0x3d2652de	0.040606372
83	0x3d8ca2a9	0.068669625
84	0x3d0041d0	0.031312764
85	0xbcb762ca	-0.022385973
86	0xbaa6d300	-0.0012727678
87	0xbc654a48	-0.013994761
88	0xbd3c1b86	-0.045924686
89	0xbb140be0	-0.0022590086
90	0xbd8c5a9b	-0.06853219
91	0xbd0fb574	-0.035085157
92	0xbd43cf59	-0.047805164
93	0xbcbe8886	-0.023258459
94	0xbd9bb8c5	-0.07603601
95	0xbd82702a	-0.0636905
96	0xbd6f24a6	-0.05838456
97	0xbd783712	-0.060599394
98	0x3d83dc65	0.06438521
99	0xbd29ab17	-0.04142293
100	0x3c8685c0	0.016421199
101	0xbcd081b2	-0.025452469
102	0xbd2bca0f	-0.041940745
103	0x3d8556c3	0.06510689
104	0x3d6ac726	0.05731883
105	0x3c9f81d4	0.019471087
106	0xbd7c0143	-0.06152464
107	0xbd8f000d	-0.069824316
108	0xbc8c2c86	-0.017111074
109	0xbd3afc4d	-0.04565077
110	0x3c5d70f0	0.013515696
111	0x3d7d222a	0.06180016
112	0x3d739dc2	0.05947662
113	0xbd7a670a	-0.061133422
114	0x3d589532	0.05287666
115	0x3c4b1d80	0.01239717
116	0x3d06792c	0.032830402
117	0xbd99fb29	-0.07518608
118	0x3c9529fc	0.018208496
119	0xbd6b539e	-0.05745279
120	0x3af54300	0.0018711984
121	0x3c826838	0.015918836
122	0xbd4b7b0a	-0.049677886
123	0x3c652960	0.013986915
124	0xbd08b712	-0.033377714
125	0x3d1ee12c	0.03878896
126	0xbc196548	-0.009362526
127	0x3d97130d	0.073766805
